models/cdm_bacommunity.pt (torch, 238462 bytes, 12 tensors)

bias f4 [20]
0.18239625 0.15025476 0.108183496 -0.2594447 0.36003113 0.021792948 0.0106766885 0.43903524
-0.2501368 0.12522082 -0.14327495 0.026677005 0.7192864 0.51356 1.4791478 -0.11059617
-0.16015966 0.44410643 0.0400796 0.2928309
00000000: 15c6 3a3e 62dc 193e 4f8f dd3d f0d5 84be
00000010: 0056 b83e 2087 b23c 47ed 2e3c 3ac9 e03e
00000020: ee11 80be e339 003e abb6 12be bc89 da3c
00000030: 2723 383f ab78 033f b754 bd3f 3f80 e2bd
00000040: e500 24be eb61 e33e 822a 243d efed 953e

weight f4 [20, 10]
0.32451004 0.30106556 0.50989527 0.48163816 0.09415931 0.24954331 0.26307 -0.19182424
0.17931734 0.050935052 0.7627947 0.631019 0.10808262 -0.11852315 -0.16589886 -0.032477763
-0.18471164 -0.5464059 0.20476083 -0.07343804 0.5013648 0.6219603 0.45197296 -0.30870894
0.022499708 -0.18654482 0.05722718 -0.22833258 -0.18284488 7.381069e-05 0.028162006 0.11145078
-0.22870277 -0.388248 -0.44871908 0.56018007 -0.32678357 -0.59068125 0.14093006 0.1459749
-0.3010141 -0.10207817 0.06612394 0.3671706 0.32275078 -0.20446442 -0.13085379 -0.30514982
0.058019195 -0.03221642 -0.08729969 0.12906665 0.061643083 0.39761883 0.02979853 -0.45640123
-0.033249352 0.034229632 0.4828664 0.21705437 0.3635675 -0.42996344 -0.12990807 -0.17317098
-0.45167342 0.36491883 0.21690772 0.1744099 -0.27185485 -0.22122867 0.88528997 0.93817544
0.52341443 -0.110995114 -0.15393233 -0.07005089 0.21813406 -0.21061906 -0.014023846 0.11936641
-0.121773265 -0.030963432 -0.057785697 -0.120765395 0.42880094 0.4714703 -0.22415717 -0.009271093
-0.08883087 0.2607696 0.036056176 -0.45159018 -0.13001172 0.3379839 -0.26185507 0.6479428
0.4206684 0.30565807 -0.4069062 0.014148871 0.111844026 -0.34314167 -0.14517252 -0.08484141
-0.056321744 -0.39945054 0.39131787 -0.31781292 0.018655246 0.5367728 -0.54211766 0.6297044
-0.07833185 -0.08081847 -0.058841147 -0.060990628 0.24348682 0.6165275 -0.33967853 -0.35950586
0.70929843 0.2835177 -0.42675698 0.12346184 0.07967386 -0.013725769 -0.2773585 0.1240404
-0.058147207 -0.28837734 0.042439688 0.08103036 -0.4282835 -0.12397553 0.056061406 0.2967473
0.09593177 -0.35921738 0.36612505 -0.11880545 0.07234868 0.0404873 0.11682662 -0.08959116
-0.17953338 0.07165375 -0.021520305 0.0022200765 -0.13272773 0.13619523 0.39269546 -0.28744093
0.32431468 -0.12468296 0.011995227 -0.18343213 -0.281573 0.24673797 0.3415683 0.17093126
-0.45027715 0.16248938 0.057266723 0.34038022 -0.025361035 0.27932528 -0.22684494 -0.20455424
-0.2495378 -0.2557957 -0.19327264 -0.14943881 0.17145166 -0.26480862 0.31221762 -0.2147586
0.16938767 0.1543271 0.10538998 -0.6481332 0.066088445 0.23150134 -0.4344631 0.47427917
0.51466686 0.18431807 0.29679066 0.42811912 -0.0917008 -0.057001058 0.34471697 0.86125594
0.36027902 -0.35513952 0.04263932 0.10561219 0.27948827 -0.051893625 -0.08908386 0.41779986
00000000: 2e26 a63e 4425 9a3e 7f88 023f 4799 f63e
00000010: 99d6 c03d 4888 7f3e 1cb1 863e 936d 44be
00000020: f79e 373e 46a1 503d 8346 433f 768a 213f
00000030: 6c5a dd3d 44bc f2bd 64e1 29be 6707 05bd
00000040: 0c25 3dbe 42e1 0bbf d3ac 513e af66 96bd
00000050: 7259 003f ca38 1f3f 0069 e73e 190f 9ebe
00000060: 4f51 b83c 9b05 3fbe 0c67 6a3d 04d0 69be
00000070: b03b 3bbe d0ca 9a38 02b4 e63c 4e40 e43d
00000080: 0f31 6abe 71c8 c6be 82be e5be f667 0f3f
00000090: 2d50 a7be e336 17bf f84f 103e 727a 153e
000000a0: 851e 9abe 5c0e d1bd fd6b 873d c9fd bb3e
000000b0: 973f a53e 1f5f 51be 89fe 05be 993c 9cbe
000000c0: 89a5 6d3d 5df5 03bd 2eca b2bd 0c2a 043e
000000d0: 757d 7c3d b294 cb3e 0c1c f43c 6cad e9be
000000e0: 7930 08bd 5f34 0c3d 443a f73e 8043 5e3e
000000f0: 8525 ba3e 2b24 dcbe 9f06 05be bc53 31be
00000100: bd41 e7be a4d6 ba3e 0f1d 5e3e 8298 323e
00000110: 8f30 8bbe c589 62be 5da2 623f 442c 703f
00000120: 7dfe 053f 6851 e3bd 70a0 1dbe d776 8fbd
00000130: 895e 5f3e 86ac 57be 46c4 65bc 6076 f43d
00000140: 4364 f9bd 06a7 fdbc b2b0 6cbd d953 f7bd
00000150: cc8b db3e 8e64 f13e 7589 65be c8e5 17bc
00000160: f6ec b5bd 9883 853e a4af 133d d436 e7be
00000170: cb21 05be 3a0c ad3e de11 86be 94df 253f
00000180: d961 d73e 377f 9c3e 0256 d0be abd0 673c
00000190: 7b0e e53d 44b0 afbe 1ba8 14be 55c1 adbd
000001a0: a1b1 66bd c884 ccbe d15a c83e 60b8 a2be
000001b0: e3d2 983c f169 093f 39c8 0abf 4f34 213f
000001c0: 736c a0bd 2784 a5bd 6a03 71bd 4fd1 79bd
000001d0: 9c54 793e bfd4 1d3f 58ea adbe 2711 b8be
000001e0: 9594 353f 3b29 913e e47f dabe 90d9 fc3d
000001f0: 0c2c a33d 0ce2 60bc ef01 8ebe e508 fe3d
00000200: c42b 6ebd 32a6 93be 3dd5 2d3d 3ff3 a53d
00000210: fa47 dbbe e2e6 fdbd a5a0 653d 43ef 973e
00000220: e077 c43d 57eb b7be be74 bb3e 4650 f3bd
00000230: 8b2b 943d 03d6 253d cc42 ef3d 927b b7bd
00000240: 99d7 37be 34bf 923d 5a4b b0bc b47e 113b
00000250: c7e9 07be c376 0b3e 610f c93e 752b 93be
00000260: 930c a63e c859 ffbd a187 443c a2d5 3bbe
00000270: 562a 90be e1a8 7c3e 0ae2 ae3e 9b08 2f3e
00000280: ba8a e6be 9e63 263e 8390 6a3d 5146 ae3e
00000290: f2c1 cfbc b903 8f3e 0a4a 68be ab76 51be
000002a0: d686 7fbe a7f7 82be 43e9 45be 7d06 19be
000002b0: 0691 2f3e ff94 87be fdda 9f3e aee9 5bbe
000002c0: f673 2d3e ec07 1e3e b4d6 d73d 0fec 25bf
000002d0: 6159 873d b00e 6d3e f371 debe b8d4 f23e
000002e0: 35c1 033f e0bd 3c3e f2f4 973e 6e32 db3e
000002f0: a1cd bbbd f179 69bd be7e b03e 457b 5c3f
00000300: 7e76 b83e d9d4 b5be 91a6 2e3d 344b d83d
00000310: 1619 8f3e 698e 54bd 9971 b6bd dde9 d53e

bias f4 [20]
0.41749698 -0.26859933 0.049310975 -0.100026384 0.21734813 -0.13550644 -0.04554722 0.36567235
0.14391612 -0.011119416 -0.012744373 -0.019571878 0.29331362 0.27358902 0.24279262 0.38866878
0.058010906 -0.16425031 -0.026628627 0.66180533
00000000: 2ac2 d53e da85 89be 4efa 493d a2da ccbd
00000010: 8290 5e3e 33c2 0abe b98f 3abd 6839 bb3e
00000020: bf5e 133e 362e 36bc c6cd 50bc 3455 a0bc
00000030: 342d 963e dc13 8c3e a19e 783e 98ff c63e
00000040: d89c 6d3d 3c31 28be 4724 dabc 136c 293f

weight f4 [20, 20]
0.3415349 -0.39144835 0.0062043313 -0.121762216 0.105956964 0.21085525 0.3186839 -0.0035074404
0.24997847 -0.027963292 0.5186399 0.5602817 0.34322703 -0.54443955 -0.18357107 0.10017241
0.11932633 0.0054377 -0.05035028 0.06488372 -0.26610157 -0.38310093 -0.4060894 0.24816091
0.29714248 0.13389215 -0.07471982 -0.6821514 0.17999695 -0.021274658 0.15041846 0.14362618
-0.27099106 0.14706123 0.6275738 0.23850492 0.3423349 0.37483075 0.29456466 -0.50567895
0.020491095 0.17463031 0.19412252 -0.14068542 -0.16335982 -0.10597993 -0.0689122 0.29429656
-0.07073473 -0.14536315 -0.22907779 -0.050849296 0.12231385 -0.08944522 0.015139869 -0.0759423
-0.08659211 -0.083790235 0.18885443 0.2291599 0.083802685 0.038898855 -0.10124279 -0.32180506
-0.023337068 0.08610112 0.07336589 0.023299316 -0.0073218876 0.12014879 -0.14784391 -0.19558698
0.22981156 -0.0920902 0.27640358 0.1830406 0.1430321 -0.33186573 0.06673488 0.027271446
0.18733579 0.14085685 0.1708719 0.14091273 -0.032771558 -0.12301272 0.15918636 0.26366222
0.026584629 0.21660233 0.031721417 0.122037545 0.1360537 -0.06920689 -0.15897247 0.05040626
0.039398476 -0.054624174 -0.08956188 0.12155762 -0.054336213 0.14814432 -0.063667506 -0.17824526
0.32821554 -0.020550298 -0.2504988 0.049074102 -0.28360474 0.13285258 -0.20846078 -0.32260007
0.123630844 0.287775 1.1642662 -0.20504345 -0.27799848 0.2677483 0.08528661 0.12028512
-0.028724255 0.12457898 0.07091191 0.01682581 0.17221901 -0.09154766 -0.17939137 0.15129285
-0.011029229 0.050443556 -0.12162038 -0.12305981 0.09313857 0.049716227 0.105474964 0.014328737
-0.11280181 -0.08207348 0.19376062 0.1671788 0.3397292 -0.41060674 -0.19778003 -0.060608838
0.0064759916 0.12971915 0.25982496 -0.31138384 0.11480006 -0.034667257 0.08185179 0.26257026
0.28756395 -0.17504321 0.3320855 0.02544571 -0.0848292 0.029373642 0.020488162 -0.03835669
0.050387084 0.07108269 0.03465472 -0.2927606 -0.3043114 -0.22781757 0.0541258 -0.07033125
-0.006256386 0.49372783 -0.22321348 -0.53177434 0.049513638 0.2815014 -0.07557575 -0.12023375
0.18351327 -0.43621656 0.047113825 0.19503672 0.14926474 0.3496972 0.2792499 -0.08868257
0.072592005 -0.26453862 -0.19152392 0.47821793 0.03531113 -0.0019982434 -0.08597445 -0.068807855
0.22850098 -0.0066795503 0.07261296 -0.19737402 -0.16927859 0.036131598 -0.018764446 0.40297732
0.11209469 0.3075439 0.24118635 -0.08177415 0.03974663 -0.20498733 -0.20198357 0.42312732
-0.0123715345 0.04257381 -0.12211253 -0.1458706 0.13091654 0.049154706 0.02348293 -0.10048161
-0.017262667 0.1048183 0.009408827 0.34140074 -0.061425406 0.3362283 0.23291762 -0.44147426
-0.3053736 -0.14661115 -0.0556418 0.4498554 -0.14280634 -0.10232976 -0.35868084 -0.28267446
0.24113762 0.03902941 0.056047913 -0.11992321 -0.09947275 -0.20593932 0.29008847 0.32419896
-0.1319956 -0.008379434 0.50242025 0.6156755 0.22560355 0.11672883 0.19482084 0.27828896
0.2926238 -0.31481066 0.22383182 0.18432401 -0.4142448 -0.4502512 -0.25915152 0.44925556
00000000: aadd ae3e eb6b c8be b44d cb3b 785e f9bd
00000010: f7ff d83d 70ea 573e 892a a33e 16dd 65bb
00000020: 5bfa 7f3e 4613 e5bc 96c5 043f 9f6e 0f3f
00000030: 74bb af3e 6460 0bbf 0efa 3bbe 3127 cd3d
00000040: 5d61 f43d bc2e b23b 183c 4ebd c1e1 843d
00000050: 773e 88be ce25 c4be f3ea cfbe e51d 7e3e
00000060: 0f23 983e 061b 093e b406 99bd 79a1 2ebf
00000070: 1f51 383e 3148 aebc 4c07 1a3e be12 133e
00000080: 57bf 8abe 3897 163e ada8 203f a23a 743e
00000090: 8546 af3e d1e9 bf3e 2ed1 963e 2d74 01bf
000000a0: f1dc a73c 4ad2 323e 0ec8 463e d70f 10be
000000b0: cc47 27be 010c d9bd d721 8dbd 0aae 963e
000000c0: 5fdd 90bd 14da 14be 5e93 6abe 5a47 50bd
000000d0: af7f fa3d 0e2f b7bd 370d 783c a387 9bbd
000000e0: 3457 b1bd 379a abbd 0e63 413e e5a8 6a3e
000000f0: bea0 ab3d 6854 1f3d 6158 cfbd a2c3 a4be
00000100: 612d bfbc c955 b03d db40 963d 35de be3c
00000110: 72ec efbb 9210 f63d 6564 17be f447 48be
00000120: b953 6b3e c999 bcbd c584 8d3e ff6e 3b3e
00000130: 0277 123e 4eea a9be 4cac 883d 5e68 df3c
00000140: f4d4 3f3e c73c 103e 0bf9 2e3e 6d4b 103e
00000150: 783b 06bd 18ee fbbd c001 233e bcfe 863e
00000160: 02c8 d93c 00cd 5d3e 51ee 013d d2ee f93d
00000170: a951 0b3e 58bc 8dbd aec9 22be cb76 4e3d
00000180: 4c60 213d 99bd 5fbd 386c b7bd 34f3 f83d
00000190: a68f 5ebd 25b3 173e 1c64 82bd ed85 36be
000001a0: de0b a83e 1959 a8bc 6141 80be ed01 493d
000001b0: a434 91be 820a 083e be76 55be d62b a5be
000001c0: 2b32 fd3d 3f57 933e ad06 953f e9f6 51be
000001d0: d155 8ebe 4e16 893e bfaa ae3d 0c58 f63d
000001e0: 214f ebbc 4423 ff3d 433a 913d 48d6 893c
000001f0: 2e5a 303e 577d bbbd 5fb2 37be 83ec 1a3e
00000200: f0b3 34bc e79d 4e3d 1b14 f9bd c806 fcbd
00000210: 6fbf be3d 3ea3 4b3d 4203 d83d 14c3 6a3c
00000220: a304 e7bd 2416 a8bd 2f69 463e eb30 2b3e
00000230: fcf0 ad3e 0c3b d2be d986 4abe f940 78bd
00000240: 8e34 d43b 19d5 043e c707 853e b46d 9fbe
00000250: 4b1c eb3d 41ff 0dbd e9a1 a73d 9c6f 863e
00000260: 953b 933e 873e 33be 1c07 aa3e 8673 d03c
00000270: eeba adbd fea0 f03c cad6 a73c e81b 1dbd
00000280: b062 4e3d cd93 913d 1cf2 0d3d b8e4 95be
00000290: b4ce 9bbe 0249 69be 04b3 5d3d d509 90bd
000002a0: 5f02 cdbb e5c9 fc3e 1392 64be 5d22 08bf
000002b0: d0ce 4a3d f420 903e 75c7 9abd 1d3d f6bd
000002c0: e7ea 3b3e c757 dfbe 6dfa 403d b5b7 473e
000002d0: dbd8 183e 830b b33e d8f9 8e3e 359f b5bd
000002e0: 1eab 943d 9b71 87be d91e 44be fbd8 f43e
000002f0: 67a2 103d f6f4 02bb 5f13 b0bd 22eb 8cbd
00000300: 29fc 693e 21e0 dabb 1bb6 943d 6a1c 4abe
00000310: 5e57 2dbe bafe 133d e5b7 99bc 0b53 ce3e
00000320: e791 e53d 6576 9d3e 8ef9 763e 3579 a7bd
00000330: 5dcd 223d 33e8 51be c8d4 4ebe 25a4 d83e
00000340: fab1 4abc e061 2e3d 2216 fabd 1a5f 15be
00000350: fc0e 063e 7256 493d 465f c03c 4dc9 cdbd
00000360: 706a 8dbc faaa d63d 7b27 1a3c 14cc ae3e
00000370: 3599 7bbd 1e26 ac3e f581 6e3e ea08 e2be
00000380: ee59 9cbe 3c21 16be a8e8 63bd 7253 e63e
00000390: d33b 12be 4492 d1bd 04a5 b7be b5ba 90be
000003a0: c8ec 763e 4ddd 1f3d 7f92 653d 4d9a f5bd
000003b0: 5fb8 cbbd c2e1 52be 7a86 943e 68fd a53e
000003c0: db29 07be e549 09bc 9d9e 003f e99c 1d3f
000003d0: 9e04 673e 860f ef3d 1d7f 473e e47b 8e3e
000003e0: c9d2 953e dd2e a1be 2b34 653e 6fbf 3c3e
000003f0: e517 d4be 5387 e6be 82af 84be d304 e63e

bias f4 [20]
0.32816592 0.123729214 -0.06185256 0.2789858 1.6015307 0.19089772 0.121745594 0.042292003
-0.4357459 0.013827655 -0.01753103 -0.011589214 -0.6564289 -0.17529155 0.042075664 -0.9684763
0.0028745923 -0.65991616 -0.8025105 1.6003611
00000000: 5d05 a83e be65 fd3d 1c59 7dbd 3ad7 8e3e
00000010: f5fe cc3f b17a 433e c155 f93d 613a 2d3d
00000020: 161a dfbe 648d 623c 3c9d 8fbc b0e0 3dbc
00000030: b90b 28bf a17f 33be 8857 2c3d 10ee 77bf
00000040: a863 3c3b 44f0 28bf 5471 4dbf a2d8 cc3f

weight f4 [20, 20]
0.3069381 -0.03822752 -0.022247704 0.066379935 0.10362571 -0.25670472 -0.14614996 0.1745189
0.18081342 -0.051069453 -0.07284524 -0.020400545 0.29687858 0.13413773 0.18089679 0.36106113
0.027642632 -0.20763026 -0.06801974 0.45010358 -0.33029506 0.20729862 0.0007934681 -0.113023184
-0.11062232 0.33264235 0.10325671 -0.13998044 -0.15838952 0.00611576 0.055846825 -0.00027979375
-0.28376254 -0.06813655 -0.123398684 -0.28689197 -0.0002942329 0.34654686 0.0126331495 -0.41030794
-0.067917906 0.14486009 0.008653129 0.21081303 -0.0065380675 0.4021755 0.19572343 -0.009355669
-0.051483013 0.14256114 0.12198424 0.0023554617 -0.15039773 -0.13971446 -0.087483965 -0.22434956
0.13233534 0.25697482 0.1794245 -0.33078408 0.30616978 -0.026234454 -0.022878574 0.06754283
0.090314105 -0.24645963 -0.14609608 0.18800882 0.17988941 -0.060637314 -0.07941119 -0.02363444
0.28562516 0.14122994 0.17196004 0.36376595 0.018910903 -0.20770991 -0.08108701 0.4502635
0.28007692 -0.5181951 0.14489335 -0.26695696 0.3819837 -0.5139489 0.08012271 -0.029252386
0.0494734 0.27162826 0.25545546 -0.07854729 0.6806921 -0.062112384 0.52131414 0.3267254
0.36070043 0.01029106 0.32060823 0.3675118 -0.24623567 0.25908238 0.00083725806 -0.13852233
-0.08997464 0.2667462 0.0857363 -0.14107057 -0.048590858 -0.040760975 0.07157998 -0.00036417443
-0.2994793 -0.112746514 -0.11746298 -0.24322952 0.055038434 0.3623162 -0.04900794 -0.48504144
-0.30744058 0.21361558 0.00060696615 -0.13386218 -0.13959739 0.33565226 0.0690518 -0.12814732
-0.15876606 -0.026590547 0.036328934 -0.0012960843 -0.26829088 -0.055146154 -0.14688925 -0.31047168
-0.0052362466 0.3301327 -0.025022201 -0.43843293 -0.17719595 0.1548343 0.0007907938 -0.013170443
-0.008409613 0.3011653 -0.013122284 0.03057349 -0.14036384 -0.027066194 0.014725632 -0.0073182946
-0.17632556 0.11877636 -0.057825297 -0.26576668 -0.07100215 -0.016885927 -0.030229332 -0.17041522
0.30107534 0.19491006 -0.017579775 0.10349462 0.0070647644 0.02545489 -0.10517078 0.24633051
0.1396296 -0.06916995 -0.12987283 -0.0077561964 0.099682875 0.2560914 -0.06460753 0.3392339
-0.17794923 -0.09143058 -0.093834445 0.3655202 -0.161204 0.14523216 0.0024087755 -0.01754178
0.018364657 0.3010101 0.009660705 0.057642344 -0.14024456 -0.015025278 0.030951092 -0.005430096
-0.20239305 0.12687182 -0.035559006 -0.26607442 -0.049215347 -0.025234329 -0.015173149 -0.13775328
-0.49914065 0.24929987 0.3119958 0.3014986 0.028387995 0.24602373 0.1392388 -0.36372232
0.43591586 0.35985047 0.24829318 0.66470027 -0.66887 -0.4474899 0.005957454 0.13267861
0.23927978 0.26807293 0.48450744 -0.41272086 -0.5038074 0.24712478 0.32263637 0.29981774
0.040007744 0.25586504 0.14326255 -0.36317784 0.4388176 0.33456844 0.26379025 0.68745875
-0.6637137 -0.44982305 0.0217822 0.12741694 0.26958677 0.27270326 0.44536155 -0.4035618
0.28167304 0.22756161 -0.019258253 0.15948334 -0.052667953 0.07218624 -0.1240901 0.32949832
0.12953183 -0.1267685 -0.13188155 -0.0070853457 0.09106423 0.2559651 -0.009549401 0.35005823
00000000: fe26 9d3e 7694 1cbd d140 b6bc 34f2 873d
00000010: b739 d43d cd6e 83be 56a8 15be 15b5 323e
00000020: 2727 393e 342e 51bd e32f 95bd 0b1f a7bc
00000030: 7800 983e 675b 093e 023d 393e 01dd b83e
00000040: cd72 e23c 079d 54be ef4d 8bbd fa73 e63e
00000050: 6f1c a9be 1746 543e be00 503a b378 e7bd
00000060: f48d e2bd 1950 aa3e 4178 d33d 0857 0fbe
00000070: dd30 22be b766 c83b a4bf 643d 48b1 92b9
00000080: 5349 91be 2d8b 8bbd 73b8 fcbd 81e3 92be
00000090: 4543 9ab9 976e b13e 45fb 4e3c e213 d2be
000000a0: 8b18 8bbd 3456 143e dbc5 0d3c 5fdf 573e
000000b0: 493d d6bb f2e9 cd3e b96b 483e 8548 19bc
000000c0: dadf 52bd 8cfb 113e e0d2 f93d 175e 1a3b
000000d0: dd01 1abe 4f11 0fbe cb2a b3bd e4bb 65be
000000e0: ea82 073e 3492 833e 0ebb 373e 885c a9be
000000f0: 49c2 9c3e a3e9 d6bc d96b bbbc e553 8a3d
00000100: 9af6 b83d ea5f 7cbe 369a 15be 6285 403e
00000110: ee34 383e d55e 78bd 55a2 a2bd 039d c1bc
00000120: 763d 923e 959e 103e 4b16 303e 883f ba3e
00000130: 0aeb 9a3c e8b1 54be f210 a6bd f088 e63e
00000140: 3e66 8f3e 6fa8 04bf ec5e 143e 95ae 88be
00000150: 5e93 c33e 2892 03bf 6017 a43d b3a2 efbc
00000160: 9fa4 4a3d dc12 8b3e 0fcb 823e 67dd a0bd
00000170: d641 2e3f 8e69 7ebd d874 053f 8d48 a73e
00000180: baad b83e d69b 283c c326 a43e 822a bc3e
00000190: 3425 7cbe 72a6 843e 707b 5b3a ccd8 0dbe
000001a0: a044 b8bd f592 883e 8396 af3d ce74 10be
000001b0: 3507 47bd fbf4 26bd 8698 923d aaee beb9
000001c0: 5a55 99be a5e7 e6bd 6e90 f0bd 2911 79be
000001d0: fb6f 613d 8281 b93e 8dbc 48bd 5a57 f8be
000001e0: da68 9dbe 0bbe 5a3e cf1c 1f3a 2b13 09be
000001f0: 9ef2 0ebe 9dda ab3e 086b 8d3d 0d39 03be
00000200: 9293 22be 6bd4 d9bc a6cd 143d 5fe1 a9ba
00000210: 6c5d 89be efe0 61bd 236a 16be 25f6 9ebe
00000220: d294 abbb 2707 a93e 5cfb ccbc 487a e0be
00000230: db72 35be e28c 1e3e 464d 4f3a d7c8 57bc
00000240: 79c8 09bc 5732 9a3e d9fe 56bc 4175 fa3c
00000250: 8abb 0fbe ecb9 ddbc c743 713c 4ece efbb
00000260: b08e 34be 0541 f33d 38da 6cbd 9212 88be
00000270: 9369 91bd 5b54 8abc 81a3 f7bc 5481 2ebe
00000280: 8c26 9a3e 8196 473e 7603 90bc fdf4 d33d
00000290: 8a7f e73b c686 d03c c763 d7bd 113e 7c3e
000002a0: 10fb 0e3e faa8 8dbd 62fd 04be b127 febb
000002b0: 8926 cc3d 691e 833e f450 84bd 11b0 ad3e
000002c0: 5338 36be f53f bbbd 462c c0bd 7725 bb3e
000002d0: a912 25be bdb7 143e 8cdc 1d3b c7b3 8fbc
000002e0: 7a71 963c ff1d 9a3e ef47 1e3c 611a 6c3d
000002f0: 459c 0fbe 952c 76bc 258d fd3c f2ee b1bb
00000300: 2040 4fbe b0ea 013e 52a6 11bd e83a 88be
00000310: 0896 49bd 39b8 cebc cd98 78bc 320f 0dbe
00000320: 5d8f ffbe 7748 7f3e eabd 9f3e 065e 9a3e
00000330: f18d e83c a5ed 7b3e 9e94 0e3e d039 babe
00000340: 5d30 df3e 523e b83e 9140 7e3e cc29 2a3f
00000350: 103b 2bbf 651d e5be bf36 c33b e7dc 073e
00000360: c205 753e db40 893e 5c11 f83e 2650 d3be
00000370: 86f9 00bf 470e 7d3e 9830 a53e b681 993e
00000380: 29df 233d be00 833e 6bb3 123e 72f2 b9be
00000390: b3ac e03e 8e4c ab3e 840f 873e 4cfd 2f3f
000003a0: 24e9 29bf 354f e6be 9670 b23c 9679 023e
000003b0: 4707 8a3e c39f 8b3e 6e06 e43e a79f cebe
000003c0: 7337 903e e905 693e 7cc3 9dbc 9a4f 233e
000003d0: 5aba 57bd 61d6 933d f322 febd 01b4 a83e
000003e0: fea3 043e 9acf 01be f50b 07be 302c e8bb
000003f0: e27f ba3d dc0d 833e 1775 1cbc d53a b33e

weight f4 [8, 1, 20]
-0.7265312 0.7328162 0.7287399 -0.7223932 -0.73235446 0.72713584 0.7308018 0.73142433
-0.06406062 0.7137327 -0.006808498 -0.0064496086 -0.06355394 0.7321947 0.7277338 -0.02613119
0.7214895 -0.056351483 -0.4450445 -0.72774386 0.017414438 -0.99001527 -0.077662356 0.018124223
-1.000781 -0.99192095 -0.9983032 -0.05042439 1.0023699 -0.04179038 -0.9917909 -0.99170804
0.99865985 -0.08629753 -0.047325093 1.0030552 -0.41201857 1.0042508 -0.9987527 -1.0042449
0.82988846 0.0351277 0.15299132 0.8313517 0.831379 0.040155802 0.0404279 0.81898665
0.83367896 0.83471495 0.8276132 0.80468374 0.83428764 0.08401428 0.8317818 0.82818335
0.22651632 0.8323166 0.8273024 0.8329596 0.91122615 -0.068300344 -0.9026737 0.9124684
0.91268927 -0.07093223 -0.071072094 -0.87341315 0.9001925 -0.8509932 -0.072672665 -0.07361932
0.9091124 -0.15239874 -0.8915705 0.9054976 -0.88656604 0.90790075 -0.10978547 0.91059375
-0.11591331 -0.23900346 -0.81683993 -0.11594378 -0.83506805 -0.25417 -0.24590588 -0.20850429
-0.836662 -0.21342422 0.8358789 0.8363532 -0.8203527 -0.39775681 -0.2085483 -0.2894228
-0.28526375 -0.8358352 -0.8352888 -0.833583 -0.063294016 -0.16915901 -0.12544374 -0.57037807
-1.1922563 -0.18036343 -0.17458698 -0.13156717 -0.12233336 -0.12795714 -1.1922234 -1.1895647
-1.1869718 -0.17984328 -0.13193552 -1.1905775 -0.16182086 -1.1911409 1.19262 -1.1702223
-0.044791304 -0.055341396 -0.0087406 -0.04872225 1.4531475 -0.06027827 -0.05930421 -0.06119103
-0.07135032 -0.05650032 0.013424146 0.022382464 -0.6456849 -0.053306766 -0.06081458 -1.4479434
-0.05358142 -1.4529847 1.4496145 1.4515145 0.045594208 -0.04912645 -0.02785529 0.040032096
1.0084201 -0.052246846 -0.052761696 -0.012960075 -0.02172176 -0.0067565097 -1.005306 -1.0086808
-0.033412993 -0.04795436 -0.012883022 -1.0058557 -0.034689058 -0.0452976 1.0068787 1.0080395
00000000: f3fd 39bf d899 3b3f b38e 3a3f c3ee 38bf
00000010: 957b 3bbf 9325 3a3f d415 3b3f a03e 3b3f
00000020: 3732 83bd 30b7 363f d219 dfbb 3d57 d3bb
00000030: 9128 82bd 1d71 3b3f c34c 3a3f 1411 d6bc
00000040: 89b3 383f d0d0 66bd dfdc e3be 6c4d 3abf
00000050: b9a8 8e3c a471 7dbf 710d 9fbd 4079 943c
00000060: 9819 80bf 88ee 7dbf cc90 7fbf ce89 4ebd
00000070: a84d 803f 642c 2bbd 02e6 7dbf 94e0 7dbf
00000080: 2ca8 7f3f c2bc b0bd f5d7 41bd 1d64 803f
00000090: 19f4 d2be 4a8b 803f 42ae 7fbf 198b 80bf
000000a0: 9273 543f 10e2 0f3d c2a9 1c3e 77d3 543f
000000b0: 41d5 543f 697a 243d ba97 253d 1ca9 513f
000000c0: fc6b 553f e1af 553f 75de 533f c1ff 4d3f
000000d0: e093 553f ae0f ac3d a7ef 543f d303 543f
000000e0: e5f3 673e b312 553f 17ca 533f d73c 553f
000000f0: 1e46 693f 0de1 8bbd a015 67bf 8797 693f
00000100: 01a6 693f eb44 91bd 3f8e 91bd 0198 5fbf
00000110: 0473 663f b1da 59bf 68d5 94bd bac5 96bd
00000120: 97bb 683f 6a0e 1cbe f73d 64bf b1ce 673f
00000130: fef5 62bf 2f6c 683f 34d7 e0bd ac1c 693f
00000140: f563 edbd 53bd 74be 6c1c 51bf ef73 edbd
00000150: 05c7 55bf 9222 82be c0ce 7bbe 2682 55be
00000160: 7b2f 56bf e18b 5abe 29fc 553f 3e1b 563f
00000170: a202 52bf c8a6 cbbe b08d 55be 3a2f 94be
00000180: 170e 92be 4cf9 55bf 7dd5 55bf b265 55bf
00000190: 4ba0 81bd 0538 2dbe 5374 00be 4c04 12bf
000001a0: db9b 98bf 31b1 38be eec6 32be 8bb9 06be
000001b0: ea89 fabd 3207 03be c79a 98bf a843 98bf
000001c0: b1ee 97bf d628 38be 1b1a 07be d864 98bf
000001d0: 5eb4 25be 4e77 98bf c6a7 983f d8c9 95bf
000001e0: 1677 37bd a9ad 62bd bc34 0fbc fb90 47bd
000001f0: bd00 ba3f 59e6 76bd f9e8 72bd 72a3 7abd
00000200: 1e20 92bd e16c 67bd f3f0 5b3c 6e5b b73c
00000210: 9b4b 25bf 3258 5abd b618 79bd 3656 b9bf
00000220: 3178 5bbd 67fb b9bf f88c b93f 3acb b93f
00000230: fec0 3a3d d138 49bd c730 e4bc b2f8 233d
00000240: e913 813f ca00 56bd a61c 58bd 7f56 54bc
00000250: d5f1 b1bc b665 ddbb dead 80bf 741c 81bf
00000260: 10dc 08bd ca6b 44bd 5013 53bc e1bf 80bf
00000270: 1d16 0ebd fa89 39bd 67e1 803f 7007 813f

bias f4 [8, 1, 1]
-1.5865658e-07 1.17053354e-07 5.0035655e-05 -1.4638981e-07 2.5884984e-07 2.209368e-07 -1.836919e-07 -2.9536309e-06
00000000: 305b 2ab4 c35e fb33 60dd 5138 532f 1db4
00000010: 0df8 8a34 a53a 6d34 d83c 45b4 fe36 46b6

concepts f4 [1, 1400, 20]
0.88488656 0.75115144 0.9054594 0.88172114 0.94113964 0.8320551 0.742946 0.8250639
1.0 0.8384053 0.60269886 0.6187449 0.9729807 0.83086145 0.82293826 0.9675933
0.84468615 0.97726196 0.47778946 0.9337357 0.9703188 0.4448189 0.56734365 0.9659229
0.98734856 0.43595123 0.4495852 0.62369436 1.0 0.63279134 0.39703047 0.3971493
0.98741233 0.52940565 0.6216249 0.99996823 0.5500955 0.9906938 0.39855328 0.97775006
0.79659283 0.8797699 0.9812668 0.7969892 0.7133203 0.883646 0.87874836 0.98757607
0.9681259 0.9941877 0.506452 0.5098142 0.9509591 0.90724623 0.9849419 1.0
0.96773833 0.96349883 0.5042299 0.70804644 0.048843008 0.026571397 0.08594849 0.04429693
0.9621463 0.02652387 0.02651881 0.028194657 0.026531251 0.032414734 0.25734186 0.26670125
0.026478296 0.02659928 0.028803747 0.026154308 0.031068012 0.026387528 1.0 0.95162416
0.08769588 0.029355481 0.08212752 0.08151001 0.897765 0.029352557 0.029296659 0.029442642
0.045439687 0.033092055 0.27417675 0.28566885 0.040367052 0.029452324 0.029446939 0.0292638
0.031333216 0.030587334 1.0 0.88662094 0.00019957499 7.070168e-05 0.0012242777 0.00015297101
1.0 7.0489004e-05 7.025713e-05 7.069393e-05 7.0329465e-05 7.099695e-05 0.27755204 0.29814467
6.999831e-05 7.110693e-05 7.075429e-05 6.7511064e-05 7.1201655e-05 6.922966e-05 0.96356606 0.97998697
0.017698389 0.0051248744 0.026955053 0.015599287 0.94409233 0.005115402 0.0051117563 0.0051476173
0.0060646613 0.005625665 0.06896705 0.072965726 0.0051522264 0.0051480983 0.005149159 0.0050662817
0.0055195754 0.0051258765 1.0 0.92737037 0.026012786 0.013216639 0.054230895 0.023122178
0.9693483 0.013203191 0.013184575 0.013237156 0.013189857 0.015093085 0.32692364 0.34005842
0.013158818 0.013239776 0.013240641 0.012961124 0.015252011 0.013102236 1.0 0.9573121
0.9988471 0.3668106 0.46795574 0.99456376 0.975001 0.36673215 0.37441677 0.58517194
1.0 0.59443814 0.36272305 0.3628288 0.9954435 0.43308893 0.58234805 0.99902785
0.47833285 0.99539745 0.36582375 0.96388793 0.88515025 0.69443357 0.7863188 0.88377136
0.8342999 0.6891577 0.6928611 0.89036417 1.0 0.9081795 0.4767834 0.47691184
0.9792979 0.7279225 0.8861215 0.9916337 0.8068371 0.9849008 0.4767158 0.8267609
0.9684788 0.4061166 0.53590137 0.9643588 0.98233545 0.39630073 0.42043546 0.65696126
0.99991953 0.663135 0.37424484 0.3743547 1.0 0.4748666 0.6546123 0.9682393
0.54301596 0.99105334 0.407973 0.9708566 0.0009875566 0.0005781694 0.006590116 0.00079654745
0.9869825 0.0005770058 0.00057562324 0.00057735585 0.0005717516 0.0005790385 0.27944532 0.29648113
0.0005693189 0.00058825995 0.0005777282 0.0005534313 0.0006957466 0.00056457927 1.0 0.9726834
0.67223346 0.71055233 0.9836039 0.6763638 0.58137846 0.71961635 0.72931457 0.91141945
0.9681848 0.9313966 0.3849085 0.38504148 0.9985933 0.86503047 0.91208005 1.0
00000000: ed87 623f 764b 403f 30cc 673f 7ab8 613f
00000010: 87ee 703f 9001 553f b631 3e3f 6337 533f
00000020: 0000 803f bba1 563f 794a 1a3f 1166 1e3f
00000030: 4315 793f 56b3 543f 15ac 523f 32b4 773f
00000040: 5a3d 583f d72d 7a3f d2a0 f43e 4e09 6f3f
00000050: d066 783f 4ebf e33e 6f3d 113f b946 773f
00000060: e0c2 7c3f 0035 df3e 0830 e63e 6faa 1f3f
00000070: 0000 803f 9dfe 213f 9447 cb3e 2757 cb3e
00000080: 0ec7 7c3f 2187 073f cf22 1f3f ebfd 7f3f
00000090: 0fd3 0c3f 1c9e 7d3f 2d0f cc3e d44d 7a3f
000000a0: 82ed 4b3f 9a38 613f 4d34 7b3f 7c07 4c3f
000000b0: 299c 363f a036 623f a7f5 603f c9d1 7c3f
000000c0: 19d7 773f 1683 7e3f d7a6 013f 2f83 023f
000000d0: 0e72 733f 4a41 683f 2725 7c3f 0000 803f
000000e0: b3bd 773f dca7 763f 3615 013f 8842 353f
000000f0: 9b0f 483d 42ac d93c c305 b03d b370 353d
00000100: 384f 763f 9648 d93c fa3d d93c 7bf8 e63c
00000110: 1158 d93c 50c5 043d 50c2 833e 118d 883e
00000120: 03e9 d83c bce6 d93c d6f5 eb3c 8f41 d63c
00000130: 5882 fe3c a82a d83c 0000 803f a49d 733f
00000140: e699 b33d e87a f03c 7932 a83d b8ee a63d
00000150: edd3 653f c674 f03c 8cff ef3c b231 f13c
00000160: f71e 3a3d 898b 073d e560 8c3e 3043 923e
00000170: ec57 253d 0046 f13c b53a f13c a3ba ef3c
00000180: 4257 003d 4a92 fa3c 0000 803f 97f9 623f
00000190: 0145 5139 ad45 9438 f177 a03a d866 2039
000001a0: 0000 803f 7fd3 9338 0257 9338 8441 9438
000001b0: d87d 9338 33e4 9438 4d1b 8e3e 6ba6 983e
000001c0: 0ecc 9238 3e1f 9538 ec61 9438 ba94 8d38
000001d0: 1952 9538 642f 9138 44ac 763f 6de0 7a3f
000001e0: 36fc 903c 90ee a73b d8d0 dc3c 2794 7f3c
000001f0: 09b0 713f 1a9f a73b 8580 a73b 58ad a83b
00000200: 11ba c63b 8057 b83b 993e 8d3d 0e6f 953d
00000210: 02d4 a83b 61b1 a83b 47ba a83b 0d03 a63b
00000220: 8edd b43b f8f6 a73b 0000 803f 2568 6d3f
00000230: c418 d53c 9a8a 583c 3721 5e3d b96a bd3c
00000240: 3627 783f 3252 583c 1e04 583c a8e0 583c
00000250: 451a 583c fd48 773c 8962 a73e 231c ae3e
00000260: 1598 573c a5eb 583c 46ef 583c e55a 543c
00000270: 92e3 793c c3aa 563c 0000 803f 6812 753f
00000280: 72b4 7f3f 99ce bb3e e597 ef3e bb9b 7e3f
00000290: aa99 793f 51c4 bb3e 8eb3 bf3e d4cd 153f
000002a0: 0000 803f 192d 183f d6b6 b93e b2c4 b93e
000002b0: 63d5 7e3f d5bd dd3e c314 153f 4ac0 7f3f
000002c0: 0be8 f43e 5ed2 7e3f 404d bb3e 5cc1 763f
000002d0: 3599 623f 66c6 313f 304c 493f d73e 623f
000002e0: ae94 553f a46c 303f 585f 313f e8ee 633f
000002f0: 0000 803f 747e 683f f41c f43e ca2d f43e
00000300: 44b3 7a3f 2159 3a3f dcd8 623f b5db 7d3f
00000310: e08c 4e3f 7522 7c3f 1814 f43e 9aa6 533f
00000320: 3aee 773f 84ee cf3e d530 093f 38e0 763f
00000330: 567a 7b3f eee7 ca3e 5143 d73e 9d2e 283f
00000340: bafa 7f3f 37c3 293f 059d bf3e 6bab bf3e
00000350: 0000 803f b721 f33e ac94 273f 88de 773f
00000360: 1803 0b3f acb5 7d3f d6e1 d03e 0f8a 783f
00000370: e770 813a 4b90 173a e6f1 d73b 65cf 503a
00000380: e3aa 7c3f 3442 173a 6ce5 163a b259 173a
00000390: 9ae1 153a 9eca 173a 7513 8f3e 60cc 973e
000003a0: 583e 153a 7535 1a3a af72 173a 2514 113a
000003b0: c462 363a 4600 143a 0000 803f c801 793f
000003c0: 7e17 2c3f c2e6 353f 77cd 7b3f 2e26 2d3f
000003d0: 38d5 143f c738 383f 5cb4 3a3f c952 693f
000003e0: f6da 773f 0270 6e3f ba12 c53e 2824 c53e
000003f0: cfa3 7f3f a372 5d3f 147e 693f 0000 803f

alpha f4 [8, 20]
0.064322345 0.06499966 0.064559564 0.063880265 0.06494966 0.064387195 0.06478181 0.06484905
0.021323068 0.06296482 0.019382475 0.019370884 0.02130507 0.06493237 0.06445139 0.020016838
0.063784115 0.02105085 0.04023602 0.06445248 0.014120337 0.071422815 0.015611834 0.01413705
0.07271592 0.07165003 0.07241624 0.014918956 0.07290873 0.01470581 0.0716345 0.07162461
0.072459295 0.015838144 0.014842092 0.072992064 0.027256433 0.07313765 0.07247051 0.07313693
0.06349515 0.01688393 0.020548783 0.06365019 0.06365308 0.017026016 0.017033739 0.062351886
0.06389755 0.064007975 0.063254826 0.06088311 0.06396241 0.01831719 0.06369583 0.06331497
0.02322765 0.06375263 0.063222066 0.06382099 0.068956375 0.016921718 0.067980446 0.0690993
0.069124736 0.016996108 0.01700007 0.06474473 0.06769991 0.0623701 0.017045481 0.017072396
0.06871388 0.0194678 0.066734016 0.068301156 0.066179715 0.068575256 0.018133113 0.06888375
0.023160348 0.028434178 0.07448909 0.023161523 0.0767868 0.029162087 0.028763175 0.027024932
0.07699107 0.027247446 0.076890655 0.07695146 0.074926466 0.037046757 0.027026916 0.030926831
0.030713193 0.076885045 0.07681507 0.07659699 0.01491133 0.017788691 0.016538719 0.034718107
0.09787832 0.018124 0.017950349 0.01670837 0.016453203 0.016608145 0.09787295 0.09744021
0.09702004 0.018108293 0.016718632 0.09760483 0.017572457 0.09769653 0.09793767 0.094349094
0.01451345 0.014770904 0.013667098 0.014608849 0.15176542 0.014892942 0.014868785 0.014915615
0.015170319 0.014799463 0.0137741985 0.013981399 0.039510448 0.014720899 0.014906261 0.15045479
0.01472764 0.15172425 0.15087442 0.15135291 0.022964165 0.023099754 0.02229517 0.022752266
0.11427921 0.0232202 0.023240134 0.021748498 0.022068417 0.021524793 0.11368762 0.11432887
0.022502646 0.023054672 0.021745704 0.11379182 0.022550555 0.022952814 0.11398601 0.11420674
00000000: 6fbb 833d 8b1e 853d ce37 843d a8d3 823d
00000010: 5404 853d 6fdd 833d 53ac 843d 94cf 843d
00000020: b7ad ae3c b3f3 803d ffc7 9e3c b0af 9e3c
00000030: f887 ae3c 43fb 843d 17ff 833d 5afa a33c
00000040: 3fa1 823d d572 ac3c 86ce 243d a9ff 833d
00000050: fc58 673c 2046 923d c7c8 7f3c 169f 673c
00000060: 16ec 943d 40bd 923d f74e 943d a36e 743c
00000070: 2c51 953d a3f0 703c 1cb5 923d ecaf 923d
00000080: 8a65 943d ffbe 813c 3f2c 733c dd7c 953d
00000090: e248 df3c 31c9 953d 6b6b 943d d1c8 953d
000000a0: bf09 823d 2b50 8a3c ec55 a83c 085b 823d
000000b0: 8c5c 823d 257a 8b3c 578a 8b3c b164 7f3d
000000c0: b8dc 823d 9d16 833d bf8b 813d 9160 793d
000000d0: b9fe 823d ef0d 963c f672 823d 47ab 813d
000000e0: ea47 be3c bd90 823d 927a 813d 94b4 823d
000000f0: 0039 8d3d 6a9f 8a3c 5539 8b3d ef83 8d3d
00000100: 4591 8d3d 6c3b 8b3c bb43 8b3c e398 843d
00000110: 40a6 8a3d ca77 7f3d f7a2 8b3c 69db 8b3c
00000120: ddb9 8c3d f07a 9f3c d8ab 883d 7ae1 8b3d
00000130: 3b89 873d 2f71 8c3d e58b 943c ec12 8d3d
00000140: c5ba bd3c cbee e83c bc8d 983d 3cbd bd3c
00000150: 6642 9d3d 54e5 ee3c c0a0 eb3c 6463 dd3c
00000160: 7ead 9d3d 0936 df3c d978 9d3d ba98 9d3d
00000170: 0c73 993d 57be 173d 8d67 dd3c 445a fd3c
00000180: 3c9a fb3c e875 9d3d 3851 9d3d e2de 9c3d
00000190: a74e 743c 97b9 913c 357c 873c 9334 0e3d
000001a0: 6e74 c83d c878 943c 9c0c 933c fedf 883c
000001b0: dec8 863c ce0d 883c 9d71 c83d bc8e c73d
000001c0: 71b2 c63d d857 943c 83f5 883c 0be5 c73d
000001d0: 1df4 8f3c 1e15 c83d 8c93 c83d 193a c13d
000001e0: d2c9 6d3c a901 723c f7eb 5f3c f459 6f3c
000001f0: 6568 1b3e 8701 743c 349c 733c a060 743c
00000200: ee8c 783c 7279 723c 2dad 613c 3d12 653c
00000210: b5d5 213d ed2f 713c 6439 743c d210 1a3e
00000220: 334c 713c 9a5d 1b3e d37e 1a3e 42fc 1a3e
00000230: 581f bc3c b23b bd3c 5ca4 b63c f662 ba3c
00000240: 380b ea3d 4a38 be3c 1862 be3c e829 b23c
00000250: d3c8 b43c c354 b03c 0ed5 e83d 4125 ea3d
00000260: 7857 b83c 27dd bc3c 0c24 b23c b00b e93d
00000270: f1bb b83c 8a07 bc3c 7f71 e93d 39e5 e93d

alpha_norm f4 [8, 20]
0.9895797 1.0 0.9932292 0.98277843 0.99923074 0.9905774 0.9966484 0.99768287
0.3280489 0.96869457 0.29819348 0.29801515 0.327772 0.9989647 0.991565 0.30795294
0.98129916 0.3238609 0.6190189 0.99158174 0.19306523 0.9765533 0.21345824 0.19329375
0.9942338 0.97966 0.99013627 0.20398463 0.99687004 0.20107031 0.9794477 0.9793124
0.990725 0.21655256 0.20293368 0.99800944 0.3726731 1.0 0.9908783 0.9999902
0.9919881 0.26377854 0.32103473 0.99441034 0.99445546 0.26599836 0.266119 0.9741268
0.9982748 1.0 0.9882335 0.95118004 0.9992881 0.28617045 0.9951234 0.9891731
0.36288682 0.9960107 0.9877217 0.9970787 0.9975644 0.24479975 0.983446 0.999632
1.0 0.24587592 0.24593323 0.93663627 0.9793876 0.9022834 0.24659018 0.24697955
0.99405634 0.2816329 0.9654144 0.9880856 0.95739555 0.9920509 0.2623245 0.9965137
0.30081865 0.3693179 0.967503 0.3008339 0.9973469 0.37877235 0.37359107 0.35101387
1.0 0.35390398 0.9986958 0.99948555 0.9731839 0.48118255 0.35103965 0.40169376
0.39891893 0.99862295 0.99771404 0.9948815 0.15225326 0.18163277 0.16886984 0.35449186
0.999394 0.18505646 0.18328339 0.17060207 0.16799667 0.16957872 0.99933916 0.9949207
0.9906304 0.1848961 0.17070685 0.9966015 0.1794249 0.9975378 1.0 0.9633585
0.09563081 0.0973272 0.0900541 0.0962594 1.0 0.09813133 0.09797215 0.09828072
0.09995899 0.09751538 0.09075979 0.092125066 0.26033893 0.096997716 0.09821909 0.9913641
0.09704213 0.99972874 0.9941291 0.9972819 0.20086059 0.20204656 0.1950091 0.19900718
0.99956566 0.20310006 0.20327441 0.19022752 0.19302575 0.18827084 0.9943912 1.0
0.19682384 0.20165224 0.19020309 0.9953026 0.19724287 0.20076132 0.9970011 0.99893177
00000000: 1855 7d3f 0000 803f 4544 7e3f 5e97 7b3f
00000010: 96cd 7f3f 7b96 7d3f 5924 7f3f 2568 7f3f
00000020: 07f6 a73e 5efc 773f d1ac 983e 7195 983e
00000030: bbd1 a73e 27bc 7f3f 34d7 7d3f 02ac 9d3e
00000040: 6c36 7b3f 19d1 a53e 0678 1e3f 4dd8 7d3f
00000050: e4b2 453e 66ff 793f cc94 5a3e ccee 453e
00000060: 1b86 7e3f ffca 7a3f 9279 7d3f 59e1 503e
00000070: e032 7f3f 60e5 4d3e 16bd 7a3f 38b4 7a3f
00000080: 27a0 7d3f f4bf 5d3e d9cd 4f3e 8c7d 7f3f
00000090: 02cf be3e 0000 803f 33aa 7d3f 5cff 7f3f
000000a0: eff2 7d3f fb0d 873e aa5e a43e ad91 7e3f
000000b0: a294 7e3f f030 883e c040 883e 6060 793f
000000c0: f08e 7f3f 0000 803f dffc 7c3f 8980 733f
000000d0: 58d1 7f3f ef84 923e 68c0 7e3f 733a 7d3f
000000e0: 4dcc b93e 8ffa 7e3f 54db 7c3f 8d40 7f3f
000000f0: 6160 7f3f c9ac 7a3e 1ec3 7b3f e2e7 7f3f
00000100: 0000 803f e6c6 7b3e ecd5 7b3e 65c7 6f3f
00000110: 25b9 7a3f 0bfc 663f 2382 7c3e 35e8 7c3e
00000120: 7a7a 7e3f 3032 903e 6625 773f 2ef3 7c3f
00000130: e017 753f 0cf7 7d3f 664f 863e 861b 7f3f
00000140: e704 9a3e 3c17 bd3e 47ae 773f e706 9a3e
00000150: 2052 7f3f 73ee c13e 5447 bf3e 17b8 b33e
00000160: 0000 803f e732 b53e 87aa 7f3f 49de 7f3f
00000170: 9422 793f 8f5d f63e 78bb b33e ceaa cd3e
00000180: 1a3f cc3e c1a5 7f3f 306a 7f3f 8eb0 7e3f
00000190: 47e8 1b3e f1fd 393e 37ec 2c3e f57f b53e
000001a0: 49d8 7f3f 717f 3d3e a4ae 3b3e 4fb2 2e3e
000001b0: 5207 2c3e 0ba6 2d3e b1d4 7f3f 1fb3 7e3f
000001c0: f499 7d3f 6755 3d3e c7cd 2e3e 4721 7f3f
000001d0: 29bb 373e a35e 7f3f 0000 803f aa9e 763f
000001e0: 16da c33d 7c53 c73d 496e b83d a623 c53d
000001f0: 0000 803f 14f9 c83d 9fa5 c83d 6747 c93d
00000200: 4db7 cc3d 25b6 c73d 45e0 b93d 11ac bc3d
00000210: 254b 853e bda6 c63d 1727 c93d 0aca 7d3f
00000220: 06be c63d 39ee 7f3f 3f7f 7e3f de4d 7f3f
00000230: 66ae 4d3e 4be5 4e3e 77b0 473e 8ac8 4b3e
00000240: 89e3 7f3f 76f9 4f3e 2b27 503e 01cb 423e
00000250: 8ba8 453e 12ca 403e 6c90 7e3f 0000 803f
00000260: 308c 493e ed7d 4e3e 99c4 423e 27cc 7e3f
00000270: 09fa 493e 6094 4d3e 773b 7f3f feb9 7f3f

gnn_embedding f4 [1400, 20]
0.61281276 0.44896054 0.6357957 0.6092291 0.6744448 0.55125195 0.43797666 0.5428141
0.73510855 0.55885494 0.22877091 0.25504637 0.7077175 0.54981637 0.54023445 0.7021651
0.56631845 0.712108 -0.0034765808 0.6665467 0.8852035 0.10524603 0.34854394 0.88066286
0.90260184 0.08510918 0.11590421 0.4432392 0.91533405 0.45771948 -0.008408201 -0.0081089735
0.9026665 0.2793337 0.43991557 0.9153023 0.3176707 0.9059843 -0.004580041 0.8928328
0.45272052 0.5520373 0.66122127 0.45321798 0.34230745 0.5564334 0.5508755 0.6676304
0.647739 0.67430294 -0.00019348945 0.0064231493 0.62984794 0.5827908 0.66495955 0.68013215
0.6473386 0.64294815 -0.0045907805 0.33488655 0.6073959 -0.0013800205 1.1725329 0.5097001
3.5879512 -0.00317025 -0.003360918 0.057917017 -0.0028919326 0.19739775 2.26919 2.3049138
-0.0048900363 -0.0003312552 0.07929017 -0.017201401 0.1549635 -0.008324004 3.62654 3.5769548
1.0909692 -0.0034263013 1.0253676 1.0178201 3.4170027 -0.0035260057 -0.005432061 -0.0004615358
0.43348032 0.116387606 2.2308674 2.2719276 0.31510824 -0.00013274416 -0.0003157731 -0.006554409
0.06177304 0.03768027 3.5248497 3.404512 1.0296048 -0.00811548 2.8435214 0.76366293
9.548925 -0.011128447 -0.014423766 -0.008225418 -0.013393972 -0.003948496 8.267179 8.338749
-0.018114356 -0.002400595 -0.007372122 -0.054293536 -0.0010693485 -0.029155599 9.511811 9.528709
1.2339278 -0.005439584 1.654625 1.1076794 5.210678 -0.007289706 -0.008002938 -0.0010119979
0.16293275 0.087793484 2.594083 2.650444 -0.000116776224 -0.00091848616 -0.0007123931 -0.016938472
0.06875531 -0.0052441726 5.2682095 5.192807 0.67512804 -0.0019838603 1.4097906 0.5573319
4.293164 -0.0030014943 -0.0044127847 -0.00043269547 -0.004012325 0.13077626 3.2062664 3.2456572
-0.006367982 -0.00023476257 -0.0001694646 -0.02150604 0.14125122 -0.010677125 4.324295 4.280669
1.0017298 -2.6278049e-05 0.24350189 0.9974323 0.97756666 -0.00024011834 0.020497665 0.46703386
1.0028834 0.48274484 -0.011232209 -0.010940753 0.99831647 0.16607122 0.4621965 1.0019108
0.265435 0.9982703 -0.0027202421 0.9661032 0.61646616 0.37380528 0.49807107 0.61490715
0.55730176 0.366179 0.3715383 0.62233937 0.73846406 0.6421509 -0.002228889 -0.001959551
0.7175446 0.42090338 0.6175629 0.7300626 0.52383053 0.7232497 -0.002370724 0.54822433
0.93943465 0.07034837 0.34765822 0.93517154 0.95364094 0.04588148 0.10499906 0.5513332
0.9713829 0.5606867 -0.011381687 -0.011088194 0.9714634 0.22674207 0.5477513 0.9391874
0.36084682 0.9624765 0.07490903 0.9418869 0.53267837 -0.002688244 2.4307709 0.31773135
7.439852 -0.004703088 -0.00710199 -0.004096592 -0.013850644 -0.0011864481 6.1780066 6.2371836
-0.018114766 0.014613673 -0.0034519457 -0.04641774 0.18243025 -0.02647442 7.4529552 7.4252586
0.5529033 0.60834014 0.9335208 0.5590287 0.40769947 0.6210158 0.6344027 0.8573008
0.9177205 0.8789828 -0.00469681 -0.004351358 0.9486452 0.8050623 0.8580253 0.95005286
00000000: 4ce1 1c3f 28de e53e 82c3 223f 70f6 1b3f
00000010: 6aa8 2c3f d91e 0d3f 7a3e e03e ddf5 0a3f
00000020: 1330 3c3f 1e11 0f3f ec42 6a3e 7095 823e
00000030: f92c 353f c4c0 0c3f ce4c 0a3f 18c1 333f
00000040: 3ffa 103f b64c 363f 59d7 63bb cea2 2a3f
00000050: b29c 623f 3b8b d73d 5a74 b23e 1f73 613f
00000060: ea10 673f b94d ae3d 305f ed3d 40f0 e23e
00000070: 5553 6a3f 355a ea3e 8dc2 09bc 80db 04bc
00000080: 2715 673f d404 8f3e 9d3c e13e 4051 6a3f
00000090: bca5 a23e 96ee 673f 2b14 96bb b190 643f
000000a0: fcca e73e 5152 0d3f cc45 293f 300c e83e
000000b0: ec42 af3e 6b72 0e3f 2d06 0d3f d3e9 2a3f
000000c0: 39d2 253f 1e9f 2c3f 6ee3 4ab9 4879 d23b
000000d0: b73d 213f c731 153f ca3a 2a3f 241d 2e3f
000000e0: fcb7 253f 4098 243f 426e 96bb 4076 ab3e
000000f0: 4c7e 1b3f cee1 b4ba 8f15 963f b57b 023f
00000100: fea0 6540 f8c3 4fbb d942 5cbb 653a 6d3d
00000110: 9486 3dbb a322 4a3e 693a 1140 b583 1340
00000120: 993c a0bb 52ac adb9 e262 a23d f4e9 8cbc
00000130: c0ae 1e3e 6761 08bc 3b19 6840 d4ec 6440
00000140: e1a4 8b3f cc8b 60bb 3f3f 833f ee47 823f
00000150: 2cb0 5a40 8f14 67bb 6eff b1bb 49fa f1b9
00000160: 22f1 dd3e a05c ee3d 88c6 0e40 4367 1140
00000170: de55 a13e 3d31 0bb9 598e a5b9 5ec6 d6bb
00000180: ba05 7d3d a056 1a3d 2397 6140 86e3 5940
00000190: 17ca 833f caf6 04bc 41fc 3540 6a7f 433f
000001a0: 66c8 1841 1754 36bc a951 6cbc e7c3 06bc
000001b0: 6472 5bbc 6362 81bb 5d46 0441 846b 0541
000001c0: 8f64 94bc 4d53 1dbb d791 f1bb e662 5ebd
000001d0: 6229 8cba b9d7 eebc 6130 1841 9875 1841
000001e0: 59f1 9d3f 8a3e b2bb c1ca d33f 70c8 8d3f
000001f0: e0bd a640 7cde eebb c11e 03bc 04a5 84ba
00000200: d8d7 263e 12cd b33d 7505 2640 e0a0 2940
00000210: c2e5 f4b8 90c6 70ba e4bf 3aba 8dc2 8abc
00000220: 95cf 8c3d 4fd7 abbb 2c95 a840 7a2b a640
00000230: 31d5 2c3f a703 02bb 0574 b43f 4ead 0e3f
00000240: 9961 8940 b8b4 44bb 1f99 90bb 67db e2b9
00000250: d279 83bb 36ea 053e 7833 4d40 d9b8 4f40
00000260: 81aa d0bb 992a 76b9 4fb2 31b9 6f2d b0bc
00000270: 29a4 103e 1cef 2ebc a060 8a40 3efb 8840
00000280: af38 803f ae6f dcb7 8f58 793e b957 7f3f
00000290: cf41 7a3f 47c8 7bb9 b8ea a73c 101f ef3e
000002a0: 7c5e 803f 552a f73e 4d07 38bc d840 33bc
000002b0: ab91 7f3f 930e 2a3e 05a5 ec3e 9d3e 803f
000002c0: 19e7 873e a48e 7f3f 1746 32bb 8a52 773f
000002d0: bad0 1d3f 6863 bf3e 2c03 ff3e 8e6a 1d3f
000002e0: 54ab 0e3f d07b bb3e 453a be3e a251 1f3f
000002f0: fb0b 3d3f 0064 243f 8d12 12bb cf6b 00bb
00000300: 01b1 373f a680 d73e 9a18 1e3f 62e5 3a3f
00000310: c219 063f e426 393f 265e 1bbb 6e58 0c3f
00000320: ca7e 703f ce12 903d 4200 b23e 6767 6f3f
00000330: d021 743f 38ee 3b3d bf09 d73d 2c24 0d3f
00000340: 8dac 783f 2a89 0f3f 417a 3abc 42ab 35bc
00000350: d3b1 783f 132f 683e 6e39 0c3f 966e 703f
00000360: eac0 b83e dc64 763f e869 993d 801f 713f
00000370: 9c5d 083f 402d 30bb c091 1b40 afad a23e
00000380: 4513 ee40 5d1c 9abb cfb7 e8bb b43c 86bb
00000390: d0ed 62bc 9882 9bba 3bb2 c540 0297 c740
000003a0: 6b65 94bc 306e 6f3c 0a3a 62bb 8720 3ebd
000003b0: ffce 3a3e e2e0 d8bc 9c7e ee40 b89b ed40
000003c0: 128b 0d3f 2ebc 1b3f 38fb 6e3f 811c 0f3f
000003d0: fcbd d03e e4fa 1e3f 3768 223f 1178 5b3f
000003e0: bbef 6a3f 0405 613f b3e7 99bb d695 8ebb
000003f0: 69da 723f 9018 4e3f 8ca7 5b3f aa36 733f
