models/cdm_bashapes.pt (torch, 124734 bytes, 12 tensors)

bias f4 [20]
000000 51 76 c3 3e 28 c9 cb b7 ae 18 39 3f 78 51 17 3e
       0.38176206 -2.4293156e-05 0.72303283 0.14777172
000010 f8 28 02 b9 cb b9 d4 bd 72 e8 9f be e3 0d b0 be
       -0.00012413028 -0.10387 -0.3123203 -0.34385595
000020 5b 61 b3 3d 99 b7 a2 ac 68 7a 99 b3 a8 51 cf ba
       0.087588035 -4.6247004e-12 -7.146883e-08 -0.0015817182
000030 78 69 7f a2 9a 2f 23 3c b6 2d b9 b4 04 1f 16 ab
       -3.4614779e-18 0.00996008 -3.4492194e-07 -5.333375e-13
000040 52 36 f7 b9 a5 00 40 3f 16 f3 07 3e 1a 2b 90 1d
       -0.00047151983 0.75000983 0.13276324 3.816105e-21

weight f4 [20, 1]
000000 1f 9d 44 3d bc b2 cf b7 76 84 fe be 91 01 a1 3e
       0.048001405 -2.4759553e-05 -0.49710435 0.31446508
000010 24 85 f4 b8 f1 46 c2 3e b4 80 1a 3f cd 36 22 3f
       -0.00011659626 0.3794475 0.60352635 0.6336487
000020 30 27 2a 3f 67 9c d2 ac 9b 61 0f b4 9d 98 3a 3f
       0.66466045 -5.985923e-12 -1.3353421e-07 0.7288912
000030 09 25 65 a2 56 22 1e 3f bd 4d ce b4 a0 d3 15 ab
       -3.1054893e-18 0.6177114 -3.8427052e-07 -5.322912e-13
000040 83 d8 f2 b9 97 13 ce be e0 3e 2c 3f 4a 17 36 9d
       -0.0004631915 -0.4024932 0.6728344 -2.409954e-21

bias f4 [20]
000000 93 30 3b b3 d8 22 39 a2 d0 14 fe af 29 ad 07 b2
       -4.358351e-08 -2.5090621e-18 -4.621712e-10 -7.897406e-09
000010 5f 42 f3 bd ff e1 64 b2 c8 95 22 b0 27 97 4e be
       -0.11877894 -1.3322732e-08 -5.914811e-10 -0.20174848
000020 e4 76 a9 97 28 7b f5 95 7f 5f d3 b4 08 e7 15 38
       -1.0951381e-24 -9.914902e-26 -3.9371295e-07 3.5739533e-05
000030 dc 80 8e bf c3 dc 3e be 58 98 76 27 8a bf 24 be
       -1.1133075 -0.18638901 3.4221944e-15 -0.16088691
000040 1a ac fe b0 f4 cb 01 a5 a6 44 35 be e0 e6 94 b5
       -1.8529847e-09 -1.1258068e-16 -0.17701969 -1.1094053e-06

weight f4 [20, 20]
000000 75 99 08 b4 e8 de 07 2d a4 fd f8 30 8c 24 f9 b3
       -1.2721814e-07 7.723357e-12 1.8116464e-09 -1.1601614e-07
000010 84 fd 0e af 6c 27 74 b3 b0 4e 94 b3 c3 5d 97 b3
       -1.3004892e-10 -5.684653e-08 -6.9061e-08 -7.0485406e-08
000020 d1 b8 6c b3 77 d6 9d a0 f4 de 9e a9 d8 97 6b b3
       -5.511612e-08 -2.6738755e-19 -7.055286e-14 -5.4853302e-08
000030 59 7b c6 98 74 ce 7f b3 7e 1d 4f 28 06 fc c1 20
       -5.130635e-24 -5.9559582e-08 1.1497203e-14 3.2862247e-19
000040 9b 97 2b ad 8f ef 88 33 6d 4b 80 b3 55 04 ed 96
       -9.753888e-12 6.376569e-08 -5.974184e-08 -3.829215e-25
000050 63 2c 96 a1 1b 00 2e 9a d0 e4 16 20 f2 41 b3 a1
       -1.0176144e-18 -3.5982442e-23 1.2781202e-19 -1.2146967e-18
000060 b4 e3 17 1d 49 a2 b8 a1 53 a5 14 a2 0a 91 1d a2
       2.0102403e-21 -1.2511282e-18 -2.0145262e-18 -2.135425e-18
000070 b6 98 4e a2 4c 8e 1e 10 da 3f 53 98 3f f1 54 a2
       -2.799905e-18 3.1269627e-29 -2.7303348e-24 -2.8859072e-18
000080 8a ae e0 89 ee a7 44 a2 bc 22 66 17 9e 4a 89 8e
       -5.4090174e-33 -2.6651854e-18 7.436085e-25 -3.384496e-30
000090 c5 a9 cc 1a af cc 58 a1 e4 db 4a a2 5d a9 d8 09
       8.46467e-23 -7.3454543e-19 -2.7492514e-18 5.2159377e-33
0000a0 81 f5 d2 af 71 5c c5 25 97 ce 3d af e3 13 e1 af
       -3.8373218e-10 3.4236693e-16 -1.7262845e-10 -4.0941392e-10
0000b0 06 7a 50 27 71 ef 8b af 7a 6e 81 af a7 3c 8f af
       2.8931948e-15 -2.5454086e-10 -2.3543462e-10 -2.6054645e-10
0000c0 5f c1 fb af 78 ca 30 1b cb b8 09 22 3e 94 04 b0
       -4.5794032e-10 1.46238e-22 1.866479e-18 -4.8231985e-10
0000d0 50 96 35 90 29 4d 07 b0 be d7 aa 22 58 6d db 99
       -3.5811752e-29 -4.9222365e-10 4.630702e-18 -2.2688233e-23
0000e0 e4 fc 84 26 4d a6 9e af 04 3c 14 b0 12 c9 40 0d
       9.227886e-16 -2.8858196e-10 -5.3927374e-10 5.9406597e-31
0000f0 7d 86 02 b2 44 06 a2 a9 93 cc a9 b1 c4 34 02 b2
       -7.597575e-09 -7.195332e-14 -4.9418047e-09 -7.578993e-09
000100 51 f5 ab 2b 6c ad f3 b1 33 d5 f5 b1 48 0c fb b1
       1.221837e-12 -7.0919466e-09 -7.1546764e-09 -7.3064577e-09
000110 35 bc 0e b2 7f f9 06 1e b3 d8 75 26 d6 94 0c b2
       -8.308281e-09 7.1454955e-21 8.529513e-16 -8.182914e-09
000120 3e 0a c2 95 e7 36 08 b2 1b 65 3d 27 46 48 80 9d
       -7.8372135e-26 -7.928725e-09 2.6283828e-15 -3.3956047e-21
000130 24 43 8c ab fe ea f8 b1 71 8b 10 b2 50 9f d3 14
       -9.966234e-13 -7.2444655e-09 -8.4136085e-09 2.1368393e-26
000140 61 6c 41 3e 1a 43 df b5 48 e2 01 3e e0 37 37 3e
       0.18889 -1.6634324e-06 0.12683976 0.17892408
000150 c8 06 ef b7 38 fa d2 3d 48 ff be 3d e3 a1 9c 3d
       -2.8494178e-05 0.10301632 0.09326035 0.07648065
000160 08 62 85 3e 55 5a c8 2b 4c e2 cd b2 62 20 81 3e
       0.26051354 1.4235927e-12 -2.3968049e-08 0.2522002
000170 97 05 8e a0 ef 2f 44 3e 34 a5 04 b3 c8 c3 23 a8
       -2.4059435e-19 0.1915891 -3.0883896e-08 -9.090771e-15
000180 98 ab 2c b9 c2 1d 63 3e 22 2b 8e 3e af 7e 76 1c
       -0.00016467122 0.2217932 0.27767283 8.1558307e-22
000190 a1 6c 5b 31 e6 68 de a7 08 b9 86 b1 04 e6 82 30
       3.1930443e-09 -6.173111e-15 -3.920949e-09 9.524119e-10
0001a0 b0 44 1d aa 3e b8 7d 31 89 2b 91 31 30 b9 8c 31
       -1.3968232e-13 3.6921075e-09 4.225005e-09 4.0955896e-09
0001b0 e2 b9 08 b2 56 98 17 1d d1 1d b8 29 de bf 04 b2
       -7.958507e-09 2.006344e-21 8.176414e-14 -7.727037e-09
0001c0 36 c6 93 12 70 29 a3 b1 a1 85 d8 a4 24 c9 e6 1d
       9.325867e-28 -4.7486353e-09 -9.3901444e-17 6.1088468e-21
0001d0 e4 4d 89 aa 65 a6 d9 31 ae 59 1a b2 6c 0d b9 91
       -2.4390136e-13 6.334448e-09 -8.984371e-09 -2.9196125e-28
0001e0 e8 38 09 b0 de a2 d9 26 4a 1b b9 af 79 c8 fc af
       -4.992118e-10 1.5101545e-15 -3.3670694e-10 -4.5980977e-10
0001f0 94 0f c9 2a 97 ed 0f b0 0a 84 f6 af 54 1a d9 af
       3.5715582e-13 -5.236073e-10 -4.484096e-10 -3.9490777e-10
000200 ed b6 10 b0 08 3a 5e 9e 06 fd f3 24 ee 85 0d b0
       -5.264685e-10 -1.1764583e-20 1.0581309e-16 -5.1485827e-10
000210 19 e1 17 96 e3 d7 00 b0 dc 82 5e 23 04 1c 88 9b
       -1.2268711e-25 -4.687292e-10 1.2062355e-17 -2.2517417e-22
000220 37 70 e0 2a 25 46 2c b0 79 1d 19 b0 e6 bc c8 95
       3.9868258e-13 -6.2672917e-10 -5.570296e-10 -8.1077386e-26
000230 9d a2 c5 3d fd eb fc 36 85 9f 9c 3d c3 87 b8 3d
       0.09650157 7.537658e-06 0.076476134 0.090102695
000240 c9 7c fc 37 82 95 47 3d cf 1d 0e 3d dc 46 06 3d
       3.0098849e-05 0.048726566 0.034696396 0.03278242
000250 ed 89 cc 3d 2a ae 29 ab f9 08 01 b3 c8 80 08 3e
       0.09987245 -6.028256e-13 -3.0043314e-08 0.13330376
000260 04 eb 68 1d 83 17 d8 3d 68 0b e7 34 f3 69 a1 27
       3.0826445e-21 0.105513595 4.3035402e-07 4.4801347e-15
000270 c6 c1 fa 38 00 58 f3 3d 2f 6c 06 3e f9 af 91 9c
       0.00011957022 0.11882019 0.13127206 -9.640783e-22
000280 75 2c 1e 97 e8 ab d2 8d e2 89 86 16 25 cd 36 97
       -5.1108666e-25 -1.2983634e-30 2.1735884e-25 -5.90663e-25
000290 65 66 05 12 58 bc d5 96 3a 5b f4 96 b1 a1 04 97
       4.209361e-28 -3.4530868e-25 -3.9477898e-25 -4.2855584e-25
0002a0 40 dc 4b 97 7e 5c dc 83 2c ad 1b 8c 30 e9 47 97
       -6.587083e-25 -1.2951673e-36 -1.1992878e-31 -6.459469e-25
0002b0 ac 42 00 80 5f c8 3a 97 60 16 a2 88 1e 76 09 03
       -2.3917e-41 -6.0352745e-25 -9.755281e-34 4.0396273e-37
0002c0 b1 0f 98 10 c9 17 04 17 0b d7 58 97 c9 6c 00 80
       5.9977605e-29 4.268152e-25 -7.0064787e-25 -3.9025e-41
0002d0 41 f9 ed 15 00 9a 01 10 7a 11 24 96 66 1b 02 95
       9.611679e-26 2.55594e-29 -1.3253329e-25 -2.6274904e-26
0002e0 e4 7a 88 12 f0 60 73 16 ca a2 81 16 bb 9d 7c 16
       8.613102e-28 1.9659972e-25 2.0943808e-25 2.0406169e-25
0002f0 36 7a 64 95 78 c2 51 8b bd a9 af 8f 37 b5 6f 95
       -4.614064e-26 -4.0398238e-32 -1.7321713e-29 -4.840862e-26
000300 09 1d 9b 8a 03 51 ba 95 42 7f 6a 8c d4 c0 2f 09
       -1.4936879e-32 -7.5252616e-26 -1.8065e-31 2.1155526e-33
000310 16 25 01 8f 2c 8e 80 16 da 1a 6a 95 3d ad 03 8a
       -6.3673335e-30 2.0769238e-25 -4.7277106e-26 -6.340003e-33
000320 c0 0f 83 30 69 ea 67 ac 94 80 03 34 38 33 8e b1
       9.535981e-10 -3.2957198e-12 1.2247102e-07 -4.138567e-09
000330 50 29 35 ab 2a f6 19 34 5c 98 43 34 cf 84 65 34
       -6.436145e-13 1.433879e-07 1.8216218e-07 2.1375602e-07
000340 84 ba 6b b4 52 42 72 20 ec 99 1a a9 1d 60 5c b4
       -2.1953934e-07 2.0520141e-19 -3.4328375e-14 -2.0524062e-07
000350 5a 63 ac 15 f3 0e 17 b4 ec 16 46 2a 93 3f 33 20
       6.9626996e-26 -1.406841e-07 1.7593885e-13 1.5182925e-19
000360 1c 77 5d ad 9b d9 88 34 11 24 85 b4 ca 7f 2c 94
       -1.2588843e-11 2.5490303e-07 -2.4799422e-07 -8.708983e-27
000370 51 1f 2c b6 0a 57 4f ae 3e 60 89 35 59 f5 79 b6
       -2.5648226e-06 -4.7143657e-11 1.0235306e-06 -3.7246703e-06
000380 08 f2 94 2f d1 69 1c b6 65 ee 4f b6 39 c7 5a b6
       2.7093017e-10 -2.3307405e-06 -3.0984168e-06 -3.2600494e-06
000390 ea 08 4e b7 3b 7d 8c a3 94 d5 cd 2a b6 4d 46 b7
       -1.2280632e-05 -1.5231868e-17 3.6563515e-13 -1.1819813e-05
0003a0 5e 93 61 99 fc c6 f8 b6 3d b6 7b 2b f9 6c ee a1
       -1.1661988e-23 -7.414141e-06 8.942602e-13 -1.6156352e-18
0003b0 6e e2 33 ae c4 1d 02 b4 26 45 56 b7 15 3f 3e 16
       -4.0900998e-11 -1.2118022e-07 -1.2771494e-05 1.5367983e-25
0003c0 6d 36 10 be d6 0d 28 37 55 7f da bf 6d ff 02 3e
       -0.14083262 1.0016802e-05 -1.7070109 0.1279275
0003d0 28 64 64 b9 00 22 99 3e f4 ef 33 3f 89 73 46 3f
       -0.00021781086 0.29908752 0.70288014 0.7752004
0003e0 f6 94 db 3e c8 2d fd 2a 26 9d 60 33 9f d1 07 3f
       0.42887086 4.4973595e-13 5.229699e-08 0.5305423
0003f0 e7 69 5d 21 d2 75 e2 3e 09 c1 9f 35 a2 3a 04 2b
       7.5017873e-19 0.44230515 1.1902604e-06 4.697719e-13

bias f4 [20]
000000 ec d3 e2 bf f6 50 03 3f 99 7d de 3e 5c 16 2a be
       -1.7720923 0.5129541 0.43455198 -0.16610092
000010 18 a2 ce 3e 4f a9 cc be 11 66 b8 3e ce 3a fa 3e
       0.40358043 -0.39972922 0.3601537 0.4887299
000020 94 9a fb 3e df 9a 44 be 73 13 fa 3e d7 76 ed 3e
       0.4914137 -0.19199704 0.48842964 0.4637973
000030 80 8f c0 3e 9c 4e 00 3f b1 54 14 3f 20 19 fb 3e
       0.37609482 0.5011995 0.5794173 0.49042606
000040 3d f1 38 3d 5d 4c 02 3f 32 68 34 bd 02 e9 cd 3e
       0.045151938 0.5089777 -0.04404468 0.40216833

weight f4 [20, 20]
000000 b3 9e 71 33 1d ac 08 22 14 8f e3 2d 5d a2 c8 b0
       5.625652e-08 1.8522553e-18 2.5870452e-11 -1.4598062e-09
000010 54 9e 2a 3f 99 b6 79 b1 ec 6d 5a 2f 07 0a dd 3e
       0.6664784 -3.6338064e-09 1.9866037e-10 0.43171713
000020 b9 4a 1d 16 70 ff 56 95 89 74 61 b5 22 d8 47 37
       1.2705937e-25 -4.341846e-26 -8.398861e-07 1.1911647e-05
000030 e6 ba 29 bf 74 da 0c 3f b5 45 15 26 4b 60 33 3f
       -0.6630081 0.55020833 5.178923e-16 0.70068806
000040 39 af 14 ae d2 45 d3 a5 96 dc 3b 3f 31 66 65 35
       -3.3806933e-11 -3.6649977e-16 0.7338346 8.5457856e-07
000050 b9 f4 0c b4 c0 0d 0f 9f 50 7a 39 af 39 ef 80 31
       -1.3127546e-07 -3.02928e-20 -1.6869106e-10 3.7524868e-09
000060 58 13 13 3d 6a d3 4c 31 74 40 5e 2f b5 db 48 3d
       0.03590712 2.9806082e-09 2.0213681e-10 0.049037654
000070 0a c3 c4 95 5c 43 08 95 00 db 93 b3 1f f1 12 b6
       -7.947149e-26 -2.7518118e-26 -6.885057e-08 -2.1896046e-06
000080 87 a5 67 bf 97 c7 25 3d 2e 08 9f a7 51 13 9a 3c
       -0.9048695 0.040473547 -4.4140234e-15 0.018808039
000090 76 81 21 2f 38 3a 61 a5 01 aa 66 3b 7a f8 12 b5
       1.4688858e-10 -1.9535364e-16 0.0035196545 -5.475082e-07
0000a0 d8 52 a1 b2 a4 fa 34 20 4b a4 14 ae 80 72 a4 2d
       -1.878054e-08 1.5329523e-19 -3.3797225e-11 1.869549e-11
0000b0 2b 48 0b 3d 85 9b 7a b0 60 b4 c9 af 4b 97 d7 ba
       0.03400437 -9.1170477e-10 -3.668985e-10 -0.0016448287
0000c0 32 11 2f 16 52 d6 36 95 4d f0 87 b3 7c 50 d2 b5
       1.4141813e-25 -3.6923676e-26 -6.330138e-08 -1.5669643e-06
0000d0 6f fb 24 3e af 6f 1e 3c f4 1d 3d 25 bc f7 bf 3c
       0.1611154 0.009670182 1.6403285e-16 0.023433559
0000e0 c9 2e 84 ae c1 65 6e 24 11 f4 ea 3c 86 c6 3f b4
       -6.010976e-11 5.1694212e-17 0.028680833 -1.7860484e-07
0000f0 f2 d6 a0 b3 e0 cf 2a a2 67 5e 68 af fb 8e 1f 31
       -7.489679e-08 -2.3149344e-18 -2.1133816e-10 2.321882e-09
000100 8d e6 63 3d 3b 41 9e b1 44 ed 8e 2e 26 07 09 3c
       0.055639792 -4.605821e-09 6.499559e-11 0.008363521
000110 a6 9f bc 96 fe 4e 20 94 f0 f4 a9 b3 8b ac c7 b5
       -3.047379e-25 -8.093514e-27 -7.9142296e-08 -1.4876872e-06
000120 0c 7a 93 3f bd f4 c1 3c bc a2 3a 26 30 ff 59 3d
       1.1521621 0.02367627 6.475226e-16 0.05322188
000130 0e 60 31 30 fb db d1 a5 79 4f 96 3d 60 34 b0 b2
       6.4528727e-10 -3.6404785e-16 0.07339377 -2.0512914e-08
000140 8a fa 26 b2 54 60 82 1f 6d 37 87 b0 fb 0a 69 32
       -9.719438e-09 5.52165e-20 -9.838296e-10 1.3564882e-08
000150 c4 e7 ce 3c 44 08 3c 31 3b 4b 3c 30 02 59 2c bc
       0.025256999 2.73623e-09 6.850091e-10 -0.010519268
000160 b0 c8 65 15 12 63 7f 14 40 90 54 b4 91 0a f8 b5
       4.6404496e-26 1.2893748e-26 -1.9796516e-07 -1.8480515e-06
000170 16 de 0f 3e 34 b7 83 3a c0 22 44 a6 b5 e9 92 3c
       0.14049563 0.0010049106 -6.8048255e-16 0.017933706
000180 1e 13 61 af 38 6f 6b 23 69 d6 96 3c 24 bc 40 b2
       -2.0470423e-10 1.2762927e-17 0.018412786 -1.1218649e-08
000190 53 90 cf b3 e8 d3 70 a2 cc 60 ac 2f 09 60 1e 32
       -9.665441e-08 -3.2638247e-18 3.1355396e-10 9.218646e-09
0001a0 27 58 c8 3d 4c 27 b3 af a2 cb ba 2d 36 68 7d 3d
       0.09782439 -3.2587832e-10 2.1236183e-11 0.06186696
0001b0 1b 58 ec 16 96 b9 00 96 8a 73 75 b5 32 7a d2 35
       3.8183459e-25 -1.0398318e-25 -9.1437744e-07 1.5681783e-06
0001c0 55 50 ae 3f 73 c7 9e 3d 38 f1 a3 25 7e 26 e2 3d
       1.3618265 0.07752886 2.843945e-16 0.11042498
0001d0 5c a1 3b af fd 99 a0 a5 26 1c 0d 3e d5 00 80 b5
       -1.7064877e-10 -2.7859922e-16 0.13780269 -9.536985e-07
0001e0 1a 4a 30 33 8e 20 03 a3 2d 58 9f 2d 02 32 83 30
       4.104559e-08 -7.108418e-18 1.8115365e-11 9.545718e-10
0001f0 3d f4 13 3d f5 50 bb 2e 79 f6 88 2e aa 65 70 bb
       0.036121596 8.518156e-11 6.228346e-11 -0.003668169
000200 80 fb f9 10 e2 38 08 14 28 11 f2 b2 ef b4 bc b5
       9.860068e-29 6.8774635e-27 -2.818031e-08 -1.405975e-06
000210 64 53 39 3e 67 ba 42 3c f3 b2 8b 25 12 78 0e 3d
       0.18098217 0.011885262 2.4233917e-16 0.034782477
000220 8d 78 9d af 0f 16 f2 23 8d 37 2a 3d 9d 3a 49 b4
       -2.864379e-10 2.6247035e-17 0.041556884 -1.8740907e-07
000230 b9 81 bf 31 9c 59 08 a1 7e 2b cb ae de 4e 2c 30
       5.5735794e-09 -4.619719e-19 -9.239097e-11 6.268531e-10
000240 aa 89 f7 3b 93 34 53 b1 64 70 5d ae ee 7d 53 bc
       0.0075542526 -3.0734426e-09 -5.0349405e-11 -0.012908442
000250 d6 2e 4c 96 20 76 b4 94 b0 2d 9a 31 8e 1c ae b5
       -1.6493768e-25 -1.8221947e-26 4.487184e-09 -1.2972321e-06
000260 04 e0 f5 3d c8 c2 e4 ba ac a6 04 23 ba 27 66 3c
       0.12005618 -0.0017453069 7.1910285e-18 0.0140475575
000270 48 61 33 ae e4 94 02 24 94 b1 0e 3c f9 5c 33 b4
       -4.078629e-11 2.8315372e-17 0.00870933 -1.6704497e-07
000280 ca 63 54 b2 d6 21 55 22 dc 61 ae af 04 5a fd 31
       -1.23627135e-08 2.8884795e-18 -3.171995e-10 7.3735027e-09
000290 d8 1d df 3c 5f 4e 62 30 6a e7 1c 2f 06 44 80 bc
       0.02723591 8.2329693e-10 1.4270332e-10 -0.015657436
0002a0 80 0f d9 15 ca 1c f7 95 e4 a0 d1 34 53 0a 83 37
       8.7670057e-26 -9.9807927e-26 3.9046347e-07 1.5621225e-05
0002b0 98 cb f9 3d 6d 3a ae bb 5a 40 ed a4 f4 06 18 3b
       0.121970356 -0.0053170235 -1.0289138e-16 0.0023197504
0002c0 b8 7b 5d 2d 2e d9 cb a5 aa 38 51 bb 8a 8d 9e b5
       1.2589867e-11 -3.5362053e-16 -0.0031924644 -1.1813111e-06
0002d0 3b e2 9e b3 98 ca 24 21 ac 8b 30 2f 80 bc 3d 2f
       -7.3985994e-08 5.583349e-19 1.6056728e-10 1.7256419e-10
0002e0 0a b2 63 3d 62 e3 41 31 e8 f5 aa af 15 42 9d 3c
       0.055589713 2.8214449e-09 -3.1097547e-10 0.01919655
0002f0 86 4d 87 96 bb cb ec 95 10 a2 0e 33 ba ee a7 b5
       -2.185935e-25 -9.564107e-26 3.3209346e-08 -1.2511948e-06
000300 af 68 93 3f c4 44 04 3d 3f 5f ba 27 3c 19 8c 3d
       1.1516322 0.032292143 5.1728637e-15 0.068407506
000310 2a 04 a0 2e 07 15 64 25 d1 00 bb 3d cf 5f 93 34
       7.276697e-11 1.9782972e-16 0.09131015 2.7450594e-07
000320 39 58 6d b2 76 1a 1d a1 0d 38 97 af 00 05 e3 2d
       -1.3815275e-08 -5.322869e-19 -2.7506566e-10 2.5809133e-11
000330 eb 6b e0 3c b0 cd f3 2f 7c 6f 45 2e 6b d8 3f 3d
       0.02739521 4.4347592e-10 4.4891632e-11 0.04683725
000340 5c c0 95 96 2f eb 6b 95 74 d8 ae b4 7f be fd b5
       -2.4193644e-25 -4.76434e-26 -3.2567516e-07 -1.8905411e-06
000350 9e f5 80 bf e6 35 20 3d 5e 3e b4 26 f6 ac bb 3c
       -1.0074956 0.0391139 1.2506914e-15 0.022909623
000360 d6 af da 2e e7 8c 2e 25 ba 4d ee 3b d3 fe fe 33
       9.944727e-11 1.5139834e-16 0.0072724493 1.1874149e-07
000370 d6 3c db b2 16 f4 23 20 9b 4e e2 ae d7 eb 12 30
       -2.552262e-08 1.3887398e-19 -1.0291253e-10 5.344964e-10
000380 f4 47 dc 3c c4 8b 9c af c1 ed 09 ae fd 1e 51 bc
       0.026889779 -2.8475544e-10 -3.136136e-11 -0.012763736
000390 5c 56 12 95 2d 88 5e 15 46 a9 3f 32 84 87 07 b6
       -2.955259e-26 4.4939967e-26 1.1156152e-08 -2.0195448e-06
0003a0 56 90 e5 3d 34 09 16 3a b8 f8 90 a5 13 0c 43 3c
       0.112091705 0.0005723417 -2.5148556e-16 0.011904734
0003b0 0e 11 30 ae b7 76 71 24 e6 17 1f 3c ea 28 fc b2
       -4.0032914e-11 5.23591e-17 0.009710288 -2.9355267e-08
0003c0 81 cd ee b3 4f 1f a8 a0 c0 21 83 2a 8a bb 7b b1
       -1.11201196e-07 -2.8481025e-19 2.3293693e-13 -3.663191e-09
0003d0 3d 5c 2f 3d 0c 46 47 31 10 b9 69 ad 49 42 92 ba
       0.042812575 2.8998128e-09 -1.3285609e-11 -0.001115867
0003e0 89 16 50 15 0e 68 e4 93 96 38 f9 b3 46 55 a7 b5
       4.2023043e-26 -5.7657897e-27 -1.1605259e-07 -1.2467287e-06
0003f0 04 88 3c 3e 98 ea 5c 3c 18 c8 b6 25 7a 7a 11 3d
       0.18411261 0.013483666 3.1707556e-16 0.035517193

weight f4 [4, 1, 20]
000000 e2 cc 03 3e b1 f3 24 bf 55 56 30 bd 2b e0 24 3f
       0.12871125 -0.64434344 -0.043051083 0.64404553
000010 d8 66 bf bc 07 ac 24 3f 9c f7 7a bc 9d 64 84 bd
       -0.02336447 0.6432499 -0.015317824 -0.06464503
000020 95 e3 52 bd 85 2a 25 3f e9 7c 24 bf 08 d9 85 bd
       -0.05148657 0.64518005 -0.642531 -0.06535536
000030 51 e1 71 bc d2 c4 24 bf 12 f2 da bd 7e 36 24 bf
       -0.014763192 -0.64362824 -0.106907025 -0.6414565
000040 e3 7d 15 3f cb 4f 24 bf 39 17 24 3f a5 7c c0 bc
       0.5839521 -0.64184254 0.64097935 -0.023496935
000050 0d b8 1a 3d 0e 84 0f be 8c 43 27 bf 51 65 26 bf
       0.03777318 -0.14015219 -0.65337443 -0.64998347
000060 bb 62 26 bf db f0 27 bf d8 f3 25 bf d9 bd 25 bf
       -0.649944 -0.6560189 -0.648252 -0.6474281
000070 0f 3b 26 bf f6 ea 27 bf c0 bb 07 be b9 c0 26 bf
       -0.64933866 -0.65592897 -0.13255215 -0.6513782
000080 bc 81 27 bf d8 de 06 be 38 cc 25 bf a7 06 08 be
       -0.65432334 -0.13170946 -0.6476474 -0.13283788
000090 16 96 26 bf 95 1f 0f be 14 b6 27 bf 10 54 26 bf
       -0.6507276 -0.13976891 -0.65512204 -0.6497202
0000a0 f8 0a 4c 3b b7 54 4a 3f 1e 30 4b 3f 8f 35 47 3f
       0.0031134468 0.79035515 0.79370296 0.778161
0000b0 0e e1 4a 3f c8 1a 4a 3f a7 54 4a 3f 07 56 49 3f
       0.79249656 0.78947115 0.7903542 0.7864689
0000c0 4b 58 49 3f f6 1a 49 3f e8 b4 4a 3f 69 7e 4a 3f
       0.7865035 0.78556764 0.7918229 0.79099137
0000d0 0a 45 49 3f 78 76 46 3f 3b ed 49 3f e6 e3 49 3f
       0.7862097 0.7752452 0.7887761 0.7886337
0000e0 93 e0 48 3f ca 0e 4b 3f 00 d5 4a 3f 11 fe 49 3f
       0.78467673 0.7931944 0.7923126 0.789033
0000f0 09 86 0b 3d bd 66 82 3f 54 ad 63 bd 7f 9b 82 bf
       0.034063373 1.0187603 -0.05558522 -1.0203704
000100 3f d1 68 bd 6a 86 82 bf fe df 88 bd 66 50 3a bd
       -0.056840178 -1.019727 -0.06683348 -0.04548683
000110 32 0c 44 bd 33 8f 81 bf ec 7c 81 3f 33 32 3b bd
       -0.047863193 -1.0121826 1.0116248 -0.04570217
000120 7c 82 84 bd d5 64 82 3f e1 f4 74 bd a6 84 82 3f
       -0.064702004 1.0187021 -0.059803847 1.0196731
000130 78 f9 9d be c0 d9 81 3f 7c 55 82 bf 05 bd 5f bd
       -0.30854392 1.0144577 -1.0182338 -0.054623622

bias f4 [4, 1, 1]
000000 b8 6e 24 36 f7 24 47 b7 ef a6 09 b6 ca 44 00 36
       2.4502351e-06 -1.1869931e-05 -2.051176e-06 1.9113527e-06

concepts f4 [1, 700, 20]
000000 24 60 7a 3f 3c 81 30 3f 8f cd 7e 3f 40 a9 6d 3f
       0.9780295 0.68947196 0.9953241 0.9283638
000010 a6 cb 6c 3f 00 00 80 3f 98 4b 75 3f 8b ef 76 3f
       0.9249824 1.0 0.9581847 0.96459264
000020 ed d2 75 3f 68 cb 71 3f df 97 24 3f 85 d1 74 3f
       0.9602497 0.94451 0.64294237 0.956322
000030 ba 20 7b 3f 0b a7 2a 3f 88 50 7a 3f 6e 18 20 3f
       0.9809681 0.6666114 0.9777913 0.62537277
000040 98 87 7b 3f 42 d2 2b 3f 85 ea 7c 3f 08 20 71 3f
       0.98253775 0.671177 0.9879535 0.941895
000050 24 60 7a 3f 3c 81 30 3f 8f cd 7e 3f 40 a9 6d 3f
       0.9780295 0.68947196 0.9953241 0.9283638
000060 a6 cb 6c 3f 00 00 80 3f 98 4b 75 3f 8b ef 76 3f
       0.9249824 1.0 0.9581847 0.96459264
000070 ed d2 75 3f 68 cb 71 3f df 97 24 3f 85 d1 74 3f
       0.9602497 0.94451 0.64294237 0.956322
000080 ba 20 7b 3f 0b a7 2a 3f 88 50 7a 3f 6e 18 20 3f
       0.9809681 0.6666114 0.9777913 0.62537277
000090 98 87 7b 3f 42 d2 2b 3f 85 ea 7c 3f 08 20 71 3f
       0.98253775 0.671177 0.9879535 0.941895
0000a0 24 60 7a 3f 3c 81 30 3f 8f cd 7e 3f 40 a9 6d 3f
       0.9780295 0.68947196 0.9953241 0.9283638
0000b0 a6 cb 6c 3f 00 00 80 3f 98 4b 75 3f 8b ef 76 3f
       0.9249824 1.0 0.9581847 0.96459264
0000c0 ed d2 75 3f 68 cb 71 3f df 97 24 3f 85 d1 74 3f
       0.9602497 0.94451 0.64294237 0.956322
0000d0 ba 20 7b 3f 0b a7 2a 3f 88 50 7a 3f 6e 18 20 3f
       0.9809681 0.6666114 0.9777913 0.62537277
0000e0 98 87 7b 3f 42 d2 2b 3f 85 ea 7c 3f 08 20 71 3f
       0.98253775 0.671177 0.9879535 0.941895
0000f0 24 60 7a 3f 3c 81 30 3f 8f cd 7e 3f 40 a9 6d 3f
       0.9780295 0.68947196 0.9953241 0.9283638
000100 a6 cb 6c 3f 00 00 80 3f 98 4b 75 3f 8b ef 76 3f
       0.9249824 1.0 0.9581847 0.96459264
000110 ed d2 75 3f 68 cb 71 3f df 97 24 3f 85 d1 74 3f
       0.9602497 0.94451 0.64294237 0.956322
000120 ba 20 7b 3f 0b a7 2a 3f 88 50 7a 3f 6e 18 20 3f
       0.9809681 0.6666114 0.9777913 0.62537277
000130 98 87 7b 3f 42 d2 2b 3f 85 ea 7c 3f 08 20 71 3f
       0.98253775 0.671177 0.9879535 0.941895
000140 24 60 7a 3f 3c 81 30 3f 8f cd 7e 3f 40 a9 6d 3f
       0.9780295 0.68947196 0.9953241 0.9283638
000150 a6 cb 6c 3f 00 00 80 3f 98 4b 75 3f 8b ef 76 3f
       0.9249824 1.0 0.9581847 0.96459264
000160 ed d2 75 3f 68 cb 71 3f df 97 24 3f 85 d1 74 3f
       0.9602497 0.94451 0.64294237 0.956322
000170 ba 20 7b 3f 0b a7 2a 3f 88 50 7a 3f 6e 18 20 3f
       0.9809681 0.6666114 0.9777913 0.62537277
000180 98 87 7b 3f 42 d2 2b 3f 85 ea 7c 3f 08 20 71 3f
       0.98253775 0.671177 0.9879535 0.941895
000190 00 00 80 3f 7e 67 e4 3e 5d 0a 2a 3f 14 a7 26 3f
       1.0 0.44610208 0.66422063 0.6509869
0001a0 37 fc 1c 3f d2 d2 3b 3f e5 9b 24 3f b4 9a 22 3f
       0.6132235 0.7336856 0.64300376 0.6351731
0001b0 45 a7 21 3f 0a dc 2a 3f 5b 43 d4 3e 09 bd 21 3f
       0.6314586 0.66742 0.41457638 0.6317907
0001c0 fd b9 28 3f f9 9d dc 3e cd 3a 22 3f 1a 3a cd 3e
       0.65908796 0.43089274 0.6337097 0.4008339
0001d0 88 7b 30 3f 8d 02 de 3e 1d d8 30 3f 7b 88 20 3f
       0.68938494 0.4336132 0.6907976 0.6270825
0001e0 24 60 7a 3f 3c 81 30 3f 8f cd 7e 3f 40 a9 6d 3f
       0.9780295 0.68947196 0.9953241 0.9283638
0001f0 a6 cb 6c 3f 00 00 80 3f 98 4b 75 3f 8b ef 76 3f
       0.9249824 1.0 0.9581847 0.96459264
000200 ed d2 75 3f 68 cb 71 3f df 97 24 3f 85 d1 74 3f
       0.9602497 0.94451 0.64294237 0.956322
000210 ba 20 7b 3f 0b a7 2a 3f 88 50 7a 3f 6e 18 20 3f
       0.9809681 0.6666114 0.9777913 0.62537277
000220 98 87 7b 3f 42 d2 2b 3f 85 ea 7c 3f 08 20 71 3f
       0.98253775 0.671177 0.9879535 0.941895
000230 24 60 7a 3f 3c 81 30 3f 8f cd 7e 3f 40 a9 6d 3f
       0.9780295 0.68947196 0.9953241 0.9283638
000240 a6 cb 6c 3f 00 00 80 3f 98 4b 75 3f 8b ef 76 3f
       0.9249824 1.0 0.9581847 0.96459264
000250 ed d2 75 3f 68 cb 71 3f df 97 24 3f 85 d1 74 3f
       0.9602497 0.94451 0.64294237 0.956322
000260 ba 20 7b 3f 0b a7 2a 3f 88 50 7a 3f 6e 18 20 3f
       0.9809681 0.6666114 0.9777913 0.62537277
000270 98 87 7b 3f 42 d2 2b 3f 85 ea 7c 3f 08 20 71 3f
       0.98253775 0.671177 0.9879535 0.941895
000280 24 60 7a 3f 3c 81 30 3f 8f cd 7e 3f 40 a9 6d 3f
       0.9780295 0.68947196 0.9953241 0.9283638
000290 a6 cb 6c 3f 00 00 80 3f 98 4b 75 3f 8b ef 76 3f
       0.9249824 1.0 0.9581847 0.96459264
0002a0 ed d2 75 3f 68 cb 71 3f df 97 24 3f 85 d1 74 3f
       0.9602497 0.94451 0.64294237 0.956322
0002b0 ba 20 7b 3f 0b a7 2a 3f 88 50 7a 3f 6e 18 20 3f
       0.9809681 0.6666114 0.9777913 0.62537277
0002c0 98 87 7b 3f 42 d2 2b 3f 85 ea 7c 3f 08 20 71 3f
       0.98253775 0.671177 0.9879535 0.941895
0002d0 24 60 7a 3f 3c 81 30 3f 8f cd 7e 3f 40 a9 6d 3f
       0.9780295 0.68947196 0.9953241 0.9283638
0002e0 a6 cb 6c 3f 00 00 80 3f 98 4b 75 3f 8b ef 76 3f
       0.9249824 1.0 0.9581847 0.96459264
0002f0 ed d2 75 3f 68 cb 71 3f df 97 24 3f 85 d1 74 3f
       0.9602497 0.94451 0.64294237 0.956322
000300 ba 20 7b 3f 0b a7 2a 3f 88 50 7a 3f 6e 18 20 3f
       0.9809681 0.6666114 0.9777913 0.62537277
000310 98 87 7b 3f 42 d2 2b 3f 85 ea 7c 3f 08 20 71 3f
       0.98253775 0.671177 0.9879535 0.941895
000320 24 60 7a 3f 3c 81 30 3f 8f cd 7e 3f 40 a9 6d 3f
       0.9780295 0.68947196 0.9953241 0.9283638
000330 a6 cb 6c 3f 00 00 80 3f 98 4b 75 3f 8b ef 76 3f
       0.9249824 1.0 0.9581847 0.96459264
000340 ed d2 75 3f 68 cb 71 3f df 97 24 3f 85 d1 74 3f
       0.9602497 0.94451 0.64294237 0.956322
000350 ba 20 7b 3f 0b a7 2a 3f 88 50 7a 3f 6e 18 20 3f
       0.9809681 0.6666114 0.9777913 0.62537277
000360 98 87 7b 3f 42 d2 2b 3f 85 ea 7c 3f 08 20 71 3f
       0.98253775 0.671177 0.9879535 0.941895
000370 24 60 7a 3f 3c 81 30 3f 8f cd 7e 3f 40 a9 6d 3f
       0.9780295 0.68947196 0.9953241 0.9283638
000380 a6 cb 6c 3f 00 00 80 3f 98 4b 75 3f 8b ef 76 3f
       0.9249824 1.0 0.9581847 0.96459264
000390 ed d2 75 3f 68 cb 71 3f df 97 24 3f 85 d1 74 3f
       0.9602497 0.94451 0.64294237 0.956322
0003a0 ba 20 7b 3f 0b a7 2a 3f 88 50 7a 3f 6e 18 20 3f
       0.9809681 0.6666114 0.9777913 0.62537277
0003b0 98 87 7b 3f 42 d2 2b 3f 85 ea 7c 3f 08 20 71 3f
       0.98253775 0.671177 0.9879535 0.941895
0003c0 6f 8b 75 3f 43 d6 3d 3f 00 00 80 3f 86 4b 5f 3f
       0.95915884 0.7415506 1.0 0.87224615
0003d0 3d 78 6e 3f 65 b6 6b 3f de ed 75 3f 48 43 79 3f
       0.9315222 0.92075187 0.9606608 0.9736829
0003e0 eb 2d 78 3f b0 e1 62 3f e8 34 32 3f aa 1c 77 3f
       0.96945065 0.8862562 0.6961198 0.9652811
0003f0 da ad 7b 3f 89 47 38 3f 01 a3 7c 3f 03 5a 2d 3f
       0.9831215 0.71984154 0.98686224 0.6771547

alpha f4 [4, 20]
000000 4d 84 fe 3c 1d 46 96 3d a7 a7 dc 3c 05 33 96 3d
       0.031068945 0.07337592 0.026935412 0.0733395
000010 51 88 d5 3c 10 00 96 3d 1a b0 d2 3c aa bd e4 3c
       0.026065977 0.07324231 0.025718737 0.02792247
000020 6f c7 df 3c ca 7b 96 3d 14 d2 95 3d 09 03 e5 3c
       0.027316777 0.0734783 0.0731546 0.027955549
000030 44 7e d2 3c 49 18 96 3d 01 6f f5 3c 74 8d 95 3d
       0.025694974 0.07328851 0.029960157 0.07302371
000040 80 e2 87 3d 19 a6 95 3d 05 6f 95 3d 62 94 d5 3c
       0.06634998 0.07307071 0.07296566 0.026071731
000050 06 d1 b2 3c 04 16 d4 3c 6c 70 79 3d 8c 08 78 3d
       0.021828186 0.025889404 0.06089823 0.060555026
000060 5f 04 78 3d 7e 8a 7a 3d 95 51 77 3d b1 fa 76 3d
       0.060551044 0.061167233 0.060380537 0.06029767
000070 58 c4 77 3d e0 80 7a 3d a0 6a d1 3c 52 9c 78 3d
       0.060489982 0.06115806 0.025563538 0.060695954
000080 7f d5 79 3d 62 1f d1 3c ce 11 77 3d 28 84 d1 3c
       0.06099462 0.02552766 0.060319714 0.025575712
000090 5a 57 78 3d 58 f3 d3 3c b1 2a 7a 3d b1 ec 77 3d
       0.06063018 0.025872871 0.06107587 0.06052846
0000a0 3d c9 65 3c 0c 59 55 3d a5 8a 56 3d 3e 0e 51 3d
       0.01402503 0.052086875 0.052378315 0.051038973
0000b0 55 1c 56 3d a3 08 55 3d f6 58 55 3d 70 f8 53 3d
       0.052273113 0.05201019 0.052086793 0.0517506
0000c0 90 fb 53 3d fb a6 53 3d d2 de 55 3d fe 92 55 3d
       0.05175358 0.051672917 0.05221445 0.052142136
0000d0 00 e1 53 3d ca 0a 50 3d 81 c9 54 3d 94 bc 54 3d
       0.05172825 0.05079154 0.05194998 0.051937655
0000e0 97 56 53 3d 1d 5c 56 3d 87 0b 56 3d d4 e0 54 3d
       0.05159625 0.05233394 0.052257087 0.051972225
0000f0 87 b1 8c 3c 10 89 b5 3d ea d4 91 3c ef 05 b6 3d
       0.017174495 0.08864033 0.01780172 0.088878505
000100 15 23 92 3c ff d3 b5 3d 67 97 94 3c d6 65 8f 3c
       0.017838994 0.08878326 0.0181386 0.017504614
000110 85 f7 8f 3c 5e 8e b3 3d a7 63 b3 3d 04 73 8f 3c
       0.017574081 0.08767389 0.087592416 0.017510898
000120 83 10 94 3c 8f 84 b5 3d 55 dc 92 3c d2 cf b5 3d
       0.01807428 0.08863174 0.017927328 0.08877529
000130 1f 4e de 3c fe 3c b4 3d 4b 60 b5 3d 22 99 91 3c
       0.02713686 0.08800696 0.08856257 0.017773215

alpha_norm f4 [4, 20]
000000 62 7d d8 3e b0 a4 7f 3f e8 af bb 3e 35 84 7f 3f
       0.4228316 0.9986067 0.36657643 0.99811107
000010 fe a0 b5 3e 85 2d 7f 3f 94 35 b3 3e a4 90 c2 3e
       0.3547439 0.9967883 0.35001814 0.38000977
000020 31 58 be 3e 00 00 80 3f 4a df 7e 3f a5 cb c2 3e
       0.3717666 1.0 0.9955946 0.38045993
000030 30 0b b3 3e ba 56 7f 3f 81 c3 d0 3e 8c 6a 7e 3f
       0.34969473 0.9974171 0.40774158 0.9938133
000040 30 2a 67 3f 79 94 7e 3f c6 36 7e 3f 41 ab b5 3e
       0.9029875 0.994453 0.9930233 0.3548222
000050 74 b6 b6 3e 06 b5 d8 3e c9 df 7e 3f 11 70 7d 3f
       0.35686076 0.4232561 0.9956022 0.98999125
000060 cd 6b 7d 3f 00 00 80 3f 1e b5 7c 3f 55 5c 7c 3f
       0.98992616 1.0 0.9871386 0.9857839
000070 61 2a 7d 3f 2c f6 7f 3f be fa d5 3e 10 07 7e 3f
       0.9889279 0.99985003 0.41792864 0.99229527
000080 0f 47 7f 3f dc ad d5 3e f3 73 7c 3f d4 14 d6 3e
       0.997178 0.41734207 0.98614424 0.41812766
000090 97 c0 7d 3f 98 91 d8 3e 1d 9e 7f 3f 9b 53 7d 3f
       0.99121994 0.4229858 0.99850637 0.98955697
0000a0 5f 18 89 3e 59 93 7e 3f 00 00 80 3f 35 74 79 3f
       0.26776406 0.99443585 1.0 0.9744294
0000b0 5f 7c 7f 3f 66 33 7e 3f 3f 93 7e 3f 9a ee 7c 3f
       0.9979915 0.9929718 0.9944343 0.9880158
0000c0 54 f2 7c 3f 67 8d 7c 3f f9 32 7f 3f 7e d8 7e 3f
       0.98807263 0.9865326 0.99687153 0.9954909
0000d0 a2 d2 7c 3f 9e 3e 78 3f 11 e8 7d 3f a5 d8 7d 3f
       0.987589 0.96970546 0.9918223 0.991587
0000e0 7a 2d 7c 3f 7a c8 7f 3f 52 68 7f 3f e6 03 7e 3f
       0.9850689 0.9991528 0.99768555 0.992247
0000f0 91 df 45 3e 61 50 7f 3f 8b 19 4d 3e 00 00 80 3f
       0.19323565 0.99732023 0.20029275 1.0
000100 7b 87 4d 3e c4 b9 7f 3f 29 fb 50 3e 3d ad 49 3e
       0.20071213 0.9989283 0.2040831 0.19694991
000110 21 7a 4a 3e c2 87 7c 3f ae 4b 7c 3f c6 bf 49 3e
       0.19773151 0.9864465 0.9855298 0.19702062
000120 72 3d 50 3e 0c 4a 7f 3f 05 8c 4e 3e e5 b3 7f 3f
       0.2033594 0.9972236 0.201706 0.9988387
000130 9b 53 9c 3e 5a 7d 7d 3f 0a 17 7f 3f 78 c5 4c 3e
       0.30532536 0.99019396 0.9964453 0.19997203

gnn_embedding f4 [700, 20]
000000 80 23 14 3f d8 8c 6a 3e 41 a0 18 3f 05 cc 06 3f
       0.5786667 0.2290529 0.5961953 0.5265506
000010 e2 dc 05 3f 6a d3 19 3f 10 e4 0e 3f e1 98 10 3f
       0.52290165 0.6008822 0.55816746 0.56483275
000020 26 71 0f 3f 07 36 0b 3f 98 00 23 3e 8a 64 0e 3f
       0.56032026 0.54379314 0.15918195 0.5562216
000030 1e e8 14 3f ac 05 48 3e 8a 13 14 3f 54 a1 06 3e
       0.5816668 0.19533414 0.57842314 0.1314748
000040 e6 50 15 3f f4 02 4f 3e 24 b9 16 3f 55 80 0a 3f
       0.58326566 0.2021597 0.5887625 0.5410207
000050 80 23 14 3f d8 8c 6a 3e 41 a0 18 3f 05 cc 06 3f
       0.5786667 0.2290529 0.5961953 0.5265506
000060 e2 dc 05 3f 6a d3 19 3f 10 e4 0e 3f e1 98 10 3f
       0.52290165 0.6008822 0.55816746 0.56483275
000070 26 71 0f 3f 07 36 0b 3f 98 00 23 3e 8a 64 0e 3f
       0.56032026 0.54379314 0.15918195 0.5562216
000080 1e e8 14 3f ac 05 48 3e 8a 13 14 3f 54 a1 06 3e
       0.5816668 0.19533414 0.57842314 0.1314748
000090 e6 50 15 3f f4 02 4f 3e 24 b9 16 3f 55 80 0a 3f
       0.58326566 0.2021597 0.5887625 0.5410207
0000a0 80 23 14 3f d8 8c 6a 3e 41 a0 18 3f 05 cc 06 3f
       0.5786667 0.2290529 0.5961953 0.5265506
0000b0 e2 dc 05 3f 6a d3 19 3f 10 e4 0e 3f e1 98 10 3f
       0.52290165 0.6008822 0.55816746 0.56483275
0000c0 26 71 0f 3f 07 36 0b 3f 98 00 23 3e 8a 64 0e 3f
       0.56032026 0.54379314 0.15918195 0.5562216
0000d0 1e e8 14 3f ac 05 48 3e 8a 13 14 3f 54 a1 06 3e
       0.5816668 0.19533414 0.57842314 0.1314748
0000e0 e6 50 15 3f f4 02 4f 3e 24 b9 16 3f 55 80 0a 3f
       0.58326566 0.2021597 0.5887625 0.5410207
0000f0 80 23 14 3f d8 8c 6a 3e 41 a0 18 3f 05 cc 06 3f
       0.5786667 0.2290529 0.5961953 0.5265506
000100 e2 dc 05 3f 6a d3 19 3f 10 e4 0e 3f e1 98 10 3f
       0.52290165 0.6008822 0.55816746 0.56483275
000110 26 71 0f 3f 07 36 0b 3f 98 00 23 3e 8a 64 0e 3f
       0.56032026 0.54379314 0.15918195 0.5562216
000120 1e e8 14 3f ac 05 48 3e 8a 13 14 3f 54 a1 06 3e
       0.5816668 0.19533414 0.57842314 0.1314748
000130 e6 50 15 3f f4 02 4f 3e 24 b9 16 3f 55 80 0a 3f
       0.58326566 0.2021597 0.5887625 0.5410207
000140 80 23 14 3f d8 8c 6a 3e 41 a0 18 3f 05 cc 06 3f
       0.5786667 0.2290529 0.5961953 0.5265506
000150 e2 dc 05 3f 6a d3 19 3f 10 e4 0e 3f e1 98 10 3f
       0.52290165 0.6008822 0.55816746 0.56483275
000160 26 71 0f 3f 07 36 0b 3f 98 00 23 3e 8a 64 0e 3f
       0.56032026 0.54379314 0.15918195 0.5562216
000170 1e e8 14 3f ac 05 48 3e 8a 13 14 3f 54 a1 06 3e
       0.5816668 0.19533414 0.57842314 0.1314748
000180 e6 50 15 3f f4 02 4f 3e 24 b9 16 3f 55 80 0a 3f
       0.58326566 0.2021597 0.5887625 0.5410207
000190 c6 6d 83 3f 98 d9 60 3e 16 1e 1e 3f 2f f7 18 3f
       1.0267875 0.21958005 0.6176466 0.5975217
0001a0 c0 aa 09 3f b6 94 37 3f 8b ce 15 3f 86 ab 12 3f
       0.5377617 0.7171129 0.58518285 0.57292974
0001b0 25 2b 11 3f 01 59 1f 3f e6 cc 15 3e 9b 4d 11 3f
       0.5670646 0.62245184 0.14628944 0.5675904
0001c0 b3 21 1c 3f 2c 54 3d 3e 5d 14 12 3f 10 90 e6 3d
       0.6098892 0.1848914 0.5706232 0.112579465
0001d0 12 a3 27 3f 0c c6 43 3e 3b 29 28 3f 65 63 0f 3f
       0.654832 0.19118518 0.6568791 0.5601104
0001e0 80 23 14 3f d8 8c 6a 3e 41 a0 18 3f 05 cc 06 3f
       0.5786667 0.2290529 0.5961953 0.5265506
0001f0 e2 dc 05 3f 6a d3 19 3f 10 e4 0e 3f e1 98 10 3f
       0.52290165 0.6008822 0.55816746 0.56483275
000200 26 71 0f 3f 07 36 0b 3f 98 00 23 3e 8a 64 0e 3f
       0.56032026 0.54379314 0.15918195 0.5562216
000210 1e e8 14 3f ac 05 48 3e 8a 13 14 3f 54 a1 06 3e
       0.5816668 0.19533414 0.57842314 0.1314748
000220 e6 50 15 3f f4 02 4f 3e 24 b9 16 3f 55 80 0a 3f
       0.58326566 0.2021597 0.5887625 0.5410207
000230 80 23 14 3f d8 8c 6a 3e 41 a0 18 3f 05 cc 06 3f
       0.5786667 0.2290529 0.5961953 0.5265506
000240 e2 dc 05 3f 6a d3 19 3f 10 e4 0e 3f e1 98 10 3f
       0.52290165 0.6008822 0.55816746 0.56483275
000250 26 71 0f 3f 07 36 0b 3f 98 00 23 3e 8a 64 0e 3f
       0.56032026 0.54379314 0.15918195 0.5562216
000260 1e e8 14 3f ac 05 48 3e 8a 13 14 3f 54 a1 06 3e
       0.5816668 0.19533414 0.57842314 0.1314748
000270 e6 50 15 3f f4 02 4f 3e 24 b9 16 3f 55 80 0a 3f
       0.58326566 0.2021597 0.5887625 0.5410207
000280 80 23 14 3f d8 8c 6a 3e 41 a0 18 3f 05 cc 06 3f
       0.5786667 0.2290529 0.5961953 0.5265506
000290 e2 dc 05 3f 6a d3 19 3f 10 e4 0e 3f e1 98 10 3f
       0.52290165 0.6008822 0.55816746 0.56483275
0002a0 26 71 0f 3f 07 36 0b 3f 98 00 23 3e 8a 64 0e 3f
       0.56032026 0.54379314 0.15918195 0.5562216
0002b0 1e e8 14 3f ac 05 48 3e 8a 13 14 3f 54 a1 06 3e
       0.5816668 0.19533414 0.57842314 0.1314748
0002c0 e6 50 15 3f f4 02 4f 3e 24 b9 16 3f 55 80 0a 3f
       0.58326566 0.2021597 0.5887625 0.5410207
0002d0 80 23 14 3f d8 8c 6a 3e 41 a0 18 3f 05 cc 06 3f
       0.5786667 0.2290529 0.5961953 0.5265506
0002e0 e2 dc 05 3f 6a d3 19 3f 10 e4 0e 3f e1 98 10 3f
       0.52290165 0.6008822 0.55816746 0.56483275
0002f0 26 71 0f 3f 07 36 0b 3f 98 00 23 3e 8a 64 0e 3f
       0.56032026 0.54379314 0.15918195 0.5562216
000300 1e e8 14 3f ac 05 48 3e 8a 13 14 3f 54 a1 06 3e
       0.5816668 0.19533414 0.57842314 0.1314748
000310 e6 50 15 3f f4 02 4f 3e 24 b9 16 3f 55 80 0a 3f
       0.58326566 0.2021597 0.5887625 0.5410207
000320 80 23 14 3f d8 8c 6a 3e 41 a0 18 3f 05 cc 06 3f
       0.5786667 0.2290529 0.5961953 0.5265506
000330 e2 dc 05 3f 6a d3 19 3f 10 e4 0e 3f e1 98 10 3f
       0.52290165 0.6008822 0.55816746 0.56483275
000340 26 71 0f 3f 07 36 0b 3f 98 00 23 3e 8a 64 0e 3f
       0.56032026 0.54379314 0.15918195 0.5562216
000350 1e e8 14 3f ac 05 48 3e 8a 13 14 3f 54 a1 06 3e
       0.5816668 0.19533414 0.57842314 0.1314748
000360 e6 50 15 3f f4 02 4f 3e 24 b9 16 3f 55 80 0a 3f
       0.58326566 0.2021597 0.5887625 0.5410207
000370 80 23 14 3f d8 8c 6a 3e 41 a0 18 3f 05 cc 06 3f
       0.5786667 0.2290529 0.5961953 0.5265506
000380 e2 dc 05 3f 6a d3 19 3f 10 e4 0e 3f e1 98 10 3f
       0.52290165 0.6008822 0.55816746 0.56483275
000390 26 71 0f 3f 07 36 0b 3f 98 00 23 3e 8a 64 0e 3f
       0.56032026 0.54379314 0.15918195 0.5562216
0003a0 1e e8 14 3f ac 05 48 3e 8a 13 14 3f 54 a1 06 3e
       0.5816668 0.19533414 0.57842314 0.1314748
0003b0 e6 50 15 3f f4 02 4f 3e 24 b9 16 3f 55 80 0a 3f
       0.58326566 0.2021597 0.5887625 0.5410207
0003c0 64 98 0a 3f 39 72 91 3e 26 45 15 3f e6 8e e4 3e
       0.5413878 0.28407457 0.5830864 0.44640273
0003d0 56 1c 03 3f 30 22 00 3f ee fe 0a 3f 54 71 0e 3f
       0.5121511 0.50052166 0.5429524 0.55641675
0003e0 d9 53 0d 3f 76 b7 ec 3e 3e 27 62 3e 60 39 0c 3f
       0.55206066 0.4623372 0.22085282 0.5477505
0003f0 8f e9 10 3f c3 3b 82 3e 72 e2 11 3f 4c de 45 3e
       0.5660638 0.2543622 0.56986153 0.19323081
