models/cdm_bashapes.pt (torch, 8583 bytes, 10 tensors)

conv0.bias f4 [20]
00000000: 6e73 b99f bc7c 0832 a408 bebe 976d 03b3
00000010: c051 0580 70d0 e59c ef3c 09b8 67f1 d4be
00000020: b783 d2b6 fbc4 9abe 65b1 f0be 3f9e fba9
00000030: 9d3f 78ad fcb4 0bbe 4abf 3a3a a9d9 d1ad
00000040: af1b 00bf cd02 c1be 0bd2 debe b745 6c3f
-7.854151e-20 7.944603e-09 -0.37115967 -3.0600486e-08 -4.88504e-40 -1.5207829e-21 -3.2720094e-05 -0.41590425
-6.2738213e-06 -0.3022841 -0.4701034 -1.11740905e-13 -1.4111293e-11 -0.13643259 0.0007123841 -2.385721e-11
-0.5004224 -0.3769745 -0.43519625 0.92293876

conv0.lin.weight f4 [20, 1]
00000000: f4e4 db9f 94c3 f931 0638 4c3f 1041 ecb2
00000010: 335a 0680 08e6 ce9c e8b6 0eb8 8e48 123f
00000020: 7466 d1b6 f7c5 203f 023a 1d3f e2bc 2ea9
00000030: 7adf 7ead 5c6c 3a3f ef50 1a3a 7048 ccad
00000040: b933 0e3f 76f9 333f 2297 113f b140 79be
-9.312888e-20 7.2690884e-09 0.79772985 -2.7503603e-08 -5.8337e-40 -1.3691398e-21 -3.4025783e-05 0.5714196
-6.2406125e-06 0.6280207 0.6141664 -3.879959e-14 -1.448785e-11 0.72821593 0.0005886694 -2.3224284e-11
0.5554767 0.7030252 0.56871235 -0.24341084

conv1.bias f4 [20]
00000000: 12ad 6eaf a74b e7bc 49d5 09b2 e68a 93bd
00000010: f245 903f da3a 67bd 36be dabe c712 6aae
00000020: 1055 d2be f0ff b1be 341b 32bd cb59 28b9
00000030: d1f5 debe ef86 073e 9028 d8be a1ad cc39
00000040: 0246 d0be eee0 45bc 3838 07bf 1926 bdbe
-2.1707461e-10 -0.028234316 -8.022945e-09 -0.07204227 1.1271346 -0.05645261 -0.42723244 -5.3222118e-11
-0.41080523 -0.34765577 -0.043482974 -0.00016055179 -0.43546918 0.13235067 -0.42218447 0.00039039276
-0.40678412 -0.012077553 -0.5282016 -0.3694313

conv1.lin.weight f4 [20, 20]
00000000: d8fe e38c 06d1 87a4 0c87 b0ae 05b5 5da3
00000010: 3a1b 0000 8c3b 8d8e dd42 2527 efa5 f3ad
00000020: e972 5b24 099d c4ae fe54 10ae 5ee6 4218
00000030: a928 191c 747b ffae f011 a1a9 46c1 151e
00000040: c855 f12b a7b6 a2ae 6981 d9ad ce2c 47b0
00000050: 9831 4f9d e6d5 4a30 fdb6 3c3d 62e0 49b1
00000060: 7c32 0080 85ce b09b 3c1d 26b5 22ac f63c
00000070: 20a3 7cb2 3c1e 063d 7c7b f43c d497 e9a8
00000080: 3458 eaaa aeba 1c3d bec2 e938 2178 0a2b
00000090: 8806 be3c de3f 1b3d 6272 de3c 937b 03bd
000000a0: fcd0 ae11 7d02 2023 860d 4ab1 a07b bc21
000000b0: 0722 0080 dc4f 388d 98c5 74a7 37dc 3331
000000c0: 9392 5428 c46b a7af ea79 09b0 64db 399a
000000d0: 64be 36ae 707c 85b1 b315 e02a 97f1 079d
000000e0: f923 e0af 0b81 c7b0 28bd faaf 9c58 bab1
000000f0: d83e 831e 67ad 4d30 b356 f33d 331f bfb1
00000100: 106f 0080 a5a8 359c 4059 3ab4 1ff2 9c3d
00000110: 0788 0735 8c06 ac3d 9593 9c3d de2c 1a29
00000120: 5d46 11ab 692c be3d 23a2 1539 ae21 5fac
00000130: 4b6d 723d 55df c73d 09aa 8e3d 9c35 a0bd
00000140: c40d 821e bf54 cdb0 f992 35bd a950 3432
00000150: 1ed1 0200 c21d a41c c86a b533 3493 5fbe
00000160: aa5b 3ab6 d5a6 11bd c75c 94be 33f2 c8a8
00000170: c1c8 1e2c 7b80 523e 0ba0 ebb8 59f5 592d
00000180: 51aa 1cbe 0eb1 babd eb78 88be 3a81 753f
00000190: 72a5 ad1e 1579 f230 7d3a c43d a0b3 6cb1
000001a0: a427 0000 ea61 159c d0bb f634 2915 7f3d
000001b0: aa1e cf34 dd18 8d3d 445c 7e3d 86b8 0d29
000001c0: a981 64ab 50a8 913d c56e 8c39 646a c0ab
000001d0: fc5a 453d 594d a23d 6bad 673d b4e7 83bd
000001e0: e0f4 e79f 00a5 8eac 949a a13e 9382 1632
000001f0: e181 0000 511e 779c 88eb ddb6 6761 913e
00000200: 9073 a8b5 3282 8f3e 89ce a23e baef a02a
00000210: 81f7 c92c c82e 893e 282d f039 00da 0ead
00000220: 7fdb a43e 9efd 9f3e ce15 963e 70ca 97be
00000230: e678 890c 1159 0ea0 d34b d8ad 34d1 83a1
00000240: 0a06 0080 a8de 6c8c ada0 ea25 a685 28ad
00000250: 529f 0124 f424 9dad a02d 3ead 2a1f 2999
00000260: 12d7 e59a 5f07 d8ad cc35 6927 92b0 499b
00000270: 705b a1ac 7cad adad e78a e0ad e751 9dae
00000280: d676 ee1d 00d2 3a32 ff02 a93e c0e0 98b1
00000290: 3cf0 0100 1c3f 9b1c 7f96 3936 c74f 933e
000002a0: 6a0e c8b4 a87e 913e 3378 a43e c598 9fa9
000002b0: 85ae e5ac c400 623e eac2 5639 648d 662a
000002c0: 2b50 a53e 24cd aa3e be36 973e 733c 9ebe
000002d0: 2f31 221e 5420 4732 56d0 983e c432 0631
000002e0: 2fd1 0180 ea78 351d 92bb 81b6 23dc 723e
000002f0: 206c a1b4 ec76 5c3e c646 873e ff03 ea2a
00000300: 7431 98ac d539 4d3e d04e cf39 83cd cf2a
00000310: 3873 893e d5fb 873e 6a72 793e 264b 85be
00000320: 7352 1f9e 8c60 df30 4dc4 8e3d 9411 73b1
00000330: ee21 0000 de77 1c9c 5a5d c0b5 1eab 3f3d
00000340: 96b6 f3b2 1aa8 503d 8aaf 3f3d 780a 3b29
00000350: 63f6 1aab 26e1 723d 2479 c138 f5fa ebab
00000360: 7a79 153d d144 6d3d 8da5 2e3d e79f 48bd
00000370: 73f9 a118 4cba a8a9 2632 89b8 c0b5 2d2b
00000380: d407 0000 983c 4f14 8269 06b1 3adb 6a38
00000390: 9500 102e 707a 0b38 54d1 5138 bbdc dba3
000003a0: ffe1 2c23 3c37 cab8 6eab e431 3ac4 c325
000003b0: b4f4 4e36 0440 f037 679b b5b7 54fb e8b8
000003c0: d382 0e9f 9fa7 9430 0b31 a83e 0edb 11b2
000003d0: d750 0100 6a5b 559d 164f 79b6 91e8 923e
000003e0: 2a9e 66b5 f63d 8c3e eae9 a43e e2f8 84a9
000003f0: cebf 9b2c 2f45 8b3e aaf3 1d3a 4d1d 9d2b
-3.5128266e-31 -5.890102e-17 -8.0275425e-11 -1.2018766e-17 9.767e-42 -3.4816525e-30 2.2934597e-15 -2.7699591e-11
4.7585388e-17 -8.940943e-11 -3.2817297e-11 2.5190218e-24 5.0676006e-22 -1.1617987e-10 -7.152948e-14 7.927962e-21
1.7147889e-12 -7.399353e-11 -2.4727513e-11 -7.245945e-10 -2.7421861e-21 7.379114e-10 0.04607295 -2.9376896e-09
-1.811e-41 -2.9250218e-22 -6.188236e-07 0.030111376 -1.4705421e-08 0.032743677 0.029844038 -2.5934041e-14
-4.1627953e-13 0.03826397 0.00011146579 4.919416e-13 0.023196474 0.037902705 0.027154151 -0.03210027
2.7581156e-28 8.674144e-18 -2.9402556e-09 1.2772099e-18 -1.2207e-41 -5.6795505e-31 -3.3968918e-15 2.6173106e-09
1.1800147e-14 -3.0453695e-10 -5.001356e-10 -3.8434326e-23 -4.155111e-11 -3.8849564e-09 3.980545e-13 -1.7992e-21
-4.0770923e-10 -1.4515832e-09 -4.560914e-10 -5.423386e-09 1.3896156e-20 7.4824985e-10 0.11881771 -5.5623786e-09
-3.9842e-41 -6.0105844e-22 -1.7355069e-07 0.076633684 5.0489365e-07 0.08399686 0.076453365 3.4233785e-14
-5.1611997e-13 0.09285814 0.00014270148 -3.1708902e-12 0.05918626 0.09759394 0.069660254 -0.07822725
1.3769979e-20 -1.4939799e-09 -0.044329617 1.0495719e-08 2.58688e-40 1.0860302e-21 8.447893e-08 -0.21833497
-2.7769515e-06 -0.035559494 -0.28977033 -2.2309498e-14 2.2564591e-12 0.20556824 -0.000112354835 1.23895e-11
-0.15299346 -0.09115802 -0.26654753 0.9590031 1.8385514e-20 1.7642231e-09 0.09581468 -3.4444625e-09
1.422e-41 -4.9426515e-22 4.5957722e-07 0.06227604 3.8579066e-07 0.06889508 0.06209971 3.1468338e-14
-8.118181e-13 0.07112181 0.0002678541 -1.367195e-12 0.048182473 0.07924909 0.05656187 -0.06440678
-9.823742e-20 -4.0542014e-12 0.31563246 8.760838e-09 4.6592e-41 -8.176463e-22 -6.6137327e-06 0.28394625
-1.2550609e-06 0.2802902 0.317982 2.8588053e-13 5.740242e-12 0.26793504 0.0004581001 -8.120171e-12
0.32198712 0.31248182 0.2931351 -0.29646635 2.1180955e-31 -1.2057337e-19 -2.459003e-11 -8.932281e-19
-2.166e-42 -1.8247782e-31 4.0701407e-16 -9.57937e-12 2.8107366e-17 -1.7865244e-11 -1.081038e-11 -8.743389e-24
-9.5059645e-23 -2.455963e-11 3.2364409e-15 -1.6683383e-22 -4.586047e-12 -1.9744865e-11 -2.5527537e-11 -7.154082e-11
6.312095e-21 1.0874373e-08 0.33010098 -4.4493333e-09 1.78015e-40 1.0273353e-21 2.7654748e-06 0.28771803
-3.726339e-07 0.28416944 0.32122955 -7.08752e-14 -6.527947e-12 0.22070605 0.00020481242 2.0477158e-13
0.32287726 0.33359635 0.29533952 -0.30905494 8.5863795e-21 1.1590675e-08 0.29846448 1.9528423e-09
-1.66876e-40 2.4017662e-21 -3.8663356e-06 0.23716788 -3.0067258e-07 0.2152974 0.26421183 4.1569523e-13
-4.3255902e-12 0.20041592 0.00039540837 3.691319e-13 0.26845717 0.2655932 0.24360052 -0.26033896
-8.43444e-21 1.6252826e-09 0.06971035 -3.5371146e-09 1.2172e-41 -5.1770995e-22 -1.4332284e-06 0.04679405
-2.8371954e-08 0.050941564 0.046798266 4.153142e-14 -5.505372e-13 0.05929675 9.225521e-05 -1.6767409e-12
0.036492802 0.057926957 0.04263835 -0.04898062 4.1869404e-24 -7.493016e-14 -6.54201e-05 6.1714175e-13
2.808e-42 1.0462779e-26 -1.955954e-09 5.5994118e-05 3.2742326e-11 3.325421e-05 5.0024435e-05 -2.383751e-17
9.371995e-18 -9.642399e-05 6.6551626e-09 3.3960076e-16 3.0838828e-06 2.864004e-05 -2.1649246e-05 -0.000111094356
-3.0177885e-20 1.0816058e-09 0.32849917 -8.489918e-09 1.20835e-40 -2.8237575e-21 -3.7149925e-06 0.2869306
-8.5911836e-07 0.27391022 0.32209712 -5.905152e-14 4.4266596e-12 0.2720122 0.00060253835 1.1163654e-12

conv2.bias f4 [20]
00000000: 797e 13ab e658 9ab3 921f 9e3c f24b a53d
00000010: e696 9cbe e350 583d e53f dcb5 50f6 533e
00000020: 73b3 392d bb70 2f3d fbcb b1ac ad0e 552a
00000030: ded1 aabe eef1 c7be 4892 c2af 53fc c9be
00000040: a9da a639 2098 3430 1ace 113e aa32 aeb9
-5.2400407e-13 -7.1873544e-08 0.019302163 0.08071126 -0.30583876 0.052811515 -1.6409873e-06 0.2069943
1.0555878e-11 0.042832118 -5.053289e-12 1.8923292e-13 -0.3336324 -0.39051765 -3.5392334e-10 -0.3945032
0.00031824902 6.56998e-10 0.14238778 -0.00033225614

conv2.lin.weight f4 [20, 20]
00000000: b257 9d9a c889 9da9 0688 321c 7d9e 08aa
00000010: 8deb 1cab aeab 14aa 3ff9 ada9 0aa2 8f98
00000020: 007f 7da9 1893 98a9 6b29 68a9 352b 88a3
00000030: f42c a2a9 73c7 aeaa c9c3 4da9 2c73 dd25
00000040: 4293 44a9 8695 82a8 00e4 f4a7 ea49 49a9
00000050: 7437 1ea4 fd00 8fb2 0f2b 9fa6 0d30 a531
00000060: 4799 56b4 4fa9 b0b2 2886 f232 ec0f 09a3
00000070: abb3 86b2 6fd9 9e32 bf37 a0b2 f19d 612b
00000080: c01b 1d33 70a6 fab2 50fd 9db1 c228 c5ab
00000090: 1d6c f432 e01b 00af 5845 2033 1ba6 8db1
000000a0: 4a2d dbae e401 7cbc eed9 4932 3820 21bd
000000b0: 6531 d53e 25f8 01bd b405 513e 7058 982c
000000c0: f44b 523e fb39 2f3e 46f0 c4bc ba9c aa38
000000d0: ccd1 583e 202f 0b3d e9e3 543e 6e37 26ba
000000e0: a8b4 4b3e 936b dbbb 5893 813e 9aba 383e
000000f0: 524f f1b0 dec2 323d 28a1 01b1 33c0 e53d
00000100: 80e9 f7bd b6f4 b93d cbd7 fc3e 2ccc 0c2e
00000110: 7c1c fe3e 5633 d33e e516 8c3d 116a c4b8
00000120: a593 013f 3114 613e 1b60 003f 7c26 cf39
00000130: 050f f53e d172 dbbc ecd9 1b3f f324 de3e
00000140: 50fa 772d ad7f 95bc b242 2e31 46df 3ebd
00000150: cdfe 053f bdd2 1bbd 5357 f6bd bb64 24ae
00000160: 329e fdbd a464 d0bd 770b e9bc ecfc 38b6
00000170: b107 ffbd d537 073d 5382 febd ce4d b0b9
00000180: 47b0 f0bd 546f c3bb 333b 17be f54d dabd
00000190: c4fd 66ae 73fa 69bb 7a60 5f31 0524 1cbc
000001a0: 9bbe 703c cf14 f7bb babf ea3d 34c6 432c
000001b0: ee65 ef3d 341f c73d d8dd bbbb 7ac5 78b7
000001c0: 627e f73d c018 a8bc d552 f23d b46b b7b8
000001d0: 62e7 e83d 30f8 ae3a 5961 123e 7b0a d33d
000001e0: 6a52 86a4 4607 4db4 5f0f 2828 c89a f2b4
000001f0: ac66 15b6 4b5a 4eb4 22a8 64b3 9af7 86a2
00000200: a0ef 52b4 7045 5db2 7a12 e0b3 220b e72d
00000210: 9e40 8ab4 7b2e 91b5 ec38 83b4 4023 bb2e
00000220: 20d9 4eb2 60b1 e0b3 bc3a 7ab4 0405 7932
00000230: 1b48 dfb0 2932 8a3d e90d 2bb1 fbe9 2f3e
00000240: cf0f 62be c04e 0f3e 2922 333f 6023 792d
00000250: f279 333f 4071 153f 0813 db3d 7f5c 82b8
00000260: 5012 373f fec3 8d3e 016e 353f 43a0 a63a
00000270: 138b 2d3f 4f12 bbbc 955e 5c3f 16c5 1c3f
00000280: 8ecc 551e 61e5 f32b f11c 6b9e 303b 8da8
00000290: 3de0 e72c 76e8 442c 9362 a22b a51e a01c
000002a0: 3ef6 062c 35a6 022b 7550 bf2b a484 a4a7
000002b0: 195f a22b 6646 0c2d 7879 102b c2cb 1328
000002c0: 174b b42b 7579 94a7 bf1d 622b 119a da2b
000002d0: 1a3b 98af cec5 67bc 2054 b831 043a 11bd
000002e0: 48c6 0a3f ccf0 eabc c64a 843e d4d1 f7ab
000002f0: 8812 853e 9921 5d3e ee2a b3bc 5ee2 57b8
00000300: e67b 883e 4cf2 ca3d ea93 863e 3e27 eab9
00000310: e4a7 803e 74bf a5bb 6298 a33e 136c 693e
00000320: 682a 9498 fdb4 d52a b8fc 671d 34dd 5d29
00000330: 4b31 efac 8e0b a82a e5fb 81aa f493 f218
00000340: d418 9baa 1a42 862a 029f b82a f469 4b24
00000350: c20f 292b 9308 28ac 24f7 fba9 4e7f d2a6
00000360: cc3a 0b2b 55d8 ae27 422d bc2a a801 ea2b
00000370: 1ac6 ef17 c028 2f27 4fc3 171c 2410 08aa
00000380: 504f 62aa 48ff dea9 3d16 8829 b671 1e98
00000390: 400b 452a f1a1 aba9 7840 f3a8 fa78 f924
000003a0: 1c6b cd29 1c70 c42a f4f3 6aaa 301c 5fa5
000003b0: e049 ed26 a43a 93a7 f268 8f29 76be 10aa
000003c0: 9557 c42d 5330 b0bc 4c88 83b0 5bf9 60bd
000003d0: 7169 243f da57 38bd f145 22be 9e36 ebad
000003e0: 683e 26be a2e7 08be 6a73 09bd 3e91 6237
000003f0: c9ae 27be bae4 4e3d f047 27be 6273 4e39
-6.507536e-23 -6.996102e-14 5.9071066e-22 -1.2134213e-13 -5.5749226e-13 -1.3204604e-13 -7.7259806e-14 -3.712825e-24
-5.628744e-14 -6.775673e-14 -5.1550273e-14 -1.4763448e-17 -7.202043e-14 -3.1047005e-13 -4.568896e-14 3.8415432e-16
-4.364847e-14 -1.4497745e-14 -6.7970803e-15 -4.4695076e-14 -3.430776e-17 -1.664784e-08 -1.1044512e-15 4.8075948e-09
-1.9986065e-07 -2.056609e-08 2.8233515e-08 -7.4301565e-18 -1.5681357e-08 1.8492498e-08 -1.8651802e-08 8.0155246e-13
3.657965e-08 -2.9179517e-08 -4.5980997e-09 -1.4009004e-12 2.8454503e-08 -1.1651435e-10 3.731597e-08 -4.122524e-09
-9.967012e-11 -0.01538131 1.1749291e-08 -0.039337367 0.41639248 -0.03173079 0.20412332 4.3299184e-12
0.20536786 0.17111962 -0.024040353 8.135424e-05 0.21173781 0.03398049 0.20790066 -0.0006340657
0.19893134 -0.0066961735 0.25307727 0.18039933 -1.7557602e-09 0.04364287 -1.8863577e-09 0.112183
-0.121050835 0.09079878 0.49383387 3.2013656e-11 0.49631107 0.41250104 0.06840304 -9.365765e-05
0.5061591 0.21980359 0.50146645 0.0003951079 0.47863021 -0.026788147 0.608794 0.43387565
1.4095905e-11 -0.018249357 2.5358244e-09 -0.04659965 0.5234192 -0.038042773 -0.120283745 -3.737875e-11
-0.12383689 -0.10175446 -0.02844785 -2.7565357e-06 -0.12452639 0.03301223 -0.12427201 -0.00033627305
-0.11752372 -0.005964199 -0.14768676 -0.106594004 -5.2521335e-11 -0.0035702258 3.2505612e-09 -0.009530072
0.014693881 -0.0075403224 0.1146235 2.7821192e-12 0.116893634 0.097227484 -0.005733233 -1.48279305e-05
0.120846525 -0.020519614 0.11832205 -8.746181e-05 0.11372258 0.0013349112 0.14294948 0.10304733
-5.825285e-17 -1.9094759e-07 9.3292065e-15 -4.518863e-07 -2.2262493e-06 -1.9218093e-07 -5.3238303e-08 -3.658293e-18
-1.9644949e-07 -1.2879681e-08 -1.0434174e-07 2.6266603e-11 -2.5751518e-07 -1.081687e-06 -2.4442068e-07 8.510037e-11
-1.2040147e-08 -1.0463077e-07 -2.3304432e-07 1.4494848e-08 -1.6245879e-09 0.067478485 -2.4891682e-09 0.171791
-0.22076343 0.13994884 0.69974 1.4161866e-11 0.7010795 0.5837593 0.10696989 -6.216112e-05
0.7151232 0.27688593 0.7087098 0.0012712557 0.67790335 -0.022835879 0.8608182 0.6123823
1.1318427e-20 1.7329854e-12 -1.2446781e-20 -1.5679813e-14 6.5903103e-12 2.7982317e-12 1.1538152e-12 1.0595833e-21
1.9179237e-12 4.6415936e-13 1.3593698e-12 -4.5662953e-15 1.1537187e-12 7.97371e-12 5.132765e-13 8.204322e-15
1.2810611e-12 -4.1209936e-15 8.033261e-13 1.5532594e-12 -2.7690633e-10 -0.014146281 5.3646687e-09 -0.03545572
0.54208803 -0.028679274 0.25838298 -1.7608645e-12 0.259907 0.21594848 -0.021871056 -5.1470815e-05
0.26657027 0.09909496 0.26284724 -0.00044661196 0.2512809 -0.0050582234 0.31952196 0.22795133
-3.8299923e-24 3.7961987e-13 3.0703248e-21 4.926372e-14 -6.798261e-12 2.9850813e-13 -2.308979e-13 6.270493e-24
-2.755076e-13 2.384905e-13 3.27953e-13 4.4108354e-17 6.006273e-13 -2.3878996e-12 -1.1189511e-13 -1.4606183e-15
4.9464317e-13 4.852925e-15 3.3426912e-13 1.662716e-12 1.5495021e-24 2.430822e-15 5.021414e-22 -1.2084826e-13
-2.010035e-13 -9.903065e-14 6.043471e-14 -2.047843e-24 1.7501018e-13 -7.622018e-14 -2.7006378e-14 1.0819148e-16
9.122409e-14 3.4894386e-13 -2.0868013e-13 -1.9351717e-16 1.6465202e-15 -4.0864274e-15 6.368681e-14 -1.2855849e-13
2.2321514e-11 -0.021507418 -9.570242e-10 -0.054925304 0.6422339 -0.045005657 -0.15846993 -2.6740662e-11
-0.16234744 -0.13369611 -0.033557333 1.3504467e-05 -0.16375269 0.0505111 -0.16336036 0.00019688674

conv3.bias f4 [20]
00000000: 755f 9fbc 6ada ffbe c327 993e dfe6 683f
00000010: 5a1d 543f 2f1e 1ebf c51c 243f de60 1d3f
00000020: 6ba9 223f e250 203f 91d0 e23d 6643 a9bf
00000030: 6534 02bd f095 1dbf 1092 1b3f 64d4 163f
00000040: 464e 6b3f d449 ffbe fcc9 fdbe c7f8 94bf
-0.019454697 -0.49971324 0.29913148 0.9097728 0.82857287 -0.61764807 0.641064 0.6147593
0.6353976 0.6262342 0.11074937 -1.3223693 -0.03178825 -0.6155691 0.6076975 0.5891783
0.9191631 -0.49861014 -0.49568164 -1.1638421

conv3.lin.weight f4 [20, 20]
00000000: 552a 72aa 7aaa a133 3fef 3d3e aed8 623e
00000010: 6c5c 0b3d 740c 893d 53b0 1cb5 a341 a03e
00000020: 4fa9 40ad f193 633e 5aed ac2c 47eb 3929
00000030: d61c 1d3d b282 483d 092e 3631 9e7d f23d
00000040: 82f3 0fb8 30db 892f 1572 bc3d 5eb4 90b9
00000050: 7346 912a acd5 d7b2 2cdb 3e3e 9473 4c3d
00000060: 01ff 3f3e 4fa0 c13c 1bd8 b435 e31a 5b3d
00000070: cf12 d8ad 7288 723e 3311 b02c 4b02 7caa
00000080: 2de0 663e 83df 823e 6c9c e3b0 b44b ab3e
00000090: e79a 10b9 f578 0e30 41f2 ee3b a4c2 2e38
000000a0: 2790 8229 c413 b0b2 69b6 1e3e b64a 8c3e
000000b0: 5d71 abbd 5d76 9b3d 2fc9 a633 727f c93e
000000c0: 4b27 09ad 6f5e 493e 9bd0 c3aa 80cc 5929
000000d0: 3dfb b0bd 1ea9 b8bd 5e59 17b1 b915 3cbc
000000e0: e60f 38b9 5365 bd2e 00c0 063e b0be 6b36
000000f0: 44e7 e1a7 d5a9 5133 97ee 493d 86fc 663e
00000100: 2e06 12be 20b9 4d3d 7005 1c32 cc56 a93e
00000110: 4263 f6aa 6ae1 8f3d 361c f42a 9fc0 f22a
00000120: 3849 2fbe 25a2 40be 920d c9b0 9adc 32be
00000130: dadd 35b8 a225 162f 90d7 d73d b0d0 48b7
00000140: 083f cc2a 3382 4933 1013 eb3d 7829 9f3e
00000150: bae0 56be 4651 c03d 18d7 c835 a42d ff3e
00000160: cb43 9d2c 42ef 103e caa3 f62b fa21 a4aa
00000170: b6c7 75be e950 8cbe 0231 5c31 00b0 7ebe
00000180: 8b67 ae38 acde a8af 06d6 363e b6e1 4ab9
00000190: 0ab9 86aa ef24 2233 10ce 303e 6b82 0f3c
000001a0: e123 6a3e c340 1a3c a50d 9cb5 ea08 0dbc
000001b0: 2aef 882b 4d9e 633e 2e3c 002d 8a15 59aa
000001c0: 6e72 8a3e 7416 9e3e 4cbe 17b2 9bb0 c23e
000001d0: b8dc 92b7 d0c7 fdaf 7b5d b5bc dd4d 1b3a
000001e0: ec01 fa29 6b1b a532 499f b13d 84bb 183e
000001f0: d098 92bd 704d 373d d56a c634 a91a 653e
00000200: 7c97 762c cf47 e83d 3c7c 29aa 3452 172a
00000210: b10c a5bd 290a b8bd 70ba 0cb0 d825 72bd
00000220: 3969 8138 0bf8 042f 4b65 aa3d 730b 6139
00000230: ae70 1caa 3181 02b3 907f 17be 8f8b dabe
00000240: 4e3e e73d 109f cebd 84dc 67b5 54d8 19bf
00000250: fcc5 8c2c b33e 32be 52d6 ae2b 7e80 172b
00000260: 0bad 203e d6ad 1e3e 08ab 7232 bb5c c23d
00000270: 372d b439 b4ab a030 2b61 26be 2495 dbb9
00000280: 6eb1 6aa9 4f69 37b4 eb8d 0abe 05fb e1be
00000290: 8307 fe3d 5dc6 c7bd 90dc 82b4 df25 1ebf
000002a0: c899 65ad c0de 1cbe 9874 f5aa b148 d0aa
000002b0: b824 2a3e 4b69 273e db78 12b2 9ea9 c63d
000002c0: 1208 e9b9 5221 85ae 73a3 25be 9027 673a
000002d0: 13d4 2eaa 346f 9cb3 1bfa 0abe a846 ddbe
000002e0: e37f 003e 5581 c5bd 72b9 54b5 a59b 1bbf
000002f0: 46c2 9c2c bb28 22be d0d0 ad2a 1711 e5aa
00000300: 926e 2e3e 07ae 2b3e a0f1 aab1 29c6 d63d
00000310: 3e36 27b8 8a8c 0d30 1fce 22be 7c7d 62ba
00000320: 399d 542a 7261 0ab3 542d 81bd 69dd d0be
00000330: 8c61 423e f186 b3bd e6cf 2634 503e 13bf
00000340: 74a0 72ab 03ec 45bd 4281 b52a 2cfe ab2a
00000350: 7470 793e 2013 843e 384f 2c32 7a8e 773e
00000360: 1e4a 3f39 2eb3 13b0 a819 22be f647 19ba
00000370: 7b40 9729 0505 b9b4 4a71 953e 68b3 163e
00000380: b67a 803e 7e6a 393d 5152 1435 e4da 3d3e
00000390: 524c f5ab c043 bf3e 78d2 f72a 6181 a72a
000003a0: d01f 9c3e cbf1 b03e ee83 c331 0385 ef3e
000003b0: 69a4 ac36 32c1 202f a756 063d a0e7 be38
000003c0: 3ec2 91aa 06fd c3b3 e7e3 3c3e 10f2 603e
000003d0: 1845 0a3d b630 843d fc4a 8ab5 4e3f 9e3e
000003e0: 040b 662c aeab 643e 717e d62a ac5c ac2a
000003f0: 16d5 1a3d 4839 473d 38ad 20ae ec35 f23d
-2.1508605e-13 7.528156e-08 0.18548296 0.22152969 0.034023687 0.06691828 -5.8371114e-07 0.31300077
-1.09515305e-11 0.22224404 4.9148853e-12 4.1282322e-14 0.03835758 0.048952766 2.6510654e-09 0.11840366
-3.432064e-05 2.5075897e-10 0.09201447 -0.00027600204 2.5806058e-13 -2.5126461e-08 0.18638295 0.04991491
0.1874962 0.023636011 1.347394e-06 0.053492438 -2.456471e-11 0.23684862 5.0041304e-12 -2.2382892e-13
0.22546454 0.2556115 -1.6560882e-09 0.33456194 -0.00013790616 5.183119e-10 0.0072920625 4.1666106e-05
5.798166e-14 -2.0498085e-08 0.15499271 0.2740075 -0.08371232 0.075909354 7.7665725e-08 0.39355046
-7.796273e-12 0.1966493 -3.4783707e-13 4.8361055e-14 -0.0864167 -0.090166315 -2.2024191e-09 -0.011479788
-0.0001755353 8.612724e-11 0.1315918 3.5128724e-06 -6.2700784e-15 4.8816066e-08 0.049299803 0.22557268
-0.1426017 0.050225377 9.0816314e-09 0.33074033 -4.3767252e-13 0.07025416 4.3362682e-13 4.3121493e-13
-0.17117774 -0.18811853 -1.4628532e-09 -0.17466965 -4.336038e-05 1.365579e-10 0.10539162 -1.1969518e-05
3.6281416e-13 4.6917375e-08 0.11478245 0.31086326 -0.20984164 0.09390502 1.4963762e-06 0.4983951
4.469735e-12 0.1415377 1.7524812e-12 -2.9155828e-13 -0.24001965 -0.2740548 3.2042071e-09 -0.24871826
8.316253e-05 -3.071724e-10 0.17855081 -0.00019348305 -2.3931578e-13 3.7752155e-08 0.17266107 0.008759121
0.22865249 0.009414854 -1.1626877e-06 -0.008608082 9.729763e-13 0.22228356 7.28932e-12 -1.9280945e-13
0.27040428 0.30876505 -8.832625e-09 0.38025364 -1.7507336e-05 -4.6162407e-10 -0.022139302 0.00059243833
1.11025636e-13 1.9220996e-08 0.08672959 0.14915282 -0.07158053 0.044751585 3.6958104e-07 0.22373451
3.5042793e-12 0.113418214 -1.5053318e-13 1.3440014e-13 -0.08059061 -0.08986313 -5.1196647e-10 -0.05911812
6.1707986e-05 1.2093453e-10 0.08320101 0.00021461937 -1.3894677e-13 -3.0385483e-08 -0.14794755 -0.426846
0.112911806 -0.100889325 -8.63751e-07 -0.60095716 4.00102e-12 -0.1740673 1.2422929e-12 5.3824295e-13
0.1569101 0.15496 1.4125142e-08 0.09490343 0.00034365963 1.1690333e-09 -0.16248004 -0.00041882053
-5.2112333e-14 -1.7081514e-07 -0.135307 -0.44136825 0.124037765 -0.09754632 -2.4374867e-07 -0.61776537
-1.3051289e-11 -0.15319347 -4.3601646e-13 -3.6998662e-13 0.1661557 0.1634876 -8.525798e-09 0.09700321
-0.00044447236 -6.0540586e-11 -0.16175632 0.0008817846 -1.5527883e-13 -7.284544e-08 -0.1357197 -0.4321797
0.12548785 -0.09643809 -7.924601e-07 -0.6078437 4.4553554e-12 -0.1583585 3.0875866e-13 -4.069043e-13
0.17034367 0.16765605 -4.9751208e-09 0.10487015 -3.986642e-05 5.149522e-10 -0.15898941 -0.00086399144
1.888393e-13 -3.2219255e-08 -0.06307474 -0.40793923 0.18982524 -0.087659724 1.5535588e-07 -0.57516956
-8.6198344e-13 -0.04832078 3.224175e-13 3.055207e-13 0.24359304 0.2579584 1.002973e-08 0.24175444
0.0001824279 -5.373292e-10 -0.158301 -0.000584721 6.7169326e-14 -3.4462587e-07 0.29187995 0.14716876
0.2509362 0.045267574 5.525408e-07 0.18540531 -1.742948e-12 0.37356377 4.4022056e-13 2.9754934e-13
0.3049302 0.34559473 5.6902456e-09 0.46781167 5.1451393e-06 1.4620552e-10 0.032797482 9.1030495e-05
-2.5891957e-13 -9.12642e-08 0.18446313 0.2196734 0.0337573 0.064546034 -1.0303625e-06 0.30907673
3.269108e-12 0.22331116 3.8101773e-13 3.0617642e-13 0.03780087 0.048638612 -3.6533637e-11 0.11826691

lens.0.weight f4 [4, 1, 20]
00000000: 2aaf cdbd 57f1 e8be 0354 5dbd f8d4 e6be
00000010: 4d3d c7bd 75ae e5be 9c5a e1be cea0 e5be
00000020: f340 e4be 35c2 e4be e8d9 e6be 24df 17be
00000030: 5fbc c2bd 5f14 e7be 9c81 e3be 47d1 e8be
00000040: 3c2e e7be ea74 e8be 55ae e7be 151f e73e
00000050: 36d3 4b3f 2812 4b3f 6612 2d3e 6741 42bf
00000060: 1cc8 45bf 8f2c 4b3f a0e3 d0bc 7948 49bf
00000070: 901d 4abf 805b 4abf f466 13bd f462 4b3f
00000080: 5ba6 483f 3697 4b3f 86ac afbc 70d0 4abf
00000090: 2f79 45bf 65a6 4b3f 18a4 4b3f bc5e 4bbf
000000a0: 5b6d 4c3f fa96 ddbd aa89 4e3f 48db 4e3f
000000b0: eb04 4e3f 8905 4dbf 7bf2 4e3f 79bf 413b
000000c0: a69f 913b d2a1 513b 813d 8dbd fcce 4dbf
000000d0: 1330 4c3f 142b 4cbf a00e 4f3f 2c67 4bbb
000000e0: faae 4d3f eb85 e0bd 201a e2bd d210 4e3f
000000f0: cb2f e9bd 832f c7bc 2491 03be 8e94 b3bd
00000100: 089f 17be 58c8 e8ba c1a1 60bd 88c8 8a3f
00000110: 95b8 8a3f 91a5 8a3f 77f8 893f e1e5 13be
00000120: f9cd eabd 0717 b73a 961e 96bd 668e 8a3f
00000130: d0c1 b4bd 2bdf c2bc fde6 bebc e6fc 613d
-0.100431755 -0.45496628 -0.054035198 -0.45084357 -0.09728489 -0.44859663 -0.44014442 -0.44849247
-0.44580802 -0.44679418 -0.45088124 -0.14831215 -0.09508585 -0.4513273 -0.44434822 -0.45472166
-0.45152462 -0.45401698 -0.45250192 0.451409 0.7961916 0.7932458 0.1690155 -0.75881046
-0.7725847 0.79364866 -0.025499165 -0.7862621 -0.7895136 -0.7904587 -0.035986856 0.79447865
0.7837884 0.79527605 -0.02144457 -0.792243 -0.77138036 0.7955077 0.7954726 -0.7944143
0.79854363 -0.10819812 0.8067881 0.80803347 0.80476254 -0.8008657 0.80838746 0.002956359
0.0044440804 0.0031987322 -0.068964966 -0.8039396 0.79760855 -0.7975323 0.8088169 -0.0031036837
0.8034512 -0.10963043 -0.11040139 0.80494416 -0.11386069 -0.024314648 -0.12848336 -0.08768569
-0.1480676 -0.0017759902 -0.05484176 1.0842447 1.083758 1.0831777 1.077895 -0.1444316
-0.114650674 0.0013968655 -0.073300526 1.0824707 -0.08826029 -0.023788055 -0.023303503 0.055172823

lens.0.bias f4 [4, 1, 1]
00000000: 74f9 20b6 bfd9 1b35 eab8 5735 2e63 53b5
-2.3987059e-06 5.805886e-07 8.0362827e-07 -7.874795e-07
