models/gcexplainer_bacommunity.pt (torch, 7375 bytes, 8 tensors)

conv1.bias f4 [20]
000000 8f b4 39 3e 5b e1 56 3f de ef ca be d2 0f 90 3f
       0.18135284 0.83937615 -0.3963613 1.1254828
000010 a1 6c b3 be a2 70 a2 bd b8 6f ae bd 5b cd 5d 3d
       -0.35043815 -0.07931639 -0.085174024 0.05415092
000020 4b 9b 0f 3e 13 09 3e bf 2f 4e 2b be de 4b 33 3f
       0.14024083 -0.74232596 -0.16729043 0.7003764
000030 36 26 c1 be 86 26 f5 3c d7 6a 32 bd 30 6b 83 bd
       -0.37724465 0.029925596 -0.04355892 -0.06416929
000040 27 01 62 3f 5e 18 fe bd 63 86 9a 3e 24 7d eb 3e
       0.8828301 -0.124069914 0.30180654 0.45993912

conv1.lin.weight f4 [20, 10]
000000 07 6e 64 3f 65 88 2c 3f ad 9a f0 3d 18 6e c3 bd
       0.8923039 0.6739562 0.11748252 -0.09542483
000010 4e af 0c bd d5 4c 03 3d c7 ae 9d be 22 e5 14 be
       -0.03434687 0.032055695 -0.30797407 -0.14540532
000020 1f 70 30 be d8 a2 dd be 99 cc 8b 3e eb ab 21 3e
       -0.17230271 -0.43288302 0.27304533 0.15788238
000030 2e fc 68 3e 3b 3c 30 bc 2b 15 e7 3e 17 48 33 3e
       0.22752449 -0.010756548 0.45133337 0.17507969
000040 56 4a a0 3d b4 fd bc be 0b ed ae 3d 62 7c 3d be
       0.078266785 -0.3691231 0.08541306 -0.1850448
000050 df e1 54 be d0 df c9 3e 74 71 93 be 15 12 9e be
       -0.20789288 0.39428568 -0.28797495 -0.3087317
000060 af 58 b9 bc 16 55 27 3f e4 a9 a0 be a3 ba 4b be
       -0.022625295 0.65364206 -0.31379616 -0.19895415
000070 bf fd c0 3b f2 81 b1 be bb f0 ef be 74 ef 82 bd
       0.005889624 -0.34669453 -0.4686335 -0.06393328
000080 b4 0f a8 3e c7 94 ef bc 3f 38 b4 be 32 b1 a7 be
       0.3282448 -0.029245747 -0.35199162 -0.32752377
000090 cd 22 a4 3d c5 cc 73 3d 9f 33 7d 3d 9e ba 8c bd
       0.0801445 0.059521455 0.061816808 -0.06871532
0000a0 b4 45 12 3f e5 91 20 3e dd 6e 26 3f 96 00 ac be
       0.5713761 0.15680654 0.65012914 -0.33594197
0000b0 76 51 1b be 1c 4c 06 be e8 d8 89 be 1b ff 9b be
       -0.15167794 -0.13114971 -0.269233 -0.30468068
0000c0 cb d9 56 bd eb d1 d5 3e b3 77 3d 3d ef b2 1a 3e
       -0.052453797 0.41761717 0.046256732 0.1510732
0000d0 2c 89 e9 bd 8d f9 d0 3a ba b4 e7 3e 3c 41 f4 bd
       -0.114031166 0.0015943513 0.4525507 -0.11926505
0000e0 11 dd 31 be 56 30 df be 2e 6d 8a be f2 08 90 bd
       -0.17369486 -0.43591565 -0.27036422 -0.07032956
0000f0 89 56 4c be 8c 59 f8 3e 27 5f c6 3d f9 d0 85 3e
       -0.19954886 0.4850582 0.096861176 0.26135996
000100 a4 e8 7e 3e d2 a8 0e bd 42 63 fe 3c 5b b9 03 3f
       0.24893433 -0.03482897 0.03105319 0.51454705
000110 37 40 eb bd 12 b2 23 bf 45 bc c2 3e 10 a3 ec bd
       -0.114868574 -0.6394359 0.38034263 -0.11554539
000120 e0 66 6a be 4e a3 c2 3e 67 16 d5 be d6 d6 a7 be
       -0.22890806 0.38015217 -0.41618654 -0.32781094
000130 d9 44 2c 3e f8 fa 17 bd 54 73 c6 3d 92 df a3 bd
       0.16823138 -0.037104577 0.09689966 -0.08001627
000140 c2 f5 16 3d 83 4c 47 3e 75 91 fb be 1c ea 8d 3e
       0.036855467 0.1946278 -0.49134412 0.27717674
000150 11 05 96 3e 47 77 d9 3d aa ae 8f 3e f5 48 d4 3e
       0.2930074 0.106184535 0.28062946 0.41461912
000160 0f fb f6 bd f1 08 34 be 63 b7 dd be 7a f2 cc be
       -0.120596044 -0.17581536 -0.43303975 -0.40028745
000170 d1 30 6b 3d ba 5f cf bb 47 73 04 be 78 0c 88 3e
       0.0574196 -0.00632855 -0.129346 0.26572013
000180 ab 93 66 3d 63 c7 31 be 89 88 09 be 7a 54 d5 3d
       0.05629317 -0.17361216 -0.1343099 0.10416503
000190 5e 66 f7 3d 39 36 ea 3e 5d 31 ce 3e 0b 7c eb 3e
       0.12080072 0.45744494 0.40272036 0.45993075
0001a0 1f b1 bd 3e 64 23 9e 3e e4 ea b1 3e 50 79 c9 be
       0.37049195 0.30886376 0.3474952 -0.39350367
0001b0 8d 9c 29 3d df a6 bb bc 2f e9 0a 3f 07 56 47 3e
       0.041409064 -0.022906719 0.5426206 0.1946641
0001c0 c7 18 29 3e 6f 23 0a bd 30 12 d0 bd 56 9f cd bd
       0.16513358 -0.0337252 -0.10159719 -0.100401565
0001d0 f3 dc 4d be a7 6d 24 3e 19 fa ad 3c 82 cc 7c bd
       -0.20103817 0.16057454 0.02123742 -0.06171847
0001e0 b2 de 45 be 68 e5 8d be 06 a2 4f 3d 93 34 03 be
       -0.19323233 -0.27714086 0.050691627 -0.12813024
0001f0 18 58 86 39 f3 46 aa be 15 02 0c be a4 86 eb bd
       0.00025624107 -0.33257255 -0.13672669 -0.1150029
000200 f8 8a 2d 3e 6e d1 99 3d 5b 2f 39 3d 2e 8e dc 3c
       0.16947544 0.07510649 0.045211177 0.026923265
000210 a5 d1 a3 be de a7 3d be 98 75 6a be 0b b3 85 3d
       -0.31995884 -0.18521068 -0.22896421 0.0652829
000220 f1 ce ad 3e 61 05 15 3f e6 34 01 bf 88 b2 22 3d
       0.33946946 0.5821133 -0.5047134 0.039721042
000230 83 e9 cf 3e 45 c5 93 bb a5 72 b8 bd bf aa 83 be
       0.40607843 -0.0045096003 -0.09006242 -0.25716206
000240 d3 60 b6 3e 09 c2 2d be ba bc be 3e 60 29 84 be
       0.35620746 -0.1696855 0.37253362 -0.25812817
000250 5d af 28 3e d0 fe ac 3d 0a 8f a9 3e a7 25 45 be
       0.16473146 0.08447039 0.33116943 -0.19252644
000260 93 46 56 be 8f 98 6e bd 5d fd 7c 3c ba f2 d6 3e
       -0.2092536 -0.05825096 0.015441266 0.4198206
000270 b0 ff 93 be cd 5a 93 3d bf 41 67 3d 1d 8c 83 3b
       -0.28906012 0.07195053 0.056459185 0.0040145055
000280 7a 18 08 3e 10 b0 11 be f9 59 fa be db 15 1a bb
       0.13290587 -0.14227319 -0.4889677 -0.0023511562
000290 14 3c 2f 3e 42 af d2 3e 02 4d ad bd 1a da 7c bc
       0.17112762 0.41149336 -0.08461954 -0.015432859
0002a0 d1 d4 f7 bd dc f2 7e 3e d7 db 15 bf c6 29 00 3f
       -0.121011384 0.24897331 -0.58538574 0.5006374
0002b0 ac 20 93 3e 74 d3 4b 3d d7 ed 93 3e e3 d7 12 be
       0.28735864 0.049762204 0.28892395 -0.14340167
0002c0 92 c6 95 bd d5 7d 7e bd 0b bb 5c 3e 8f 15 93 3e
       -0.07313265 -0.06213172 0.21555726 0.28727385
0002d0 38 22 59 3f ed c9 5b 3f cb 0d f1 3e 73 69 0c 3d
       0.8481784 0.8585499 0.47080836 0.03428025
0002e0 12 05 5b bd ee 82 0b 3d 47 64 42 3d 01 f3 41 be
       -0.053471632 0.03406041 0.047458913 -0.18940355
0002f0 a0 3e aa bd 47 17 c6 3e 7d 25 49 3f e8 06 60 3f
       -0.08312726 0.38689634 0.7857283 0.8751054
000300 33 d2 d5 3e a5 ba 54 be 39 d1 62 be af b5 b4 bd
       0.41761932 -0.20774324 -0.22150125 -0.08823716
000310 5d b6 94 3e 71 16 6b be 31 7a d2 bd 1c 12 ff 3d
       0.29045382 -0.2295778 -0.102772124 0.12454626

conv2.bias f4 [20]
000000 20 32 9d 3d cd ef 82 bf 43 47 71 bd d0 bc 80 bf
       0.07675576 -1.0229431 -0.05890585 -1.0057621
000010 8b a6 53 bd 73 41 82 bd ba 2c 92 bd 71 7e 78 bf
       -0.0516725 -0.0636014 -0.07137437 -0.97067934
000020 70 0a 52 bd 71 75 81 bf 73 3b a3 bd 9a d0 82 bd
       -0.051279485 -1.0113965 -0.079703234 -0.06387444
000030 c5 45 c3 3d da d7 85 bf b1 8c 84 bf ab 40 9d 3d
       0.09534792 -1.0456498 -1.0355436 0.0767835
000040 4f 66 e0 bd ee ec 81 bf 27 60 0d bd 9e c6 92 be
       -0.10957014 -1.015043 -0.034515526 -0.28667158

conv2.lin.weight f4 [20, 20]
000000 7b 50 f1 3e c3 f4 57 3d 65 79 08 be ab 38 b0 bd
       0.47131714 0.052723657 -0.13327558 -0.086045586
000010 dd a3 1a 3d 9a 3d af 3d cb e8 c8 bd 12 9f 1f bc
       0.03775393 0.085566714 -0.09810027 -0.009742515
000020 ee d4 86 bd 0e 06 0c 3d b1 08 29 3e 8b 13 f3 3d
       -0.06583582 0.03418546 0.16507222 0.11868962
000030 0e 27 ce bc c4 76 28 3e 66 b5 df bc 83 ac d3 bc
       -0.025165107 0.16451555 -0.027308177 -0.025839096
000040 2c 36 56 bd e7 40 41 bd 7d 3b 06 3f ca 72 1c 3f
       -0.052297756 -0.047181036 0.5243452 0.61112654
000050 34 5a e7 3d 60 9a c7 3e 09 00 82 be 75 4f 02 3f
       0.11296502 0.38984966 -0.25390652 0.5090249
000060 85 8e ad be 4d 7f c8 bd 10 51 71 be 61 d2 1b be
       -0.33897796 -0.09789906 -0.23566079 -0.15216972
000070 8d 07 7f 3e 62 1d aa be a0 f7 68 be df 56 d5 3d
       0.24905224 -0.33225542 -0.22750711 0.1041696
000080 56 ca 2b be 4e 73 40 be 7f 3a 50 be ee 8e 29 be
       -0.16776404 -0.18793985 -0.20334814 -0.1655843
000090 f8 91 d7 3e 9f 5b 4f be a3 23 28 3e e0 3d f0 ba
       0.42103553 -0.20249794 0.16419844 -0.0018328987
0000a0 f5 c2 bc 3e a8 50 fb bd bd 42 11 3d 92 7d 1b bd
       0.3686749 -0.12271243 0.035464037 -0.03796155
0000b0 f5 f2 07 3d 0f 31 30 3e c0 d9 fb 3d 18 5a a9 3d
       0.033190686 0.17206214 0.12297392 0.08269137
0000c0 ba be 71 bb 3b ee a1 3d eb e7 37 3e e1 63 21 3e
       -0.0036887364 0.07906767 0.17959563 0.15760757
0000d0 63 da e0 3d 82 ac 9a 3d 40 a8 78 3d a6 b7 16 3e
       0.10979154 0.075524345 0.06070733 0.14718494
0000e0 bc a9 08 bc b8 91 cf 3d 1f a6 fb 3e ae dc 0d 3f
       -0.008341249 0.101352155 0.49150178 0.55414855
0000f0 61 9c f4 3d 00 3e c9 3e 13 cb 7d be 7c a3 03 3f
       0.119438894 0.39305115 -0.24784498 0.5142133
000100 90 04 a9 be 0f 5f aa bd 27 fe 76 be a2 82 26 be
       -0.33011293 -0.08318912 -0.24120389 -0.1626077
000110 2d 1a 7c 3e 6e 0c a8 be 74 88 79 be 2f 58 c6 3d
       0.2461936 -0.32821983 -0.24368459 0.096847884
000120 37 00 31 be 57 21 40 be 3d b4 39 be 58 5c 2a be
       -0.17285238 -0.18762718 -0.18135162 -0.16636789
000130 b7 7a cd 3e 04 83 59 be 65 20 26 3e 58 72 ef 39
       0.40132686 -0.21241385 0.16223295 0.00045670825
000140 26 76 cb 3e 4f 7b 10 be 40 d4 95 3d 72 6e 9f bb
       0.39738578 -0.14109538 0.07315874 -0.004865461
000150 b5 c2 40 3d 80 95 2d 3e 3a 49 ec 3d 7e 7f 29 3d
       0.047060687 0.16951561 0.11537404 0.04138135
000160 61 7f 6d bc 4c 5d 8c 3d 4d fc 4c 3e bd 26 12 3e
       -0.0144957015 0.068537325 0.2001812 0.1427259
000170 29 7f 0a 3e 44 96 ec 3d 73 25 72 3d 8e 00 20 3e
       0.1352507 0.115520984 0.059117746 0.15625212
000180 0e 27 78 bc b5 60 10 3e 44 11 e8 3e 51 3a 0e 3f
       -0.01514603 0.14099391 0.45325673 0.55557734
000190 de 1e 8c be e9 07 f6 bd 38 50 b7 3e 36 97 fd 3c
       -0.273673 -0.120132275 0.3580339 0.030955892
0001a0 a3 de ac 3e be 82 7e 3e 7c 15 99 3e 88 cb 94 3e
       0.33763608 0.24854562 0.29899204 0.29061532
0001b0 59 63 63 be b6 4a 14 3e fe eb 70 3e 5a 7c bb 3e
       -0.22205867 0.14481625 0.23527524 0.3661831
0001c0 a4 23 0b 3e 22 97 ad 3e d9 e3 8a 3e f2 8a 22 3e
       0.13587815 0.33904368 0.2712696 0.15873316
0001d0 47 21 ea bc bd db 9f 3e 6e 0c 47 be 41 b2 9c bc
       -0.028580321 0.31222335 -0.19438335 -0.019127967
0001e0 af dd 85 be 62 f0 d0 bd 30 3f b8 3e 53 d2 cd 3c
       -0.26145694 -0.102020994 0.35985708 0.025124704
0001f0 e3 39 a3 3e 65 aa 79 3e 6c 2f a6 3e f6 6a 95 3e
       0.31880102 0.24381407 0.32458055 0.29183167
000200 25 6d 6c be a1 9d 0b 3e bc 1c 64 3e 0e 68 bf 3e
       -0.2308851 0.1363435 0.22276586 0.37384075
000210 29 2e ff 3d 7c 2d a4 3e 4f b9 83 3e 29 60 24 3e
       0.12459976 0.32065952 0.25727317 0.16052307
000220 21 33 f2 bc 90 88 8f 3e 4f a0 57 be ed 8d d6 bc
       -0.029565396 0.28033876 -0.21057247 -0.026190722
000230 bf 85 dc 3d 70 9f c7 3e b1 06 6e be 1e 58 00 3f
       0.107676975 0.3898883 -0.2324474 0.50134456
000240 06 7e ae be de af d7 bd 80 4d 7c be 6f d9 22 be
       -0.34080523 -0.10531591 -0.24638939 -0.15903257
000250 0e d3 74 3e 27 d3 9a be 33 1d 64 be c1 6f b6 3d
       0.23908636 -0.3023922 -0.22276764 0.08908034
000260 20 0a 31 be 95 42 44 be af ad 27 be 54 1e 1b be
       -0.17289019 -0.19166024 -0.16374849 -0.15148288
000270 5d 6c cb 3e ca 86 55 be 2e 7d 22 3e 2f 3d ba 3b
       0.39731112 -0.20852199 0.15868065 0.005683563
000280 f8 03 8c be 58 d6 ce bd fb 24 b0 3e 32 6c 26 3d
       -0.27346778 -0.100994766 0.34403214 0.040630527
000290 6e 23 a2 3e 28 e1 6d 3e 5c c1 a6 3e c3 a9 8e 3e
       0.31667656 0.23230422 0.32569396 0.27863893
0002a0 04 d9 82 be 29 4e 1e 3e a9 88 6f 3e 58 44 bc 3e
       -0.25556195 0.15459503 0.23391975 0.36770892
0002b0 d5 a3 14 3e 5a aa 9f 3e c3 38 6b 3e 41 5c 12 3e
       0.14515622 0.31184655 0.22970872 0.14293005
0002c0 b6 46 4e bd 4e ef 9c 3e 27 fd 42 be de 9f 42 bc
       -0.050360404 0.30651325 -0.19041882 -0.011878936
0002d0 de 99 e0 3d ac a2 c8 3e 5c 9d 7b be 40 83 04 3f
       0.10966848 0.3918661 -0.24571747 0.5176277
0002e0 43 45 a4 be 6c f9 9d bd 2d f0 76 be 6c 6d 13 be
       -0.32084092 -0.07713589 -0.24115057 -0.1439721
0002f0 98 e5 77 3e 97 9c a1 be e4 7b 77 be 28 f8 c6 3d
       0.24208677 -0.3156478 -0.24168354 0.09715301
000300 42 61 2f be 45 89 33 be 2b 28 4a be 85 ff 1f be
       -0.17126945 -0.17532833 -0.19741885 -0.15624817
000310 b5 39 ce 3e 7b 6b 51 be 90 76 22 3e ca 04 eb bb
       0.40278402 -0.20451157 0.1586554 -0.0071722018
000320 a9 e5 85 be b8 ca e7 bd 90 6c ae 3e 82 de 62 3d
       -0.2615178 -0.113179624 0.34067202 0.05538798
000330 db bc a7 3e 25 d3 7b 3e bb 68 ad 3e ea 14 9e 3e
       0.32761273 0.24592264 0.33868966 0.3087533
000340 de 0a 7d be f1 9d 37 3e fe da 6a 3e 7f 44 ba 3e
       -0.24711177 0.17931344 0.22935101 0.36380383
000350 14 c5 05 3e b9 12 a1 3e fb c3 7f 3e aa 29 16 3e
       0.1306346 0.31459597 0.24977104 0.14664331
000360 8e b1 fc bc 4d a1 9f 3e 34 44 52 be de 28 97 bc
       -0.030846383 0.3117775 -0.2053383 -0.018452104
000370 3e d5 86 be 42 9d f6 bd d5 e3 af 3e e6 c7 cd 3c
       -0.26334566 -0.12041713 0.3435351 0.025119733
000380 fe 2e ad 3e fe 1d 79 3e a9 21 a3 3e 86 a1 94 3e
       0.33824915 0.24327847 0.31861618 0.29029483
000390 76 17 64 be b7 a7 44 3e a0 56 67 3e 1c bb b4 3e
       -0.22274575 0.19204603 0.22591639 0.35299003
0003a0 4a d3 08 3e 05 29 a3 3e 9a 88 6c 3e 8b 74 0d 3e
       0.1336185 0.31867233 0.23098984 0.13813989
0003b0 b0 5e e9 bc 5e 16 a2 3e 2f d4 42 be 76 e2 95 bc
       -0.028487533 0.3165769 -0.19026254 -0.018296462
0003c0 e5 ea ec 3e 08 a2 3d 3d b1 01 34 be d6 75 ba bd
       0.4627296 0.046297103 -0.1757877 -0.09104507
0003d0 4f 15 20 3d 3b 9b 8b 3d 83 26 cc bd 97 c2 14 bd
       0.03908282 0.06816717 -0.09968283 -0.036318388
0003e0 ca 22 91 bd f6 c6 37 3d 3f ba 16 3e ca 01 1c 3e
       -0.070867136 0.04486748 0.14719485 0.15235057
0003f0 a8 e2 82 bc 9f 1f 15 3e 8e 28 6e 3a 2f 49 4b bd
       -0.015977219 0.14562844 0.00090850226 -0.04963034

conv3.bias f4 [20]
000000 77 9a dc be 67 b4 b1 3e d6 0e 80 3e b0 5c a0 bf
       -0.43086597 0.3470795 0.2501132 -1.2528286
000010 ae 78 89 bd 4f be 6c 3f 98 6d 45 bf 63 3a 06 3f
       -0.06712471 0.9247789 -0.7712035 0.5243284
000020 89 df 04 3e 45 68 fe 3e 95 a7 b8 bc d2 56 8e be
       0.12975897 0.49688926 -0.022540847 -0.27800614
000030 c2 f1 cb bd bf af e7 be 24 21 86 be 49 23 0b 3f
       -0.09958221 -0.4525127 -0.2619716 0.54350716
000040 dc 6e 9f 3e 95 38 12 bf 1f df ad be cb ae 45 3f
       0.31139266 -0.5711759 -0.3395929 0.7721984

conv3.lin.weight f4 [20, 20]
000000 de 21 07 be 2d 83 da bd 89 03 bb 3d e5 d3 e9 bd
       -0.13196513 -0.10669551 0.09131534 -0.11417369
000010 06 0c d0 3d 76 9e a3 bc 86 ea 95 bc 52 e3 cd bd
       0.10158543 -0.019973021 -0.018300306 -0.100531235
000020 7d a7 15 bc b2 75 f2 bd 66 c1 66 3c 49 ad 81 3c
       -0.009134171 -0.11838855 0.014084196 0.0158297
000030 01 2c 04 be af df c9 bd 8d 2c a7 bd 71 3c f4 bd
       -0.12907411 -0.098571174 -0.08162794 -0.11925591
000040 72 56 f1 3e 5e 9d 09 be 9f f7 9f 3d f1 27 0e 3f
       0.47136265 -0.13438937 0.07810902 0.55529696
000050 dc ad e5 be 99 88 d0 3c 19 87 92 be 98 1a c0 3a
       -0.44859207 0.02545576 -0.28618696 0.0014656363
000060 f7 89 8d be ad db 29 3e 98 89 1c 3e a7 ff 76 3d
       -0.2764432 0.16587706 0.15286863 0.060302403
000070 e3 02 3e 3e b0 24 af 3c c6 fc 38 3e de 9b 2b 3e
       0.18555789 0.021379799 0.18065175 0.16758677
000080 ba c3 e8 be 64 09 39 3d bf 6f fe 3c be a1 e8 be
       -0.45461828 0.04517497 0.031059144 -0.454359
000090 19 a7 af 3e 24 02 7b 3c 68 78 9f be a3 07 e0 3d
       0.34307173 0.015320335 -0.3114655 0.109389566
0000a0 3d c3 78 3d 3b ad b3 3e 9a 2d c1 bd 81 17 bb 3e
       0.06073307 0.35093102 -0.09432526 0.3654137
0000b0 47 bb a6 bd 90 7d 88 be 54 43 85 be f4 64 aa 3e
       -0.08141189 -0.26658297 -0.2602793 0.33280146
0000c0 4f a1 83 be 39 33 b0 3e fa 76 94 be 21 00 8d be
       -0.25709006 0.3441408 -0.28997022 -0.2753916
0000d0 91 82 6b 3d bb f7 af 3e bb cc af 3e 2c 23 5b 3d
       0.057497565 0.3436869 0.34335884 0.05350034
0000e0 22 2d d6 be 48 32 be 3e 36 9f 95 bd 24 1d b5 be
       -0.4183131 0.37147737 -0.07305758 -0.35373795
0000f0 3f 52 9c bd f5 0f 11 3f 00 7f 82 bb 33 1d 0e 3f
       -0.07632875 0.56664973 -0.0039824247 0.55513304
000100 4b c1 13 bc 77 52 a9 3e 9f a9 a8 3e 5f 69 0a 3f
       -0.009018253 0.33070728 0.3294191 0.54067034
000110 79 29 9f 3e 29 de 15 3f e2 30 b0 3e 51 ad 9e 3e
       0.3108633 0.58542114 0.34412295 0.30991605
000120 25 01 ab bd ac 39 14 3f b4 94 0f 3f f5 11 9d bd
       -0.08349828 0.579005 0.5608628 -0.07669441
000130 74 b9 2e 3e ec 94 17 3f 29 31 3c bc 67 60 5f 3e
       0.17062932 0.5921161 -0.01148633 0.21814118
000140 5e df 78 be 52 16 8e 3e 8c 26 72 be 5c 66 86 3e
       -0.24303958 0.27751404 -0.23647517 0.2624997
000150 fe 3b 79 be 39 ac 24 3e 5c 84 1f 3e 71 14 8a 3e
       -0.24339291 0.16081323 0.15577835 0.2696872
000160 8c 7f 1b 3e de 6e 8d 3e cc 80 24 3e b9 59 13 3e
       0.15185374 0.27623647 0.16064757 0.14389695
000170 7c 9a 82 be 67 d3 91 3e 36 ea 84 3e b8 67 80 be
       -0.25508487 0.284816 0.2595994 -0.2507913
000180 05 60 78 3d 48 ff 96 3e 70 e0 79 be 01 c3 6f bd
       0.060638446 0.2949164 -0.24402022 -0.05853558
000190 fb 68 c8 3d af 14 f3 be 0e 82 93 3d 21 1b f4 be
       0.097856484 -0.47476718 0.0720254 -0.47676948
0001a0 84 82 8b 3d 4c 29 bd 3e 83 92 b9 3e fb 53 ea be
       0.06812003 0.3694557 0.36244592 -0.45767197
0001b0 5e 29 c0 3e a3 bf ef be e0 f5 b6 3e b9 47 b5 3e
       0.3753156 -0.46825895 0.35734463 0.35406283
0001c0 8b 4a e7 3d 05 a2 ff be 43 70 ff be 0a 7a ce 3d
       0.11293515 -0.499283 -0.49890336 0.10081871
0001d0 e7 81 69 bc c5 e0 f2 be a6 b1 98 3d cb 11 bd be
       -0.014252163 -0.4743711 0.07455759 -0.36927637
0001e0 87 96 d1 3d 1b ce af 3e d2 39 bc bc 4e ac b4 3e
       0.10233789 0.34336933 -0.02297679 0.35287708
0001f0 ff 7c a2 bc 9d f3 1b bf 4c 77 16 bf 65 e9 a6 3e
       -0.019834993 -0.609186 -0.5877578 0.3259994
000200 6f 53 1e bf f0 71 ab 3e 6a e4 1f bf 8e 0d 13 bf
       -0.6184606 0.33485365 -0.6245791 -0.5744256
000210 c1 bf be 3d 97 25 bc 3e e6 11 bc 3e be b5 d7 3d
       0.09313918 0.3674743 0.36732405 0.105327114
000220 b8 d3 a3 be c1 d6 b0 3e 62 69 90 bc 9d fc 3e 3e
       -0.31997466 0.34538844 -0.017628375 0.18651052
000230 6d ad 9d be 8f e3 3b 3c 0d 13 b0 be 9d 0d 9c 3c
       -0.30796376 0.011467828 -0.34389535 0.01904946
000240 2a 7a ab be 76 ec f7 bd 72 78 fb bd f2 61 90 3c
       -0.3349164 -0.12105648 -0.122788325 0.017624829
000250 ec 64 d9 bd c9 d7 f3 3b bc ff 0f be 1b d4 f0 bd
       -0.106149524 0.007441495 -0.14062399 -0.11759206
000260 0a 12 a3 be f1 eb a9 3c 4f 72 1b 3d dd a0 a0 be
       -0.318497 0.020742388 0.03795081 -0.3137273
000270 4a 58 2d bd ed d3 04 3d bd 7b af be 96 09 af bd
       -0.042320527 0.03242867 -0.34274092 -0.0854675
000280 23 04 04 be 5e 24 6f 3e e7 cf 2e be e4 de 79 3e
       -0.12892203 0.23353717 -0.17071496 0.24401432
000290 40 84 23 be e9 77 9f be 4f 67 9c be 86 3e 69 3e
       -0.15968418 -0.31146172 -0.30547568 0.22777757
0002a0 76 ad 94 be 10 eb 63 3e 9f b5 a8 be 95 5a 96 be
       -0.2903859 0.22257638 -0.32951066 -0.29365984
0002b0 fa 79 10 be 2a 27 75 3e 08 3c 81 3e 61 f4 07 be
       -0.1410903 0.23940721 0.25241113 -0.13276817
0002c0 5a dd 05 be 72 b6 73 3e 5c eb 28 be 95 28 a1 bc
       -0.1307272 0.23800066 -0.16496032 -0.019672671
0002d0 b7 bb d9 be 8b ab ad bd 72 a7 c0 be a8 ef bf bd
       -0.42526028 -0.08479985 -0.3762775 -0.09371883
0002e0 a8 d0 c2 be f2 fe 9d 3d c0 d1 86 3d cb 9b 7a bd
       -0.38049817 0.077146426 0.065829754 -0.061183732
0002f0 12 32 b8 3d 3b 61 b1 bd 3b 87 92 3d 89 4f 92 3d
       0.08993925 -0.08661123 0.071546994 0.071440764
000300 c0 ea dc be 08 4d 8c bd 88 41 86 bd ef 60 dc be
       -0.4314785 -0.0685063 -0.06555468 -0.43042704
000310 48 42 14 3e d3 02 93 bd 92 13 ca be 1d bd 0a bc
       0.1447841 -0.07178273 -0.39468056 -0.00846794
000320 23 e8 5b bd 1b 00 79 3f 74 77 98 3d 92 54 76 3f
       -0.05368818 0.97265786 0.07444659 0.96222794
000330 c1 e9 bf 3d 79 6e 34 be 09 e5 2f be 39 39 73 3f
       0.09370757 -0.17620267 -0.17177214 0.9500919
000340 90 a4 17 be cb 8b 70 3f b9 9c 2b be 78 1f 28 be
       -0.1480887 0.9396331 -0.16759004 -0.16418254
000350 a2 a5 61 bd 78 08 74 3f cf b1 71 3f ca d6 74 bd
       -0.0550896 0.9532542 0.9441194 -0.05977515
000360 2f 4d a3 3b 8b 6f 72 3f 9e aa ac 3d 2a 30 34 be
       0.0049835662 0.9470145 0.0843098 -0.17596498
000370 43 03 82 3e c7 ca 42 3e e5 af 01 3e b9 6b 53 3e
       0.25393113 0.19022666 0.12664755 0.20646562
000380 33 f8 04 3e 0d 4f 43 be ae 83 37 be 38 e4 23 3e
       0.12985305 -0.19073124 -0.17921326 0.16005027
000390 77 c5 53 be 38 48 3e 3e cd db 5d be f1 73 40 be
       -0.20680796 0.18582237 -0.21665879 -0.18794228
0003a0 db 13 7c 3e b7 31 38 3e fa a6 38 3e 4c 16 80 3e
       0.2461695 0.17987715 0.18032447 0.2501701
0003b0 7b aa 96 be e1 68 50 3e a9 4b 13 3e 02 94 03 be
       -0.2942694 0.20352508 0.14384331 -0.12849429
0003c0 ce a3 4a 3d 6b 91 f9 bd b8 b0 4a 3c f9 09 01 be
       0.049472623 -0.121859394 0.012371235 -0.1260146
0003d0 fa 50 b5 ba 86 aa f6 3d af 82 f0 3d d2 dd f5 bd
       -0.0013833337 0.120442435 0.11743676 -0.120051995
0003e0 3f 00 b7 3d 46 13 ec bd f7 f7 fd 3d 8b e7 ce 3d
       0.08935594 -0.115271136 0.12400811 0.10102757
0003f0 89 8c 48 3d 63 8d f5 bd 5a 10 06 be 93 09 43 3d
       0.04896215 -0.11989858 -0.13092175 0.047616553

linear.weight f4 [8, 20]
000000 5b ce 89 be 70 cc 55 3e 37 9c 3b 3f a1 81 8e 3e
       -0.2691525 0.20878768 0.7328524 0.27833274
000010 60 46 d2 3e a4 29 48 bf b7 b2 49 3f de 93 f8 3e
       0.41069317 -0.7818854 0.7878832 0.48550314
000020 31 80 2b 3f 2b e1 85 3e 62 d4 94 3f aa b1 56 3e
       0.6699248 0.26148352 1.1627314 0.20966211
000030 72 03 78 be 4d db 5f be db ef f2 3d e8 37 bf 3d
       -0.24220064 -0.21861 0.11862155 0.09336835
000040 ba 24 12 3f 36 7d 99 be 53 e2 f3 be f2 df d3 be
       0.5708729 -0.2997834 -0.4763361 -0.41381794
000050 6a 95 dc 3e 02 1f 22 3f 8e b5 f1 be 0d 4e 8a 3f
       0.43082744 0.63328564 -0.47208828 1.0805069
000060 ba e0 00 3f 61 9a f6 bd 10 13 1b bf 61 81 d2 bd
       0.50342906 -0.12041164 -0.6057596 -0.10278583
000070 88 7f 78 be 9b b0 84 3e d0 1e f6 3e c6 d7 cf be
       -0.242674 0.2591599 0.48070383 -0.4059431
000080 76 1e 34 3c 65 b1 53 3e 98 ac 0d 3f c1 a1 8d be
       0.010993591 0.2067314 0.5534148 -0.2766247
000090 b8 55 29 3e e6 a6 75 3e 32 66 af bc c4 e5 09 3e
       0.16536605 0.23989448 -0.021411035 0.13466555
0000a0 da fc a1 be 72 33 0c 3f 99 ae 4b 3e 73 d4 25 bf
       -0.31638223 0.54766 0.19890822 -0.64777297
0000b0 fc 2e 7d 3e 04 ca d5 3e 15 21 d1 be 33 cc 2d 3f
       0.24724954 0.41755688 -0.40845552 0.6788971
0000c0 df f1 7a 3e 86 5f 3b 3f 86 bc 2e be 25 1e a7 be
       0.24506329 0.7319263 -0.17064103 -0.32640186
0000d0 13 7e 49 bd de 4e d9 be 9b 7b ae 3d dc 28 14 3f
       -0.0491925 -0.42442983 0.085196696 0.57874846
0000e0 4a c0 00 3f ef f8 4b bf ff 7f ee be 4c ee e9 3e
       0.5029341 -0.7967672 -0.46582028 0.4568962
0000f0 29 ca cd 3e 9c 3b eb 3d a1 b3 49 bf 28 64 69 bf
       0.40193298 0.11485979 -0.78789717 -0.9116845
000100 c7 a7 dc be a9 3f 30 3f 4a 5a 0e bf 38 a6 cd 3c
       -0.43096754 0.6884714 -0.5560652 0.025103673
000110 ec 84 cd be d7 f5 92 3e 5c 2e f0 bf 97 0e ec be
       -0.40140474 0.28703186 -1.8764148 -0.4610488
000120 af d9 66 3e dc 65 ce bb 50 88 94 be d0 f4 18 3f
       0.22543977 -0.0062987637 -0.29010248 0.59748554
000130 25 2d a6 be 79 cf e9 be 72 7b ab 3e a1 96 0d 3f
       -0.32456318 -0.45666102 0.3349262 0.55307966
000140 9d 95 be 3e 30 86 d8 be b5 9a 52 3e fc 12 1d 3f
       0.3722352 -0.42289877 0.20566829 0.6135709
000150 b2 0f e5 bd a3 23 9d bf 7f 0d ab 3f 4f b0 83 be
       -0.11184634 -1.22765 1.3363494 -0.2572045
000160 88 54 a9 3e 85 df ff be 97 72 11 3f de 46 ec 3e
       0.33072305 -0.4997522 0.56815475 0.46147817
000170 b5 c3 00 be 7c 62 94 3e d5 0d 58 be 47 f2 79 be
       -0.12574656 0.28981388 -0.21099027 -0.24408828
000180 e0 4b 16 be f3 a3 c5 3e 6a 20 77 3e f6 7d 56 bf
       -0.14677382 0.38601646 0.24133459 -0.8378595
000190 d6 5f b8 be 70 3b b3 be 74 da c1 3d 32 c3 57 3f
       -0.36010617 -0.35006285 0.09465495 0.8428222
0001a0 f0 78 21 3e 6b 7c 90 3d fd dc ea bd 93 41 d0 be
       0.1576879 0.07054981 -0.114679314 -0.4067503
0001b0 c8 b5 95 be 32 56 c9 be a9 93 43 3e 1e 31 8a 3e
       -0.2924025 -0.39323574 0.19099297 0.26990598
0001c0 0f c1 1b 3e 6c 4b 21 3e 04 5f e5 3e bc bc 2a bf
       0.15210365 0.15751427 0.44799054 -0.66694236
0001d0 0f b9 45 be ed d7 ff 3e 88 79 94 3c 84 fd 99 be
       -0.19308876 0.49969426 0.018124357 -0.3007623
0001e0 41 d5 78 be 09 cc b7 be 6f a4 86 3e c8 c3 10 bf
       -0.243001 -0.35897854 0.26297328 -0.5654874
0001f0 bb 00 a7 be b3 c5 a5 3e bf be 9f bd 78 4b 3b be
       -0.32617745 0.32377395 -0.07800054 -0.18290508
000200 e9 6e ab bb 1d ee ba be a1 63 f7 3e b3 6f 74 3e
       -0.0052317274 -0.3650979 0.48318198 0.23870735
000210 9b 4d ad bd 6c f2 48 bc 3c 44 ca be f7 02 13 be
       -0.08462068 -0.012264829 -0.39505184 -0.143566
000220 5d 0b 45 be e1 c2 9c 3e c2 2d d5 3d 61 90 fc 3d
       -0.19242616 0.3061743 0.10409118 0.123322256
000230 c7 37 27 bd f7 26 b7 be 45 6f 71 be f8 6e 32 bf
       -0.040824678 -0.35771915 -0.23577602 -0.69700575
000240 fb ff eb be 8d c5 21 3f 68 e9 b2 be 29 96 7c be
       -0.46093735 0.63192064 -0.349437 -0.24666657
000250 20 26 a8 be c0 5a 84 be 5b 9f 60 bf 10 2c 9a 3c
       -0.32841587 -0.25850487 -0.8774316 0.018819839
000260 fe 12 0a 3e 2e 37 ec 3c 0a 06 a1 be 7f 9f 6b 3d
       0.13483807 0.028834905 -0.3144992 0.057525154
000270 c7 6d ca be 80 ea c0 3d fc e4 8f 3e 36 1e 90 3e
       -0.39536878 0.09419727 0.2810439 0.2814805

linear.bias f4 [8]
000000 af d1 89 3d 9f e5 6b bd 07 b9 e8 3e 4f 2c 2f be
       0.06729447 -0.05759203 0.45453665 -0.17106746
000010 6d 3b 0b bf 22 50 da be 04 4c fe 3e dc b7 37 3e
       -0.5438755 -0.4263926 0.4966737 0.1794123
