models/gcexplainer_bashapes.pt (torch, 6351 bytes, 8 tensors)

conv1.bias f4 [20]
-2.5420393e-21 -0.00045553382 -4.6650534e-18 -5.3182846e-28 -5.738112e-28 -6.503237e-27 0.08538852 -6.267836e-05
-3.793646e-27 0.12092591 -2.9729592e-05 -5.421321e-27 0.10170366 -8.965867e-07 -0.017229361 -5.65114e-31
-1.2900866 -0.14997499 -1.1808801e-11 -0.0012235855
00000000: 3112 409d b7d4 eeb9 2f1c aca2 0d8b 2892
00000010: 18d9 3592 54cf 0094 2de0 ae3d 3072 83b8
00000020: 2448 9693 01a8 f73d d063 f9b7 bac2 d693
00000030: 024a d03d f8ac 70b5 9724 8dbc d663 378d
00000040: 8f21 a5bf 0b93 19be 1dbe 4fad b760 a0ba

conv1.lin.weight f4 [20, 1]
-2.7158028e-21 -0.00066554494 -5.05098e-18 -6.897163e-28 -5.445641e-28 -6.984101e-27 0.010618106 -6.605316e-05
-4.6015986e-27 0.7661835 -4.0105344e-05 -6.1800407e-27 0.68388104 -9.604041e-07 -0.02005191 -7.445255e-31
1.2904142 0.7953811 -5.619122e-11 -0.00093693583
00000000: 4433 4d9d f777 2eba 2859 baa2 6f94 5a92
00000010: 4a94 2c92 9955 0a94 91f7 2d3c 0586 8ab8
00000020: c149 b693 9a24 443f c936 28b8 0fd1 f493
00000030: d412 2f3f 3ce7 80b5 e743 a4bc c29c 718d
00000040: 4b2c a53f 199e 4b3f b021 77ae b39c 75ba

conv2.bias f4 [20]
-0.39647973 -0.3449344 -0.394903 -0.39365098 -0.72630996 -0.3668507 -0.4591026 -0.40783548
-0.46506974 -0.7011678 -0.38018796 -0.67466295 -0.6681483 -0.27216625 -0.32827336 -0.6636139
-0.18392397 -0.39211136 -0.37576106 -0.42266205
00000000: 64ff cabe 3e9b b0be ba30 cabe 9f8c c9be
00000010: 73ef 39bf dbd3 bbbe 7f0f ebbe d0cf d0be
00000020: 9f1d eebe bc7f 33bf ffa7 c2be b6b6 2cbf
00000030: c40b 2bbf 6059 8bbe 7213 a8be 9ae2 29bf
00000040: 9156 3cbe d2c2 c8be c163 c0be 2967 d8be

conv2.lin.weight f4 [20, 20]
-1.9527367e-21 1.0202641e-12 -5.300597e-19 1.9535087e-29 1.5828125e-28 -3.0488776e-28 0.03450261 1.403748e-06
1.1993178e-27 0.245482 -3.7141e-41 7.199719e-28 0.22937548 3.74353e-07 3.4547768e-12 -3.971573e-32
-0.879257 0.20080712 1.1428e-41 0.0017109517 6.016506e-22 -1.0241583e-12 -2.1644825e-19 -1.0307563e-28
4.03967e-28 -3.3264946e-28 0.03930622 1.2227192e-06 1.6851461e-28 0.23229714 1.1098e-41 -1.8502337e-28
0.21740538 2.431752e-07 -1.3853914e-12 1.052366e-31 -0.966023 0.18015605 7.2e-42 0.00071195385
1.1892924e-21 -4.0784276e-13 -1.5787121e-19 5.4825177e-29 9.230979e-29 -6.057974e-28 0.03358025 3.2240937e-06
-2.5708988e-28 0.24679346 -1.95397e-40 3.0377129e-27 0.22658044 2.5978673e-07 2.4441487e-13 6.877619e-32
-0.89612055 0.20059785 -2.389e-42 0.0011735033 1.5226753e-22 4.812567e-12 -5.835175e-19 6.003255e-29
-5.742253e-28 1.7647568e-27 0.035301458 3.1557238e-06 2.1817608e-28 0.24866123 -1.3923e-41 2.6508662e-27
0.23177983 -3.8325814e-07 5.871554e-12 -6.289439e-32 -0.87701577 0.20594995 8.04e-42 0.001643539
-1.9061471e-22 5.082413e-13 3.0971498e-19 -1.5964854e-28 -4.562421e-29 7.7657376e-28 -0.02991972 3.4656484e-06
-5.075744e-28 0.3130132 1.9495e-41 1.514984e-27 0.28775597 5.0627236e-08 6.0016393e-12 -6.389868e-32
1.1961166 0.34316406 -4.556e-42 -0.0010357134 1.2000894e-22 8.811301e-13 -3.73963e-19 1.9543442e-28
-4.0108733e-28 1.5402099e-27 0.036690705 1.8124495e-06 9.77716e-28 0.23251705 -3.6748e-41 4.1255095e-27
0.22104147 2.1964626e-08 7.650784e-12 2.5203236e-31 -0.9155337 0.18761887 6.09e-42 0.0023119203
9.517724e-22 -6.183464e-13 4.7018503e-20 -1.4123798e-28 7.604408e-29 -6.7215075e-28 0.026102534 7.569611e-08
9.6000355e-29 0.2661293 -1.09378e-40 1.2251017e-27 0.2672126 3.0831893e-07 6.073302e-12 -8.5140556e-33
-0.85910666 0.21924579 6.072e-42 0.0041927686 6.217182e-22 -3.1576124e-12 -3.6547326e-19 2.232505e-28
-3.839038e-30 6.31364e-28 0.032562293 -3.495853e-07 2.399182e-28 0.25099355 1.63219e-40 2.3282777e-27
0.22519119 2.4860498e-07 -6.7947765e-12 4.5481743e-33 -0.88618535 0.20905693 -4.864e-42 0.0023842615
-1.0539599e-21 -8.5534347e-13 -4.6908805e-20 -9.75734e-29 2.843591e-28 -1.371151e-27 0.027943162 -9.781724e-07
-1.1219224e-27 0.33097652 7.6473e-41 1.520994e-27 0.2506042 2.144723e-07 6.3272356e-12 1.1882896e-31
-0.90336806 0.18026477 1.4271e-41 0.0041702166 -1.9849863e-22 -4.925827e-12 1.111529e-19 -1.0281012e-28
1.7633867e-29 -4.8449377e-28 -0.029654207 -1.0812907e-06 3.7553614e-28 0.27222422 1.2317e-41 -1.8742191e-27
0.26621282 9.056518e-08 -4.303024e-12 -1.0020399e-33 1.1760646 0.3951907 -1.481e-42 -0.0016703682
1.319605e-22 -5.8221735e-12 -4.9744466e-19 -2.0258947e-30 1.8846886e-28 -6.4584635e-28 0.032364845 2.2644813e-06
5.9444935e-28 0.24139541 2.06033e-40 2.1215867e-27 0.21965708 4.2897153e-07 -2.3067772e-12 2.1281488e-31
-0.900195 0.19671659 -4.82e-43 0.002153365 3.906842e-22 1.650153e-12 -4.1224407e-19 1.1554795e-28
2.0263039e-28 -5.549775e-29 -0.0372336 -1.0086712e-05 -2.0723139e-29 0.2935172 -1.3693e-41 1.3943201e-27
0.2230525 -2.1568552e-07 -2.0419506e-12 4.360497e-32 1.2683078 0.36467546 -5.616e-42 -0.00086254464
-3.7433535e-22 4.464846e-13 -2.1513536e-19 -1.9729912e-29 -2.0467983e-29 -3.7543274e-28 -0.03584076 1.7798375e-06
-6.140148e-28 0.26032913 9.7685e-41 -1.8647794e-27 0.23773694 -9.2103434e-08 9.331808e-13 -2.1112484e-32
00000000: 6c8b 139d e396 8f2b 2e72 1ca1 fc1b c60f
00000010: 34a5 4811 de3e c191 9c52 0d3d 6a68 bc35
00000020: 1c0a be12 a25f 7b3e 8967 0080 0f2b 6412
00000030: 68e1 6a3e affa c834 ba1b 732c 4337 4e8b
00000040: fd16 61bf 62a0 4d3e db1f 0000 0342 e03a
00000050: 76d6 351c 3123 90ab 7889 7fa0 f4a9 0291
00000060: b205 0012 76d7 d291 8fff 203d 501c a435
00000070: 1e9e 5511 4ddf 6d3e f01e 0000 848b 6a91
00000080: 849f 5e3e bf8d 8234 fcf9 c2ab dc9a 080c
00000090: 494d 77bf d47a 383e 1214 0000 6aa2 3a3a
000000a0: 85b8 b31c 5698 e5aa a561 3aa0 93ff 8a10
000000b0: 7b08 ea10 20fc 3f92 728b 093d 825d 5836
000000c0: 38f3 a291 6db7 7c3e b020 0280 23ac 7013
000000d0: b404 683e d178 8b34 e597 892a 9e8d b20b
000000e0: 2868 65bf 8669 4d3e a906 0080 3dd0 993a
000000f0: 8514 381b c053 a92c 5639 2ca1 5a33 9810
00000100: b1fa 3592 85d1 0b13 4398 103d ecc6 5336
00000110: 1849 8a11 0da1 7e3e d026 0080 f405 5213
00000120: b157 6d3e 99c2 cdb4 4296 ce2c 7e48 a38b
00000130: 1b84 60bf 8be4 523e 6a16 0000 056c d73a
00000140: 6570 669b a50e 0f2b ced2 b620 ea60 4a91
00000150: 9c57 6790 261b 7612 331a f5bc 6393 6836
00000160: 54db 2092 4443 a03e 5836 0000 0d0f f012
00000170: c054 933e 3c71 5933 f629 d32c f5e3 a58b
00000180: 591a 993f 33b3 af3e b30c 0080 c6c0 87ba
00000190: f814 111b 1d04 782b b1bf dca0 18be 7711
000001a0: 2438 fe91 560e f412 fe48 163d 4a43 f335
000001b0: dfec 9a12 f318 6e3e 7066 0080 a36d a313
000001c0: b258 623e b9ac bc32 1198 062d 0f94 a30c
000001d0: 6b60 6abf 291f 403e fa10 0000 9683 173b
000001e0: e9d3 8f1c 8e0c 2eab e209 5e1f 580a 3391
000001f0: 6ecb c010 5903 5592 fbd4 d53c 608e a233
00000200: cb63 f310 1a42 883e e730 0180 0720 c212
00000210: 17d0 883e 0887 a534 71af d52c 7cd4 308a
00000220: 6aee 5bbf f881 603e ed10 0000 7e63 893b
00000230: 1ee7 3b1c 7d32 5eac c2bc d7a0 7780 8d11
00000240: daba 9b8e 5516 4812 0a60 053d a3ae bbb4
00000250: f410 9811 3a82 803e fdc6 0100 1577 3813
00000260: 8598 663e 0278 8534 e811 efac 7cec bc09
00000270: 0bdd 62bf 0513 563e 8f0d 0080 4541 1c3b
00000280: 1945 9f9c fec1 70ab 4485 5d9f c260 f790
00000290: e73b b411 7e44 d992 0fe9 e43c bf49 83b5
000002a0: 94c6 b192 c175 a93e 2dd5 0000 d902 f112
000002b0: 324f 803e b249 6634 ac9e de2c b23f 1a0c
000002c0: 2143 67bf 5497 383e c827 0000 50a6 883b
000002d0: 5af8 6f9b e84f adac e739 0320 cb53 0291
000002e0: 23d4 b20f ce8a 1992 61ed f2bc de20 91b5
000002f0: 3906 ee11 f960 8b3e 5622 0000 ae7d 1493
00000300: 0c4d 883e bc7c c233 3266 97ac 107e a688
00000310: 4989 963f 6f56 ca3e 2104 0080 42f0 daba
00000320: cc87 1f1b 7ad9 ccac dbd1 12a1 305c 248e
00000330: a4e9 6e11 48ad 4c92 0091 043d 7ef7 1736
00000340: 7663 3c12 5c30 773e 563e 0200 e416 2813
00000350: c9ed 603e 664d e634 3453 22ac f01f 8a0c
00000360: 2e73 66bf 1370 493e 5801 0080 781f 0d3b
00000370: 7427 ec1b 073d e82b 9058 f3a0 7479 1211
00000380: a96e 8011 19b4 8c90 4282 18bd 193a 29b7
00000390: 5828 d28f e347 963e 2c26 0080 58f0 dc12
000003a0: e067 643e 2f97 67b4 83b0 0fac f268 620b
000003b0: e957 a23f beb6 ba3e a80f 0080 641c 62ba
000003c0: 9745 e29b 3659 fb2a acfc 7da0 c815 c88f
000003d0: ec91 cf8f 72f5 ed91 c3cd 12bd c0e2 ee35
000003e0: cc96 4292 dc49 853e 4e10 0100 38be 1393
000003f0: 5071 733e 66ca c5b3 6255 832b 9c3e db8a

conv3.bias f4 [20]
-0.39593086 0.549676 0.56819767 -0.31245267 -0.16296655 -0.38989824 0.11666942 -0.442648
0.331255 0.35877055 0.091870196 -0.39458117 -0.5467997 -0.5636796 -0.3868933 0.31712988
-0.30355757 0.4189996 -0.51823646 -0.04686674
00000000: 73b7 cabe 91b7 0c3f 6775 113f ccf9 9fbe
00000010: b4e0 26be bea0 c7be 60f0 ee3d c2a2 e2be
00000020: 419a a93e c6b0 b73e 7126 bc3d 8b06 cabe
00000030: 11fb 0bbf 4e4d 10bf e116 c6be d95e a23e
00000040: e66b 9bbe 1e87 d63e 25ab 04bf 57f7 3fbd

conv3.lin.weight f4 [20, 20]
0.15415548 0.12997022 0.118278585 0.1355226 0.38472772 0.107764795 0.14802587 0.12818688
0.1467759 0.38473797 0.12967342 0.39433408 0.37542182 0.10794304 0.103241645 0.3997408
0.103126936 0.13241911 0.13866976 0.13233103 -0.30616277 -0.2994427 -0.29548472 -0.29706207
-0.17223838 -0.2852094 -0.30323312 -0.2784575 -0.3168103 -0.16969089 -0.29508045 -0.17035997
-0.1648899 -0.29379976 -0.27352607 -0.17140412 -0.30440658 -0.296953 -0.30906 -0.2917286
-0.3685447 -0.3765456 -0.3728282 -0.36802983 0.030295486 -0.36583942 -0.364146 -0.3430665
-0.38556176 0.034209605 -0.36753678 0.042717174 0.038594615 -0.38228822 -0.3555995 0.041396976
-0.4018311 -0.36703232 -0.3813186 -0.35716748 0.26852036 0.28886878 0.29104084 0.27647278
-0.28297976 0.28778553 0.26792344 0.25094232 0.297226 -0.2876396 0.27651468 -0.3011965
-0.28223896 0.30552536 0.27319312 -0.29963693 0.334712 0.27937248 0.2899766 0.26377472
0.008547543 -0.010937782 -0.03614197 0.00246562 0.380595 -0.04165808 0.010249678 -0.00048528996
-0.027699275 0.37655768 -0.010546146 0.386166 0.36404884 -0.03713599 -0.024562098 0.39131138
-0.05476353 -0.014109838 -0.019773353 -0.018063512 0.21233538 0.20464873 0.19971767 0.2027893
0.12836352 0.19167165 0.20863748 0.18811794 0.22168657 0.12635396 0.19968647 0.12792748
0.1246127 0.198327 0.17964849 0.13098513 0.2087617 0.2032323 0.21250118 0.19718263
-0.015056774 -0.00903605 0.010272437 -0.016831046 -0.20769206 0.01607796 -0.0225076 -0.0106762
0.0050986866 -0.20138246 -0.005995886 -0.2110832 -0.20158218 0.008388441 0.004771213 -0.2090495
0.01495014 -0.005454068 0.002086725 0.003832003 0.19386521 0.17336874 0.16469628 0.17689377
0.3399753 0.15387061 0.18880549 0.16651145 0.1924658 0.33974034 0.17217645 0.34760648
0.33215523 0.15509738 0.14570864 0.35101652 0.15478481 0.1755583 0.18341208 0.1741751
-0.17332043 -0.16428246 -0.15831153 -0.16302936 -0.13107164 -0.15089011 -0.16908097 -0.15126096
-0.18071076 -0.12937924 -0.15966167 -0.13202727 -0.12846003 -0.15662567 -0.13993968 -0.13565361
-0.16544674 -0.16348964 -0.17117293 -0.15783824 -0.25121745 -0.25944495 -0.25916037 -0.25169796
0.10234327 -0.25356194 -0.24977607 -0.23031025 -0.27235326 0.105950356 -0.25046098 0.113182195
0.103862844 -0.26647198 -0.23924376 0.1111386 -0.28794563 -0.25378275 -0.2641715 -0.24223855
0.043543845 0.06411336 0.08826749 0.048824877 -0.40956828 0.09061885 0.042259604 0.047154352
0.08859381 -0.40941188 0.060699858 -0.41358295 -0.38677147 0.091023244 0.068967625 -0.41637313
0.11471209 0.06634439 0.07399901 0.06631611 0.25044537 0.25222424 0.25024247 0.24685585
-0.0035602348 0.24327964 0.24815898 0.2273084 0.2669622 -0.0067341514 0.24496579 -0.010581235
-0.006902511 0.25400254 0.22974086 -0.008404376 0.27131832 0.24814194 0.25868306 0.23878025
0.44694674 0.48675454 0.4767981 0.46296898 -0.46588892 0.4802096 0.43307477 0.42746022
0.4692277 -0.4723906 0.46509212 -0.49923703 -0.47652268 0.5131096 0.47865945 -0.49700287
00000000: efda 1d3e ea16 053e 0b3c f23d 70c6 0a3e
00000010: 08fb c43e cab3 dc3d 1894 173e 6c43 033e
00000020: 6c4c 163e 60fc c43e 1cc9 043e 28e6 c93e
00000030: 4a37 c03e 3e11 dd3d 5b70 d33d d3aa cc3e
00000040: 3734 d33d e098 073e 72ff 0d3e c981 073e
00000050: 5ec1 9cbe 8e50 99be c649 97be 8518 98be
00000060: 425f 30be f706 92be 5f41 9bbe fb91 8ebe
00000070: f634 a2be 73c3 2dbe c914 97be d872 2ebe
00000080: e6d8 28be ec6c 96be 9c0b 8cbe 9084 2fbe
00000090: 2edb 9bbe 390a 98be 1d3d 9ebe 735d 95be
000000a0: e4b1 bcbe 96ca c0be 56e3 bebe 686e bcbe
000000b0: 3d2e f83c 4e4f bbbe 5871 babe 6aa6 afbe
000000c0: 5a68 c5be 5f1f 0c3d c82d bcbe 34f8 2e3d
000000d0: 6315 1e3d 48bb c3be 2311 b6be e08f 293d
000000e0: cebc cdbe a9eb bbbe 313c c3be a8de b6be
000000f0: 807b 893e 9ce6 933e 4e03 953e d78d 8d3e
00000100: b9e2 90be a058 933e 432d 893e 837b 803e
00000110: 022e 983e 7f45 93be 5593 8d3e 6d36 9abe
00000120: a081 90be d26d 9c3e f8df 8b3e 036a 99be
00000130: 5f5f ab3e e909 8f3e d077 943e 7b0d 873e
00000140: fe0a 0c3c 6234 33bc 9a09 14bd 3d96 213b
00000150: 59dd c23e aaa1 2abd 44ee 273c 846e feb9
00000160: 97e9 e2bc 2bcc c03e bec9 2cbc 8db7 c53e
00000170: 9c64 ba3e e81b 18bd 7436 c9bc f759 c83e
00000180: b94f 60bd f32c 67bc bafb a1bc eef9 93bc
00000190: 726e 593e 708f 513e ca82 4c3e 00a8 4f3e
000001a0: ba71 033e 9345 443e 10a5 553e fda1 403e
000001b0: ce01 633e ef62 013e 9c7a 4c3e 6cff 023e
000001c0: f134 ff3d 3c16 4b3e c6f5 373e f720 063e
000001d0: a1c5 553e 211c 503e e999 593e 3eea 493e
000001e0: b0b0 76bc f10b 14bc b94d 283c 43e1 89bc
000001f0: 3aad 54be edb5 833c dc61 b8bc 3aeb 2ebc
00000200: e212 a73b 3437 4ebe 2379 c4bb 3226 58be
00000210: 8f6b 4ebe ac6f 093c d657 9c3b 1211 56be
00000220: 6ff1 743c 0ab8 b2bb 70c1 083b 5822 7b3b
00000230: 9a84 463e 9387 313e 24a6 283e a423 353e
00000240: 3e11 ae3e 4290 1d3e 3a56 413e fa81 2a3e
00000250: c115 453e 72f2 ad3e 064f 303e 7af9 b13e
00000260: 4010 aa3e d9d1 1e3e a534 153e 70b8 b33e
00000270: e97f 1e3e 8ec5 333e 60d0 3b3e f55a 323e
00000280: e97a 31be a939 28be 6b1c 22be 2bf1 26be
00000290: a537 06be f082 1abe 9023 2dbe 27e4 1abe
000002a0: 3e0c 39be fe7b 04be 597e 23be 2832 07be
000002b0: 078b 03be 7b62 20be 594c 0fbe c8e8 0abe
000002c0: df6a 29be d469 27be f547 2fbe 59a0 21be
000002d0: 939f 80be f8d5 84be abb0 84be 8ede 80be
000002e0: 5999 d13d dfd2 81be 4cc5 7fbe 73d6 6bbe
000002f0: e371 8bbe 80fc d83d 6c3c 80be 11cc e73d
00000300: 0bb6 d43d 046f 88be 51fc 74be a29c e33d
00000310: 9c6d 93be d0ef 81be 7d41 87be 620d 78be
00000320: 085b 323d de4d 833d 96c5 b43d 98fc 473d
00000330: efb2 d1be 6096 b93d 6818 2d3d ec24 413d
00000340: ac70 b53d 6f9e d1be 6aa0 783d 25c1 d3be
00000350: e906 c6be 656a ba3d e63e 8d3d dc2e d5be
00000360: 2cee ea3d 91df 873d cb8c 973d bed0 873d
00000370: 603a 803e 8923 813e c81f 803e c8c7 7c3e
00000380: d452 69bb 4c1e 793e 631d 7e3e 89c3 683e
00000390: 45af 883e 28aa dcbb 50d8 7a3e eb5c 2dbc
000003a0: 762e e2bb 9f0c 823e 3041 6b3e 82b2 09bc
000003b0: 3cea 8a3e ec18 7e3e 1b72 843e cf82 743e
000003c0: 34d6 e43e e437 f93e e11e f43e 450a ed3e
000003d0: fe88 eebe 08de f53e fabb dd3e 11dc da3e
000003e0: 9d3e f03e 2edd f1be 8e20 ee3e ff9b ffbe
000003f0: c8fa f3be 275b 033f da12 f53e 2977 febe

linear.weight f4 [4, 20]
0.4000948 -0.13730924 0.10343528 -0.36680123 0.40878347 0.10399569 -0.2160021 0.3440202
-0.113200605 0.16104876 -0.44779137 -0.05001075 -0.62563914 0.12110123 -0.5224334 -0.48657972
0.16733429 -0.39094812 0.35108247 -0.63022375 0.64069134 -0.91847366 -0.9563291 0.52258724
0.25282422 0.63715714 -0.17539619 0.7216882 -0.53463805 -0.5932973 -0.13728167 0.6542294
0.89952344 0.9445158 0.65018016 -0.5091974 0.48401695 -0.68071735 0.85500574 0.08145246
-0.40029344 0.9285751 1.1602958 -0.8807124 0.052022543 -0.6260576 0.007156115 -0.5365577
0.50093573 0.79592 -0.2120623 -0.77578694 -1.4612919 -0.97207224 -1.1364895 0.18537158
-0.39873108 0.45364466 -0.68602437 -0.57916296 -0.64860684 0.1296882 -0.30656436 0.7257617
-0.7200525 -0.11367542 0.3865972 -0.5353409 0.14706966 -0.3634619 0.80342174 0.17144257
1.196417 -0.096299306 1.0122406 0.8220004 -0.25491306 0.62517047 -0.5257704 1.1406813
00000000: 3ad9 cc3e cb9a 0cbe e0d5 d33d 5fcd bbbe
00000010: 114c d13e b1fb d43d a82f 5dbe 6a23 b03e
00000020: b8d5 e7bd f7e9 243e e944 e5be 12d8 4cbd
00000030: e329 20bf ec03 f83d 32be 05bf fa20 f9be
00000040: ae59 2b3e 5a2a c8be 15c1 b33e 5856 21bf
00000050: 5904 243f 1721 6bbf fcd1 74bf 47c8 053f
00000060: 2d72 813e bb1c 233f 0f9b 33be 8fc0 383f
00000070: 0ade 08bf 55e2 17bf 9193 0cbe 947b 273f
00000080: 2b47 663f cacb 713f 3572 263f c35a 02bf
00000090: 12d1 f73e 7e43 2ebf a8e1 5a3f 8cd0 a63d
000000a0: 43f3 ccbe 19b7 6d3f 9384 943f 5e76 61bf
000000b0: 9715 553d 5045 20bf d87d ea3b d85b 09bf
000000c0: 533d 003f 6ac1 4b3f dc26 59be f999 46bf
000000d0: 9d0b bbbf bad9 78bf 7d78 91bf 0cd2 3d3e
000000e0: 7b26 ccbe 1d44 e83e 4b9f 2fbf 0644 14bf
000000f0: 190b 26bf fccc 043e 01f6 9cbe 85cb 393f
00000100: 5c55 38bf a9ce e8bd 11f0 c53e 1a0c 09bf
00000110: 6e99 163e ae17 babe 0cad 4d3f a48e 2f3e
00000120: 3124 993f 9238 c5bd 1a91 813f 9e6e 523f
00000130: f783 82be 2c0b 203f e498 06bf d801 923f

linear.bias f4 [4]
0.22089577 -0.4925279 0.11452119 0.1857978
00000000: 8032 623e 9e2c fcbe 168a ea3d c741 3e3e
