models/protgnn_bashapes.pt (torch, 148807 bytes, 10 tensors)

prototype_vectors f4 [20, 128]
00000000: a6dc a539 3b32 a635 ecbc 9e3d 372c 923d
00000010: 82cd 103c 1350 493d 45b2 973d e8bb 923c
00000020: f676 42bc 3d1a 16b4 a01e 173b 233a 5abc
00000030: 75f2 173d dc7f 0fba 6312 cd3b 1720 273c
00000040: 67bf 293c 1e14 ae3b 91aa 3e3d a699 773d
00000050: c0da 85b8 55c6 403c 2f50 613d 0076 8033
00000060: c4ef b235 c31a 7037 90cd b73b 52ec 113c
00000070: 4b2c df39 801f ffb8 bc4b a1bb 24fb 1a3c
00000080: 19cc 4b3b 4d8d 603c 6101 a93d 9d40 963d
00000090: 035c b23d 566e 833c 866a b8b8 b518 7b39
000000a0: 1f57 2d3c c435 fdba 84d7 6e3d a370 aeba
000000b0: 25ae 3a3c 6eab 4dbb 87cd 2d3d 6df0 ae3a
000000c0: afb3 8d3d 3ead 773b 4e4a b33b 0357 bbb5
000000d0: 7c19 08bb 1272 493c 5cac d93b f2fe f13b
000000e0: c1cc 8fb4 01b2 613d 0d84 6c3b 9dfb ad3d
000000f0: f849 8f39 4dcd 9f3c 2ee2 b5ba 5f78 843d
00000100: 346d 62bc 3c0f 863b e662 13bc a9e2 5fbb
00000110: 903f aa3b b3a3 b936 f6ad 05bc 9cbf 803b
00000120: 31da 463b a1fc 503d 403c 80bb 196b 103c
00000130: 5891 653c 3842 853c a7d0 9639 9fdd 25bc
00000140: 2e2f eabb 4dbb 803c 5fd3 603c 103d 48bb
00000150: 8caf a4b4 9283 b23c a14e 8e3d f7a9 873c
00000160: 4e59 b2ba e45b 963b 4159 563d 0e5e 823d
00000170: 3019 bdbb 10e2 863c 0d58 743c ed7d d83c
00000180: 3650 1b3c df0a e93b e94f 153c 68f3 85bb
00000190: 00f8 b2b8 b1a9 713d f057 533d 4861 093c
000001a0: e7ad 1d3b 4fa9 a63b 6007 dcb8 1378 4a3c
000001b0: 8d92 633b 41fc 5b3c 8800 4b3c a229 983c
000001c0: c04f d93b c0f7 47bb 5f93 963c cbec 79bb
000001d0: a67e 96bb 6fbd 8c3c 98b7 603d 9983 2c3c
000001e0: 3eb8 a23d 5838 083d c07a f0b8 8f4f cf3d
000001f0: e1b3 7136 eed3 3b3d e988 75bb 39fb cb3d
00000200: ce08 dd3c f97e 0d3b 7f78 933d 29c5 473b
00000210: 4d99 ef3b b888 273a c0ed 0135 ac8c 7a3c
00000220: a895 30bc 1f05 c433 1f7b d13d e454 2bbc
00000230: 1f66 b83c 9561 ab3d 982b 9a3d c6b4 533d
00000240: f2cc 863b eebe 203d 92dd aa3b bc88 963c
00000250: 9bae 893b e364 3a3c 7f7e d1bb 83bd 92b3
00000260: 108f 6639 23e4 69b7 df17 963c feaa e8ba
00000270: cb82 443c c484 123d e66d 453d 0442 f13b
00000280: 9501 483b 7f55 1c3c f0ff 1cba 8584 1ebc
00000290: 2575 c83c 15eb 5c3c 9b17 bb3c 2ed7 3c3c
000002a0: c63a b739 11cc d3ba e858 5f3c 0661 f83c
000002b0: d0dd f83c 113c 913c 0c83 bd3a fd28 053c
000002c0: 8db8 913d d86b 9c3c b331 4b3d 828e 513d
000002d0: 40ae b9b9 5648 9e3b 669c be3b 52e7 983b
000002e0: 66b0 7634 f9a3 2c3b 37ee b43b b005 4c39
000002f0: 060e e83a 0673 323c 02d8 9f3a 3ada 1cbc
00000300: 9f07 45bc 0fc9 793b bef3 fbbb 413a 5fbb
00000310: a76f c43b 3cca 2cb2 dde2 b53d 71b6 a53b
00000320: 13bd 603b 4006 d9b8 ec14 6d3b a7fa 613c
00000330: 8979 773c bb0e 723c b1b9 c4b6 505e 1bbc
00000340: 3454 e23b a6dd d63c be44 e33c f61b f4bb
00000350: 6889 a3b4 0047 973c a1d0 fcbb e763 683c
00000360: ea8a ca3b 9281 3c3b 7bc8 f93c e310 b53a
00000370: 125e 2fba 5dec 803c 837b 34b8 c87b cdba
00000380: 9e28 ac3b 0db9 883c fad0 a73b 00c3 fe3c
00000390: 0fcc 953d cf40 a63b f6cc 28b6 1a17 693c
000003a0: a06d 233a 2402 ef3b 0054 fbb6 a828 283c
000003b0: a8c8 5bba 6965 493d 8af6 903d 9be8 6c3c
000003c0: 8f16 8d3c 5feb c13d 1c7c 903d 449b b63a
000003d0: 1e6c 463d 49be b43d 8755 363c f48f 1e39
000003e0: 63ca 413c 7d8d 283c 5b6c b13d 5e72 4c3c
000003f0: 3942 0437 6546 7235 8e13 3e3d fc21 d33a
0.00031635648 1.2382583e-06 0.07750878 0.071373396 0.008838059 0.04914863 0.07407049 0.017911866
-0.011869183 -1.3979384e-07 0.0023059025 -0.013319525 0.03709646 -0.00054740696 0.0062582954 0.010200522
0.010360575 0.0053124567 0.046549384 0.060449265 -6.3826796e-05 0.011766036 0.05500811 5.9819286e-08
1.3331814e-06 1.4311346e-05 0.0056092218 0.008906441 0.00042566875 -0.00012165215 -0.0049223583 0.009459291
0.0031096993 0.013705564 0.08252216 0.07336543 0.08708956 0.016043823 -8.793645e-05 0.0002394643
0.010579853 -0.0019318392 0.058311 -0.0013308715 0.011394058 -0.0031382698 0.042432334 0.0013346799
0.069190376 0.003779247 0.0054715043 -1.395791e-06 -0.0020767143 0.012295263 0.0066428613 0.007385128
-2.6784804e-07 0.0551014 0.003608945 0.08495257 0.00027330196 0.019507075 -0.0013876611 0.064682715
-0.013819981 0.0040911715 -0.008995747 -0.00341622 0.0051955655 5.5324867e-06 -0.008159151 0.0039290916
0.0030342455 0.051022176 -0.0039134324 0.008814597 0.014011703 0.016266927 0.00028765688 -0.010123639
-0.0071467375 0.015714312 0.01372227 -0.0030553974 -3.0675108e-07 0.021791253 0.06948591 0.016560538
-0.0013606937 0.004588591 0.052331213 0.06365596 -0.005770825 0.016465217 0.014913571 0.026427234
0.009479573 0.0071118916 0.00911329 -0.004087854 -8.533895e-05 0.05899972 0.051597536 0.00838501
0.0024059953 0.005086101 -0.00010491791 0.0123577295 0.0034724802 0.013426841 0.012390263 0.01857454
0.0066318214 -0.003051266 0.018380819 -0.0038135524 -0.0045927344 0.017180173 0.05486259 0.010529422
0.07945298 0.03325686 -0.00011466956 0.101225965 3.6016502e-06 0.04585641 -0.0037465638 0.09960026
0.026981737 0.0021590574 0.07200717 0.0030482507 0.007311976 0.0006390917 4.8402217e-07 0.015292328
-0.010777868 9.127893e-08 0.102285616 -0.010457251 0.022509633 0.08368222 0.07527846 0.05168607
0.004113787 0.039244585 0.0052144015 0.018375747 0.004201723 0.011376592 -0.0063932533 -6.833127e-08
0.00021987804 -1.3940999e-05 0.01832193 -0.0017751155 0.011994074 0.035771146 0.04820051 0.007362606
0.003051852 0.009541868 -0.00059890654 -0.00967515 0.024469921 0.013483782 0.022838404 0.011525912
0.0003494827 -0.0016158839 0.013632037 0.030319702 0.030379206 0.017728837 0.0014458611 0.008127448
0.071152784 0.019094393 0.049607944 0.051161297 -0.00035415776 0.0048304005 0.005816984 0.0046662474
2.2974709e-07 0.0026342853 0.0055215615 0.00019457075 0.0017704375 0.010891682 0.0012195113 -0.009573514
-0.012025743 0.0038114225 -0.0076889684 -0.0034061822 0.0059947553 -1.00577005e-08 0.08881161 0.005057149
0.0034292385 -0.000103485305 0.00361758 0.01379267 0.01510466 0.01477402 -5.8628725e-06 -0.009482935
0.0069070105 0.026228737 0.02774274 -0.0074496223 -3.0461092e-07 0.018466473 -0.0077153 0.014183975
0.0061811106 0.0028763753 0.030491104 0.0013814237 -0.0006689738 0.015737707 -4.3030373e-05 -0.0015677148
0.0052538654 0.016689802 0.0051213475 0.031098843 0.07314312 0.0050736438 -2.5153254e-06 0.014226699
0.0006234292 0.0072939564 -7.490162e-06 0.010263599 -0.0008384087 0.049168978 0.070782736 0.014459754
0.01722267 0.094687216 0.07054922 0.0013931771 0.048442952 0.088253565 0.01112879 0.00015121681
0.011828038 0.01028764 0.08663245 0.012478439 7.883232e-06 9.025446e-07 0.046405368 0.0016108151

gnn_layers.0.bias f4 [128]
00000000: 166a 623d ab55 fbbc edb9 ceba c49d f43c
00000010: 030c 63ba c378 eb3d bc11 36bc fb12 39ba
00000020: 8119 a93d d57a 54bb 2e06 3eba e9ac 23bd
00000030: dba9 67bd 7745 1bbc b1dc 273d 8e89 4eb9
00000040: cc55 3bbb 2a2d 85bd df2d 23bd fff2 efbc
00000050: 40bc f0bb feb0 3c3c 829f 6e3b 8aa1 32bd
00000060: ffaf 3fba 7558 ac39 5857 bc3c 671f 12bb
00000070: 4aec 73bc 87ba 9438 9e3f 083c 9a51 51bc
00000080: 486f ff3d 9cd7 ae3d d3fd 84bc af15 0bbd
00000090: 5d76 b4bc 54e9 34bc ad8f 11bb fd5f 923c
000000a0: 72f1 baba e2fc 093e 3323 cc3d 317c 89bd
000000b0: b3e0 e53c c37c f5b9 0824 27bb f5f8 53b9
000000c0: bd83 68bc dccd ef3c e263 f0bc f66a 4bbd
000000d0: 5d3b b7ba c0a9 d33d 91b3 15bb 6270 feb6
000000e0: e6b8 65ba ff88 a43d 6e58 c1bc d066 1e3d
000000f0: 7266 afbc b405 20bc 102b bbbb 6b16 393d
00000100: 4281 f7bc 37fc 0ebc 1ca5 3eb9 049e b63d
00000110: cdf9 4e3d 7075 403d fed8 91bc 04c5 dabb
00000120: c69d e0ba ee7d e7bb a10d adb8 ad52 3eba
00000130: be25 1a3d 99dc 863c dab7 2b3c 8f94 d7b8
00000140: ab99 29ba e73c b0ba 0b93 ccbb a761 f83d
00000150: e76c da3d 68cb 21bb f15e 06bd 43c3 bd3d
00000160: 14ba 8ab8 a5a6 73ba 7f1d 0e3d f20a d73d
00000170: 7bd8 03bd fdfb debb 3d49 31bc 8348 53bb
00000180: d8fc b0b8 dc23 0db9 dbb9 19bc 4071 15bb
00000190: b8cb af3a 1f5b 66ba 9c2b f13c 87c1 9a3a
000001a0: a7fb d73d 2acb debb dd6d a7b9 4203 7fbb
000001b0: 1478 013e 0de3 e03d 99bc 02bd aead b5b8
000001c0: ca65 9cbc a9fe 80bd 8aac c139 80e7 3138
000001d0: 7904 a3bc 2ad4 00b9 c715 94ba ab31 d1ba
000001e0: 87cc 223d d48e 913b 58b1 78bb d0ab bbbc
000001f0: cdf5 713c 3eee 81bc d92c 13bc 54ce a63d
0.055276953 -0.030680498 -0.0015771963 0.029860385 -0.00086611527 0.11497643 -0.011112627 -0.0007060018
0.082568176 -0.0032421846 -0.00072488456 -0.03995982 -0.05655847 -0.009477011 0.040981952 -0.00019696934
-0.0028585074 -0.06502755 -0.039838668 -0.029290674 -0.00734666 0.011516808 0.0036410992 -0.043611087
-0.0007312297 0.00032872302 0.022990867 -0.002229655 -0.014887879 7.0919334e-05 0.008315949 -0.012775803
0.12472397 0.08537218 -0.016234314 -0.033956226 -0.022029096 -0.011041958 -0.0022210882 0.017868036
-0.001426263 0.13475373 0.09967651 -0.06713141 0.028061246 -0.00046822996 -0.0025503654 -0.00020215272
-0.014191565 0.029272966 -0.029344503 -0.049662553 -0.0013979484 0.103351116 -0.0022842626 -7.582873e-06
-0.0008763209 0.080339424 -0.023601737 0.03867227 -0.021411154 -0.009766985 -0.0057119206 0.045187395
-0.030213002 -0.008727125 -0.0001818132 0.08916858 0.050531197 0.046986997 -0.017803665 -0.006676318
-0.0017136864 -0.0070645725 -8.2518214e-05 -0.00072602445 0.03763365 0.016462611 0.010480845 -0.0001027967
-0.00064697367 -0.0013445885 -0.006243115 0.12128001 0.10665303 -0.002468789 -0.032805387 0.09265759
-6.6150125e-05 -0.00092945463 0.0346961 0.105001345 -0.032188874 -0.0068049417 -0.010820684 -0.0032239265
-8.43943e-05 -0.00013460167 -0.00938269 -0.0022803098 0.0013412153 -0.0008787382 0.02943974 0.0011806943
0.10546046 -0.0067991214 -0.00031934577 -0.0038911854 0.12643462 0.109808065 -0.031918142 -8.663103e-05
-0.019091506 -0.062985726 0.0003694038 4.241569e-05 -0.019899594 -0.00012286069 -0.0011297994 -0.0015960237
0.039745834 0.0044420753 -0.0037947502 -0.022909075 0.014768076 -0.015860673 -0.0089828605 0.08144823

gnn_layers.0.lin.weight f4 [128, 1]
00000000: 47d3 dd3c 110c 02bd 34d7 46bb d498 843b
00000010: 4d4f b4ba 2778 a53d 14c8 43bc f3c1 92bb
00000020: 87bb 4f3d 3c7b 88bb f4f0 b7ba 73f5 27bd
00000030: c347 6cbd 7b6a 42bc 39c3 1c3d c511 62b9
00000040: 7c52 a7bb 2aac 86bd 01e0 25bd 6af6 d6bc
00000050: 95a5 e8bb ba99 54bc e747 c1bb eb27 3abd
00000060: a632 90ba aaba 4bbb 8b8d 583c 16aa bfbb
00000070: 03e3 82bc b279 41b9 0057 42bc 624a 63bc
00000080: 0a93 b23d 5dd6 6d3d dd3c 9dbc d9b4 11bd
00000090: 080b c2bc 7811 45bc 03f3 3ebb 554b 183c
000000a0: 7013 09bb 7484 c63d 3f3e 693d f162 8fbd
000000b0: a93c 813c 831b 0dba 2d6c 42bb d7de 8bb9
000000c0: ccbe 82bc ed99 cc3b e007 f9bc e2db 4ebd
000000d0: b949 c9ba 01b9 913d 28d7 33bb 37d7 f2b7
000000e0: 844a 86bb fdb2 473d 8529 d1bc 9ab5 383d
000000f0: 047e b9bc 1625 36bc d2cc f7bb 9ce8 413d
00000100: 8d29 01bd a848 2bbc 3668 8cb9 1f36 4c3d
00000110: 22e5 643d 7181 093d b5a0 9cbc 83bf 00bc
00000120: 315b cbbb 202b 07bc 19af b8b8 2f12 b9ba
00000130: 3547 0e3d b051 993b e2c0 e03a f02c 4b3a
00000140: 36c8 6fba 1934 e6ba e076 e6bb 5323 b43d
00000150: 7ce4 933d 1dd7 bdbb 8e07 0ebd 82ce 5b3d
00000160: af2e 3cba 9632 c3ba 651d dc3c 6f6f 7d3d
00000170: 3e00 0abd 6d89 02bc a781 44bc 3084 94bb
00000180: 7760 5cb9 9349 8bb9 fe6a 54bc 919d 48bb
00000190: 00a5 94bb d3fe afba b9ad fc3c 9719 20bb
000001a0: 88e9 a03d cab6 e4bb 271e ebb9 11ba 97bb
000001b0: df03 b83d 8248 8a3d b160 0abd f3bc b7b8
000001c0: 2419 9bbc 65cb 83bd ed9b b9bb 4043 07ba
000001d0: 3acd aebc 65a1 56ba ba72 c1ba d82f 19bb
000001e0: 9b23 033d 67f2 0fbc de51 09bc fedb c8bc
000001f0: 39cd 933c 6d8b 87bc 4771 22bc a1a2 423d
0.027078284 -0.03174979 -0.0030340673 0.004046539 -0.0013756544 0.08079558 -0.011949558 -0.004478687
0.05071595 -0.0041650813 -0.0014033602 -0.041005563 -0.057685625 -0.011866207 0.038272116 -0.00021559659
-0.0051062685 -0.065758064 -0.04049683 -0.026240546 -0.007099817 -0.012976104 -0.005898464 -0.045448225
-0.0011001423 -0.0031086602 0.01321734 -0.0058491332 -0.015977388 -0.0001845125 -0.011861563 -0.013872715
0.08719452 0.05806576 -0.019194061 -0.03557286 -0.0236869 -0.012028091 -0.0029136545 0.009295304
-0.0020916127 0.09693232 0.056944128 -0.070012935 0.015775995 -0.0005382823 -0.0029666529 -0.00026678175
-0.01596012 0.0062439353 -0.030399263 -0.050502665 -0.0015357054 0.07115365 -0.0027441476 -2.8948865e-05
-0.0040982384 0.04875468 -0.025532493 0.045095064 -0.022643097 -0.01111724 -0.0075622583 0.047340974
-0.031533767 -0.010454334 -0.00026780524 0.0498563 0.05588258 0.03357071 -0.0191196 -0.00785816
-0.006205939 -0.008250028 -8.806418e-05 -0.0014119799 0.034735877 0.0046789274 0.0017147327 0.00077505317
-0.000914696 -0.0017563134 -0.007033214 0.087958 0.07221314 -0.0057934658 -0.034675173 0.053663738
-0.0007178587 -0.0014892395 0.026869485 0.06187385 -0.033691637 -0.007967335 -0.011993802 -0.0045323595
-0.00021016771 -0.00026566963 -0.012964962 -0.0030611495 -0.004536271 -0.0013427384 0.030844556 -0.0024429315
0.078570426 -0.006979798 -0.00044845158 -0.004630335 0.08985113 0.06752111 -0.03378362 -8.7613145e-05
-0.018932886 -0.06435279 -0.0056643398 -0.00051598623 -0.021338094 -0.0008187502 -0.0014758923 -0.0023374464
0.032016378 -0.008785821 -0.008381335 -0.024518963 0.018042194 -0.016545976 -0.009914703 0.047518376

gnn_layers.1.bias f4 [128]
00000000: af61 b23d f204 32bb 493d 6b3c bd7b 1cb9
00000010: fdb5 17bc fb40 903b d301 203d 0ead dd3c
00000020: 00ef bcbc 8406 ffbb 0aae d4b7 e273 de3c
00000030: 9097 bcb4 a772 9bbd eb1d 02b9 83e3 e43d
00000040: 2f60 1a3e 0475 34b5 296e 17bd 5063 c73c
00000050: 09cd 42bd 2664 e9b7 f851 4e3d 397f dcb7
00000060: f2de e63b 0324 0c39 5102 93b8 d1ba bbb9
00000070: 3feb ba3c c971 393e 2fa9 88bc 22aa c4b7
00000080: ffbc 9a3d 94e8 81bd 2105 b13c 5cfd a7b7
00000090: e3e1 fc3d 259a fa3d 205a 11bc 0abc 36b8
000000a0: f536 ceb9 6651 14b4 29e6 cc3d cd22 893c
000000b0: b77c 173d 5ed4 bfba ba40 e53c 50a5 b13c
000000c0: ad09 cb3c 6ac1 cdb9 e7a8 d73d f824 083e
000000d0: fddb 39ba 81ba 0fb9 34a2 d13d 6a14 1c3e
000000e0: 736f 4dbb 34c6 c7b7 096c 40b6 b4fb 46b8
000000f0: 8802 20bd c729 b63c b496 d53c f2cf a3ba
00000100: e3b0 79ba b5b4 1db6 b379 883b a754 cf3c
00000110: 7e28 653c a23c 0d3e 1e51 baba ce33 9bba
00000120: 3646 4ebb 2ea1 ea3d 69eb 92bb 4d9f 70bc
00000130: 937b 8dbb 88de a6ba 162a b33d b6ad 9fb8
00000140: 821d 8739 5e67 cdb6 0dc0 89ba 1d9a 8dbb
00000150: faa3 3b3e b8bf 9f3d 6226 cb3c f12e ebbb
00000160: 4455 023d c18b 123b 25fb b83c ab1c a9b8
00000170: 8782 1e3e c8b3 cf3c a4da 7f3d ee90 9e3d
00000180: e3dc 90bb 9780 0b3d 25d7 3aba d0ed 19b8
00000190: 0739 37b7 8715 03bc 8d67 c23d c633 5bba
000001a0: 3b94 46b8 b202 0c36 4633 bf3d 98bc ce3c
000001b0: 6f8f 223e 38f7 38bb 1850 efbc cc0f e63d
000001c0: 5406 d8bc 8158 1c3c e3fb 41b9 38b4 98b7
000001d0: 1230 0f3d ba13 f7b7 5cdf 84bd fa8f 10bc
000001e0: 10f9 95bd 3aec 8fbb 2b43 b13d 24fa e1bb
000001f0: 7606 ae3d e59a 34bb a054 71b8 082b f3ba
0.08710038 -0.0027163592 0.014357873 -0.00014923415 -0.009259698 0.0044022775 0.03906424 0.027060058
-0.023063183 -0.007782759 -2.5353413e-05 0.027154867 -3.5128005e-07 -0.075902276 -0.00012408911 0.11176207
0.15075754 -6.7225506e-07 -0.03697029 0.024339348 -0.047558818 -2.78224e-05 0.05037114 -2.6285286e-05
0.00704562 0.00013364856 -7.009938e-05 -0.00035806609 0.022817252 0.18109812 -0.016682236 -2.3444245e-05
0.075555794 -0.06343189 0.021608891 -2.0025931e-05 0.12347772 0.12236432 -0.008871585 -4.3567306e-05
-0.00039332328 -1.3813187e-07 0.10004837 0.016740227 0.03698417 -0.0014635434 0.027984966 0.021685272
0.024784887 -0.00039244752 0.105302624 0.13295352 -0.0007089971 -0.00013707021 0.10236016 0.15242162
-0.0031346946 -2.3814944e-05 -2.8673114e-06 -4.7441295e-05 -0.039064914 0.022236718 0.026072837 -0.0012497886
-0.00095249544 -2.3500008e-06 0.0041648983 0.02530892 0.013986705 0.13792661 -0.0014214849 -0.0011841
-0.0031474954 0.11456524 -0.0044836295 -0.014686418 -0.0043177097 -0.0012731114 0.08748262 -7.614067e-05
0.00025771192 -6.1215096e-06 -0.0010509506 -0.0043213503 0.18324271 0.07800239 0.024798576 -0.0071772267
0.031819597 0.0022361132 0.022580693 -8.063888e-05 0.1547948 0.025354281 0.06246437 0.07742487
-0.004420863 0.03405818 -0.0007127396 -3.6699523e-05 -1.0920928e-05 -0.008000738 0.09492407 -0.0008361902
-4.734493e-05 2.0863195e-06 0.093359515 0.025236413 0.15875028 -0.0028223526 -0.029212996 0.11233482
-0.026370205 0.009542585 -0.0001849975 -1.8203733e-05 0.034957953 -2.945388e-05 -0.06487915 -0.008823389
-0.073228955 -0.004392174 0.086553894 -0.006896274 0.08497326 -0.0027558145 -5.753769e-05 -0.0018552253

gnn_layers.1.lin.weight f4 [128, 128]
00000000: f317 3e3c 8e1f e435 eb35 12b2 c750 7ebb
00000010: cc49 9ab5 c763 083d 1941 97b5 e887 bcb8
00000020: 44a2 b93c 9bd0 8e35 00a7 5d33 c8b1 053b
00000030: 844d 103b 0df0 2d34 718e 493c 6372 acb8
00000040: 5bd1 1434 4f05 713d cadd 093d a642 3fbc
00000050: 88c4 1433 d6e1 a038 bb5a 55ba 86a3 77b8
00000060: 4a8a 3cb9 3d48 17bb 669a 443b 2d4c f032
00000070: d2e5 f537 a1d7 0db7 d7fc 8dbb f7cc 2fb6
00000080: c7c2 db3c b455 e73c 5597 3436 bf95 2335
00000090: e058 4135 3f9f 70b5 601f d5b5 4730 a0ba
000000a0: 7c09 ddb1 affd 1f3d 18b0 f83c 088a d03b
000000b0: a1ab ce3b 1cf3 9737 bc02 e8b5 6464 d433
000000c0: 4f89 4f38 f422 783b 8677 403a a478 5e3d
000000d0: bc8c 20bb f084 023d 9e33 e2b5 9cb8 aab3
000000e0: cc30 5434 9826 ad3c 6444 f638 8e9a 7a3c
000000f0: 4309 fdb5 00cf d6b0 7960 2fba 2049 643c
00000100: 3e01 a639 c6a7 2f35 6e04 a837 0abd c73c
00000110: e361 8d3c bd0f 6d3c 0a7d 4436 b124 c034
00000120: c81e 16b3 8481 9e34 5111 7eb8 ff99 47b2
00000130: 607d 0e3c 43e5 4fbb adab d1bb f3b7 89bb
00000140: 4cdc 9536 8073 39bb e440 34b7 c8fa 203d
00000150: 03dd 133d 3e9b b333 4e0f 18b9 e2c4 df3c
00000160: fc44 d7b8 c1b0 2e33 f6ae d43b aac4 c23c
00000170: 56fd 8f34 47b3 1134 5b1e c434 fe8d 7033
00000180: 3384 a0b3 a453 beb7 0108 18b5 00b6 c6b4
00000190: d6f6 25bb de08 0c34 9ae5 e23b 066b 33b8
000001a0: 6785 133d 7034 cf3a 364f a435 3ad3 98b4
000001b0: db14 193d fb4c fb3c 9848 6c34 58a9 ee35
000001c0: 255a 223a 13fa 023d 5a2d 9834 ed7d 84ba
000001d0: 3599 12ba dffd 55b9 0075 b134 b458 c4b1
000001e0: b7da 4a3c 367a 74b9 1100 a9b4 9c69 473a
000001f0: 1d77 b9b9 d13a a535 de8e f2b7 0607 ac3c
00000200: be5f c139 10f5 aa2f 8589 1033 635a c638
00000210: c879 33b2 becc bcb9 32f2 f5b0 c237 eab3
00000220: 7177 03b9 9233 96b1 8bb2 aeb3 c088 f632
00000230: 4834 8832 cd57 de32 1f4e d1b8 1402 07b1
00000240: c610 7bb3 918c 2a39 0669 2032 284a f6b1
00000250: b27c c2b1 fc4f 3034 646c 26b3 16c2 f7b1
00000260: 85e1 1933 fb60 5b33 49d3 8639 8b29 0732
00000270: 5c28 2cb1 ee21 0033 f0e5 a2b3 4bf7 d732
00000280: c039 96b9 d0dd 1239 d57c 87b0 fd4f 87b1
00000290: 9b45 9230 dc57 ae32 507f af32 9b3e 2738
000002a0: 3b66 7033 21f4 e2b9 45b1 b838 0011 f5ae
000002b0: fdc9 9339 a914 96b1 4c5c 0032 f7a0 7132
000002c0: f55a 3ab3 e78f 4c39 d20a 1431 5c23 17b3
000002d0: 64f0 c4b3 9d79 1fb9 9aa2 93b1 7557 8a32
000002e0: 58da 9930 d450 3e39 ebb8 ceb2 eeb8 7439
000002f0: 49ae 8532 10e7 57b2 c1fa 45b2 00c0 8138
00000300: 38bb 0eb2 6eb2 0ab2 0b1b 24b3 64f5 3239
00000310: bcab 2139 b051 6639 0649 9731 b4f4 e431
00000320: f23f a033 2ac7 6ab1 2000 ba2f caa1 94b3
00000330: 00a7 b039 8634 03b8 0f67 2db7 1376 0a37
00000340: 456c 5a32 9085 ccb3 f889 90b1 1407 96b9
00000350: 36cf 8db8 fb67 3432 2dad 0f31 bde2 54b9
00000360: 7ea2 e130 ba86 a4b3 fc98 5138 f068 2238
00000370: 4c0d 3532 d2c0 a7b2 00bf 8cae 221f f532
00000380: efca f732 8f14 0632 0cb9 37b0 740c ea31
00000390: 9a6e a0b3 b12e 47b3 d240 8039 9d22 b2b3
000003a0: 43f5 5db9 efbb ed30 b474 4532 a657 ea31
000003b0: d293 10ba c8a9 eeb8 f754 a8b0 0817 2c33
000003c0: 13b9 7331 73a5 6db8 58da 2a33 9472 5333
000003d0: 96a6 ac32 ee66 a032 eb78 e2b1 a25d 60b3
000003e0: b0e3 9d39 4f07 03b3 0939 1631 cc50 8d31
000003f0: 2765 2739 d82c e431 9f6f c9b2 7e2c 6db9
0.01160239 1.6996507e-06 -8.510578e-09 -0.0038805471 -1.1495372e-06 0.03329828 -1.1269323e-06 -8.989853e-05
0.022660382 1.0640537e-06 5.1607458e-08 0.0020400155 0.002201886 1.619921e-07 0.012302027 -8.222905e-05
1.3859737e-07 0.058842953 0.03365878 -0.011673605 3.463768e-08 7.67146e-05 -0.0008138825 -5.9041682e-05
-0.00017980594 -0.002308383 0.0029999255 2.7974318e-08 2.9313294e-05 -8.45446e-06 -0.0043331194 -2.6196337e-06
0.026826276 0.028239109 2.6910177e-06 6.094014e-07 7.2027433e-07 -8.96387e-07 -1.5878868e-06 -0.0012221419
-6.433025e-09 0.03906029 0.030357406 0.006364111 0.006307081 1.811381e-05 -1.7286143e-06 9.89028e-08
4.9480524e-05 0.003786263 0.0007342029 0.05431427 -0.0024497947 0.03186506 -1.6853335e-06 -7.949822e-08
1.9761791e-07 0.021136567 0.00011742933 0.015295638 -1.8852664e-06 -1.5629382e-09 -0.0006690096 0.01393345
0.00031662913 6.543672e-07 2.0029223e-05 0.024382133 0.01725859 0.014469084 2.9279058e-06 3.5789483e-07
-3.4952592e-08 2.9524028e-07 -6.0574446e-05 -1.1618339e-08 0.008696884 -0.0031722344 -0.006398639 -0.0042028367
4.466192e-06 -0.0028297603 -1.0743945e-05 0.039301664 0.036099445 8.3635754e-08 -0.00014501551 0.02731556
-0.00010264848 4.067329e-08 0.0064905835 0.023775417 2.6820152e-07 1.3569398e-07 3.6529931e-07 5.6008496e-08
-7.4746275e-08 -2.2688713e-05 -5.663606e-07 -3.7012796e-07 -0.0025324128 1.3041742e-07 0.0069243433 -4.27766e-05
0.036015894 0.0015808474 1.2242006e-06 -2.8465894e-07 0.037373405 0.030676356 2.2005622e-07 1.7781667e-06
0.0006193242 0.03197677 2.8345204e-07 -0.001010833 -0.00055922876 -0.00020407837 3.3053948e-07 -5.714435e-09
0.012381247 -0.0002331518 -3.147875e-07 0.00076069846 -0.00035374696 1.2310576e-06 -2.8915176e-05 0.020999443
0.00036883162 3.1096947e-10 3.3652686e-08 9.4582116e-05 -1.0446861e-08 -0.000360107 -1.7894932e-09 -1.09066164e-07
-0.00012537629 -4.3714374e-09 -8.134983e-08 2.8700356e-08 1.5856259e-08 2.5884129e-08 -9.980448e-05 -1.9646267e-09
-5.8455747e-08 0.00016264828 9.337105e-09 -7.167973e-09 -5.6603193e-09 1.6420375e-07 -3.8748468e-08 -7.210711e-09
3.5828197e-08 5.1078114e-08 0.0002571589 7.86748e-09 -2.5052236e-09 2.983318e-08 -7.585538e-08 2.514175e-08
-0.00028653257 0.00014006277 -9.858022e-10 -3.9381107e-09 1.0642681e-09 2.029622e-08 2.0430576e-08 3.987421e-05
5.5972333e-08 -0.0004328797 8.806823e-05 -1.114433e-10 0.00028188518 -4.3679234e-09 7.4715665e-09 1.40646454e-08
-4.3389225e-08 0.00019508564 2.1542985e-09 -3.5189586e-08 -9.170688e-08 -0.00015208726 -4.2967487e-09 1.6105085e-08
1.1194272e-09 0.00018149923 -2.4065647e-08 0.00023338545 1.5562494e-08 -1.2567185e-08 -1.1523924e-08 6.186962e-05
-8.3080565e-09 -8.073227e-09 -3.820882e-08 0.00017066818 0.00015418133 0.0002196494 4.40298e-09 6.663493e-09
7.462212e-08 -3.4164693e-09 3.3833292e-10 -6.921216e-08 0.0003369376 -3.128175e-05 -1.0335599e-05 8.252932e-06
1.2713888e-08 -9.523785e-08 -4.206637e-09 -0.00028615503 -6.762e-05 1.0501021e-08 2.0907678e-09 -0.00020302362
1.6417088e-09 -7.661352e-08 4.997196e-05 3.872154e-05 1.053861e-08 -1.9529043e-08 -6.400391e-11 2.8535911e-08
2.8846868e-08 7.804501e-09 -6.683798e-10 6.811712e-09 -7.470699e-08 -4.6375764e-08 0.00024462357 -8.295067e-08
-0.0002116757 1.7297433e-09 1.1493444e-08 6.820261e-09 -0.0005515191 -0.000113803486 -1.2247757e-09 4.0067818e-08
3.5466357e-09 -5.665929e-05 3.9779792e-08 4.9231474e-08 2.009919e-08 1.8673258e-08 -6.5912125e-09 -5.2239223e-08
0.00030115014 -3.050746e-08 2.1860294e-09 4.1128256e-09 0.00015964043 6.6407715e-09 -2.3450239e-08 -0.00022618656

gnn_layers.2.bias f4 [128]
00000000: 2180 30bd 4a4e b4b7 366a 603e 7cc0 9f3c
00000010: 79fd 2d3c b748 69bc 97fb 6abb bf22 86bd
00000020: e887 1b3e 9f75 83bc b857 56bd ea60 2b3e
00000030: 85ba 1cba cd6f 913c ba99 a33d a5c1 8cbd
00000040: f276 1fbd be77 72bb e761 f93b dfe4 2abd
00000050: 0f23 8c3a 1f1c d23d 3dc1 cb3d 99dc f3b9
00000060: e7b6 65b8 8eae 97bc a083 54ba 8fe3 223d
00000070: 920a 34b9 2af6 7fba 44c0 c13d cf6b 79bd
00000080: a628 263d 6546 07bc ce75 0b3c de62 bf3d
00000090: 45cd c23c bd25 21bd 62b5 ed3c 4443 b23d
000000a0: 1f22 73bd 2a60 173d ab1c 69bd bd4a 743c
000000b0: 7cb5 2bbb c0ee 2c3d 4790 90bc cabb f73b
000000c0: cefa 753e 49e8 343d 31ec 3c3c 29a8 50bd
000000d0: 7b26 d43d 469e eabc 7f47 a5bd 20b3 55bd
000000e0: ef0e 99b7 c0f3 ce3d bd9d 5fbd cb59 54bb
000000f0: e324 d2ba 06f1 60bd c491 be3c 8eb4 113e
00000100: 75b2 453e be26 3f3d ace3 d13d 3ba9 843d
00000110: 14f9 d73b 8bae 16bb 4f70 0c3e 43b4 34bd
00000120: e1cd 67b8 48fd a93b bdc6 9a3d 788c 0abd
00000130: 01e4 e5bc 8d38 e2bd 8021 17bd 9333 243e
00000140: 2bbb 533e 1f1a 51bd f8fb a0bd fb2c c53d
00000150: 181a e2b9 bd76 e3bd bf22 f03d c2e6 fdbc
00000160: cf81 273d b737 d1bc bb02 fa3d 15e1 f13c
00000170: a704 4b3d 647e 55bc f4e7 8a3c 935f a73c
00000180: b085 65bd d3d7 01bd 816b 88bd c131 c03d
00000190: 54c2 dc3d 9bd0 0cbd e485 40b8 cf3a 3d3d
000001a0: f867 e33c 0c36 bd3d 8484 58bc 2236 71bc
000001b0: 1772 343d 8a73 203c a819 f4ba 97c4 b6bd
000001c0: ea13 ca3a 81b1 b63d 27b2 3ebd f471 9d3d
000001d0: 80d6 9d3d 6fc2 543e 693e cdbc bbdc c4b9
000001e0: 6c57 f33c c8b0 453c 4bc9 963d 0a87 e9bc
000001f0: f272 2ebd 1103 55b9 5bd2 9e3d 1f83 25bb
-0.043090943 -2.1494128e-05 0.21915516 0.019500963 0.010619515 -0.014238528 -0.0035855526 -0.06549596
0.15188563 -0.016047297 -0.05232975 0.16736189 -0.00059787213 0.017753506 0.079883054 -0.06872872
-0.038931794 -0.0036997641 0.007610548 -0.041722175 0.0010691601 0.1025927 0.09948967 -0.0004651293
-5.4768196e-05 -0.018515851 -0.0008106772 0.039767798 -0.00017170075 -0.00097641593 0.094605 -0.06089383
0.04056611 -0.008256529 0.008511974 0.09345029 0.02377952 -0.03934263 0.029017154 0.08704236
-0.059358712 0.036956944 -0.056912106 0.014910397 -0.0026200702 0.042219877 -0.017646922 0.007560228
0.24021456 0.044166837 0.011530922 -0.05094162 0.10358902 -0.028639924 -0.080702774 -0.05217278
-1.8245975e-05 0.101050854 -0.05459379 -0.0032402154 -0.0016032722 -0.054917358 0.023262866 0.14229032
0.19306357 0.046667807 0.10248503 0.06477591 0.0065909717 -0.002299222 0.13714717 -0.044117223
-5.526643e-05 0.005187664 0.075574376 -0.033825368 -0.028062822 -0.110459425 -0.036897182 0.16035299
0.20676868 -0.0510503 -0.07860559 0.0962772 -0.0004312552 -0.11106632 0.11725377 -0.030993823
0.04089528 -0.025539262 0.12207552 0.029526273 0.049564984 -0.013030622 0.016956307 0.020431316
-0.056035697 -0.031699967 -0.0666113 0.0938449 0.10779253 -0.03437863 -4.5901063e-05 0.046198662
0.027759537 0.09238824 -0.013215188 -0.014722379 0.044054117 0.009793172 -0.0018623369 -0.08924215
0.0015417312 0.08920575 -0.046556618 0.076877505 0.07706928 0.20777296 -0.025054174 -0.0003754849
0.029704772 0.012066074 0.07362612 -0.028506774 -0.04259009 -0.00020314405 0.07754966 -0.0025255156

gnn_layers.2.lin.weight f4 [128, 128]
00000000: 323e c5bc 8abc 58b1 c706 af36 e507 f0b2
00000010: d851 db32 28ba 52b3 09b7 55bc e232 5eba
00000020: ab5d 4632 c480 83af a042 732f 522b c6b5
00000030: 26ef a4b2 90f5 fc32 3215 f632 abf9 ddbc
00000040: d627 11bd 42ea f8b2 8317 8934 5edd 07bb
00000050: 4a37 9332 1499 1432 02e0 86bc a619 9c30
00000060: 40e7 0036 6486 37b3 b259 e231 9c7a e830
00000070: 97cb 58b6 73c0 1abd 327d 84b2 f0c4 c232
00000080: 4de7 a9bc 9342 b7b2 1dc0 1cb8 d718 c9b2
00000090: 7a48 01bd 6db1 f8bc b649 12b2 a59d 9832
000000a0: 8861 0933 eea8 48b3 02f5 dfbc b603 cdb6
000000b0: 312e 20bc 6a11 5cb2 4e75 9638 0d93 61b6
000000c0: d9a4 2c36 354a 2fb1 2eb1 e2bc 53f7 03bd
000000d0: 6244 cfb2 a9dd 6833 e965 e1bc d783 10bd
000000e0: a034 9c31 fb08 c1b3 e540 52b2 b219 01b3
000000f0: 72c9 1032 fac3 d136 4b38 1db7 c29e 5633
00000100: 0cfc 3c32 ce3f 2f33 db6d 00b6 b070 0dbc
00000110: 9823 16b6 03b4 03bd 4839 4532 1f9b 0fb2
00000120: b563 24b2 8c6c eebc aab7 b22f a875 1eb1
00000130: 817d a9b1 d45d 6731 4b0c cdbc 4a08 44b3
00000140: f627 ff34 3b95 44b0 b2fa 23b3 39b6 01b1
00000150: f287 21bd 22d3 b7bc 7a76 ac36 fe09 22b2
00000160: 6b44 cbbb 765b beb3 2cee 0ab6 d06c 6931
00000170: e458 0fbd d22f 64b7 b734 a1bc 0af9 afbc
00000180: 4c92 1daf 3fb0 e2b9 e0b4 4e32 982b 2332
00000190: bce7 0232 fccc d8b2 b239 d0bc 4fbb 7d31
000001a0: 7913 3932 2d55 40b2 3186 cfbc 348e 7037
000001b0: 7eb5 12bd f452 59b2 03b2 ac32 f3c3 ebbc
000001c0: 805f d4b0 11d5 0bb7 a83b 6733 bf49 30b2
000001d0: 678f 34bb bf0f 70b1 0c51 25b2 5a50 8032
000001e0: 1d35 16b2 7423 44b2 9f08 bcbc 9a19 4632
000001f0: 5c61 c6bc 140f 34b3 1143 1fb3 d822 d032
00000200: 8a12 56b4 8694 c6b2 e81a f633 916c 33b3
00000210: 58b2 262f ac84 bab3 b9fc 3834 78c8 98b3
00000220: 1f44 aab2 2ee2 94b0 ba89 0db2 220c 0cb4
00000230: 3b5e 8633 d4fe b332 9508 5f32 d703 f9b3
00000240: 5dbf 17b4 57d7 2db3 56e0 10b0 149f a233
00000250: 782d d62f 58f7 cc32 f74c 1732 c6ad b931
00000260: 42e0 0234 8cb6 81b3 3eb5 d6b0 aaf6 97b1
00000270: 14aa d7b3 9dfa d4b4 e8da dc31 3b88 b0b3
00000280: 92d9 e3b3 3822 1b33 19c6 cab3 d7f7 0833
00000290: 3b38 8834 8345 8034 89a0 5533 143b 39b3
000002a0: 664a b333 21b8 10b3 be09 8db3 10ba 06b4
000002b0: b1d0 2e34 9678 4033 b9e2 f833 38de 0a34
000002c0: 0709 3ab3 3a8d f732 0838 5eb3 5504 a534
000002d0: a60b f7b2 e39e dd33 b6c3 3ab3 feba 11b2
000002e0: 60aa 102f e325 5d31 283d 5c33 ec7a 20b2
000002f0: 5c74 0eb3 53a6 6233 5639 37b3 b840 0231
00000300: f866 93b2 b8f4 86b3 5a49 f3b3 d02f 0b34
00000310: 42ea c333 32ab 9834 73af 9a31 f428 9832
00000320: 1686 59b2 bd5f 0534 b23b 93b1 f48c 2eb1
00000330: cea0 be32 7040 0b31 6e9e 68b4 fc48 1033
00000340: abd1 a1b3 8e4c 0db3 b66d 5ab3 fd5a 3233
00000350: 41e9 f8b4 e5f4 29b4 d355 8033 e872 96b0
00000360: 6a70 2134 ad7e 9c33 4662 e2b3 7e86 a533
00000370: 696b c733 b086 09b4 a089 3530 c2ce 3fb4
00000380: 4049 3132 6217 55b2 7fb5 3133 75db 6cb2
00000390: ea7c 0e32 4edb b8b2 07e0 20b4 20e5 1d32
000003a0: c053 b1b2 eab0 3730 e0c9 1eb3 f41c 16b4
000003b0: 961c 9ab2 6897 cab0 f8a7 c4b2 a4db f132
000003c0: 9c9e fe30 b828 d433 6b5c c3b3 e000 8ab3
000003d0: ac4f ce33 b69a 18b2 282d 2c30 619a b5b2
000003e0: c4b6 8031 5b39 6e32 3831 20b4 96c2 efb2
000003f0: 6384 5fb4 b5b9 c6b3 1c2d 93b3 583a a632
-0.024077509 -3.153931e-09 5.2161954e-06 -2.7943267e-08 2.5532174e-08 -4.9063743e-08 -0.013044127 -0.000847621
1.15464145e-08 -2.3920255e-10 2.2124391e-10 -1.4764757e-06 -1.9200865e-08 2.944833e-08 2.8647808e-08 -0.02709659
-0.03543838 -2.8977528e-08 2.5535346e-07 -0.002073131 1.7138195e-08 8.64954e-09 -0.016464237 1.1357784e-09
1.9208092e-06 -4.2730235e-08 6.587663e-09 1.6915069e-09 -3.2305013e-06 -0.03778119 -1.5423755e-08 2.267413e-08
-0.020740176 -2.1334278e-08 -3.7372218e-05 -2.3410776e-08 -0.03156326 -0.03035804 -8.515078e-09 1.7766817e-08
3.1986502e-08 -4.671977e-08 -0.027338509 -6.109908e-06 -0.009776638 -1.2809645e-08 7.174407e-05 -3.3613208e-06
2.5725951e-06 -2.5508033e-09 -0.027672376 -0.03221829 -2.4129069e-08 5.4218308e-08 -0.027514415 -0.035281982
4.5461803e-09 -8.9888964e-08 -1.2238364e-08 -3.0058523e-08 8.4277065e-09 6.2515e-06 -9.371036e-06 4.9970147e-08
1.1000349e-08 4.0803393e-08 -1.913743e-06 -0.008632824 -2.237246e-06 -0.032154094 1.14799334e-08 -8.358966e-09
-9.568727e-09 -0.029104494 3.2508513e-10 -2.3058906e-09 -4.9328155e-09 3.366826e-09 -0.025030276 -4.5642345e-08
4.7526527e-07 -7.1516454e-10 -3.81794e-08 -1.8875552e-09 -0.03943629 -0.022439543 5.139792e-06 -9.431913e-09
-0.0062032244 -8.864201e-08 -2.0702237e-06 3.3967815e-09 -0.034996882 -1.3600993e-05 -0.019678457 -0.021481056
-1.4331042e-10 -0.00043237393 1.2031904e-08 9.497761e-09 7.619686e-09 -2.5238926e-08 -0.025418136 3.6922818e-09
1.0772845e-08 -1.1195238e-08 -0.025332542 1.4338224e-05 -0.035817616 -1.2649924e-08 2.0104386e-08 -0.02877996
-1.5452173e-09 -8.334654e-06 5.3838136e-08 -1.0261316e-08 -0.0027551295 -3.4933547e-09 -9.622692e-09 1.49377e-08
-8.743226e-09 -1.1416763e-08 -0.02295333 1.1530938e-08 -0.024216346 -4.192323e-08 -3.708107e-08 2.4230232e-08
-1.9937048e-07 -2.3117774e-08 1.1460162e-07 -4.1775426e-08 1.5160972e-10 -8.685433e-08 1.7228275e-07 -7.1145166e-08
-1.9821583e-08 -1.0832701e-09 -8.238596e-09 -1.304293e-07 6.257002e-08 2.0954225e-08 1.298226e-08 -1.15956645e-07
-1.4132588e-07 -4.0475552e-08 -5.2705695e-10 7.572649e-08 3.895868e-10 2.3861205e-08 8.806857e-09 5.4039644e-09
1.2188778e-07 -6.040236e-08 -1.5622061e-09 -4.422721e-09 -1.0042655e-07 -3.9670422e-07 6.4277295e-09 -8.220419e-08
-1.0610087e-07 3.611987e-08 -9.442392e-08 3.1890377e-08 2.5372887e-07 2.3892434e-07 4.9738933e-08 -4.31274e-08
8.34887e-08 -3.3695077e-08 -6.567596e-08 -1.2547412e-07 1.6280934e-07 4.4813156e-08 1.15896405e-07 1.2933094e-07
-4.331471e-08 2.8818807e-08 -5.1739363e-08 3.0736797e-07 -2.8759882e-08 1.0320016e-07 -4.3484498e-08 -8.482628e-09
1.3157253e-10 3.2181269e-09 5.1278363e-08 -9.341175e-09 -3.316778e-08 5.2770996e-08 -4.2660155e-08 1.8954278e-09
-1.7159877e-08 -6.284375e-08 -1.1328912e-07 1.2962778e-07 9.123006e-08 2.8436767e-07 4.501936e-09 1.7713752e-08
-1.266155e-08 1.242142e-07 -4.2850496e-09 -2.5400455e-09 2.2192037e-08 2.026379e-09 -2.166432e-07 3.359399e-08
-7.535285e-08 -3.2898747e-08 -5.0856862e-08 4.1526608e-08 -4.6363314e-07 -1.5828444e-07 5.976076e-08 -1.0946595e-09
1.503519e-07 7.287358e-08 -1.0541821e-07 7.707875e-08 9.2861974e-08 -1.2808118e-07 6.6042993e-10 -1.7863479e-07
1.0319411e-08 -1.2403548e-08 4.1376094e-08 -1.3786907e-08 8.29389e-09 -2.1520147e-08 -1.4982662e-07 9.1907e-09
-2.0643597e-08 6.682642e-10 -3.6970846e-08 -1.3980372e-07 -1.7940959e-08 -1.4740467e-09 -2.2893786e-08 2.8155974e-08
1.8526012e-09 9.879426e-08 -9.097206e-08 -6.426285e-08 9.607115e-08 -8.882742e-09 6.2637406e-10 -2.1141377e-08
3.7460683e-09 1.3866464e-08 -1.4919067e-07 -2.791175e-08 -2.0816655e-07 -9.2538734e-08 -6.853426e-08 1.9351475e-08

mlps.0.weight f4 [4, 128]
00000000: a36b 8fbc 05a8 b4bd 952b 923c e08d b3bd
00000010: 7d51 d83c 6b81 a0bd a288 c9bb 7d96 eabb
00000020: 02f2 5f3d 51f4 893c c8d6 fd3c 489d 943c
00000030: e33e dbbc 4e25 ef3a 5973 7cbc 1c97 33bc
00000040: b11d bfbb 5b86 b83c 2f62 3ebd 1504 8cbd
00000050: 7c86 4abb 9b7f 49bd b13f 96bd cbaa 5ebc
00000060: 1d59 253d c873 a13c 9cc4 00bc e063 183d
00000070: 4270 123d 5c9c b23d d7b2 463d 55ad 8abc
00000080: 541a af3b bebe e73c 1a8a a7bd 87e3 6dbd
00000090: 6c83 a4bd ec08 793b 1f57 063d a1f0 543d
000000a0: 716d 103d 13d0 ad3d 82bb aabb 67fd 7ebc
000000b0: 8738 b0bc 5c44 2a3d 44c7 083d d993 f9bc
000000c0: b7e0 46bd 0094 99bc ab12 98bc 225a 9abd
000000d0: cbbf 153a b31e ab3c f0a7 923d 075a 8a3c
000000e0: 231b 133c 01bb 513d cbbe 64bd 5c06 1f3d
000000f0: 4e0d a83d 43a1 57bd 41c6 093d 4f96 363d
00000100: b481 04bd be48 093d add2 193d 0292 763a
00000110: 35e6 783d 0895 70bd 06ec 56bd efb9 933d
00000120: 567e 3cbd 9a22 843d 3655 8ebb 144f 06bd
00000130: 1db3 8abd 0693 633d bfbd 05bd ea83 213d
00000140: e3fc 2dbd 2255 5c3d 012d c73c 8756 16bd
00000150: a260 84bd b3e5 953d 789b 713d b9ff 0cbc
00000160: 581c 0cbd 1bd7 693d bbe9 22bd 0041 ae3c
00000170: 89a1 cdbb 3a7c 793d bf31 b33d bf47 db3c
00000180: 1eda 253d 95b8 123c 139d c0bc e9b6 58bd
00000190: ea3c 89bd e44a 893d 1beb 973d 5877 9cbc
000001a0: 5996 353d 1529 67bd 498d afbd 2530 38bd
000001b0: 9f74 aa3d 67b0 3f3d 4510 913d 9e6f 603d
000001c0: d7ce 763d 95ae af3d ddd8 ac3c f594 93bd
000001d0: b42c a5bd 00e3 863d 179a 7b3c 10b7 3b3d
000001e0: f529 903d de89 9abd cc3e 2dbd e098 75bd
000001f0: 9761 6e3d 4200 413d 9069 99bd 7270 433c
00000200: 9cb0 9ebd d190 5cbc 9642 2b3d e0ee 323d
00000210: 3787 0a3c d9cd 2c3d be1d a43d eb5f 8c3d
00000220: 5ead 8dbd 75f3 843c 6cdb 833d cf47 543b
00000230: 806d 333d 1fe7 aebd 77b5 b03c 1e0f 523c
00000240: 297d 153d 40ab 8abd c2ec c0bc 052e 193a
00000250: c8bd 333d 44a0 97bd 5c59 983b 8d00 1cbd
00000260: 5e61 01bc 5bdd c4bc 24d0 82bd 9c74 9e3d
00000270: 1351 653d a9d9 0e3c 1444 b13b 77e8 6d3d
00000280: 8c5a 8cbd 01be 2e3c 4e02 2bbc 14a8 81bd
00000290: 66ec 063c f879 7cbd 3804 83bc c760 3d3d
000002a0: 2a9c 233d 34c8 acbc 08d6 af3d a79a 34bd
000002b0: 3889 833d 490f 49bd 3a8b af3d 3090 49bd
000002c0: 784d 163d dc99 643d 5dce 8cbd 55e0 06bd
000002d0: eea4 3a3d 675e 153d fa01 b73c 0bf2 15bc
000002e0: da4c 0dbd 2284 32bb 6189 503d 0868 c23c
000002f0: ce5e 1ebc 1bd3 13bd 9b5d 56bd d5c3 af3c
00000300: 5824 45bd e95d 35bc ba6e aabd 2542 a63d
00000310: 32f8 7c3d 3c4a 4c3c 94cf df3c 335a 5f3d
00000320: 0199 89bd c136 9d3d f66a 8abd d563 c63c
00000330: f343 903d f4e1 313d f104 303d 16a3 353d
00000340: db0c a33d e8c3 5ebd f2f2 183d 3e81 babc
00000350: 6870 533d 4f85 1e3d 11e2 11bc 0878 203d
00000360: 68b8 5ebd 44c6 353d df78 243d eba2 90bd
00000370: 9202 913d 358e 94bd 6f0b 9abb b646 203d
00000380: 8ce5 a83c e03e 533d 53bf c03c 3267 173d
00000390: a8d0 34bd 2d48 abbc 4c4f 85bd ce88 97bd
000003a0: 737a 5b3d c906 2a3d f439 003d 2b02 82bd
000003b0: 4782 843c c890 7e3d f222 2f3d 4bc7 78bc
000003c0: 1a77 70bd e5a1 d0bb 79cb ab3d 7f6b 193d
000003d0: 18f5 08bc b929 473d 6872 af3d 60d0 4abb
000003e0: 317e 93bd 950c 9ebd 5065 293d b4d8 1cbc
000003f0: c6d6 95ba 1c72 48bd 4ba5 92bd 10e6 4cbd
-0.01750738 -0.0882111 0.017843047 -0.08767295 0.026406044 -0.078371845 -0.006150321 -0.007159053
0.054674156 0.016840132 0.030986205 0.018141404 -0.026763385 0.0018245371 -0.01540836 -0.01096132
-0.005832397 0.022525003 -0.046480354 -0.06836716 -0.0030902913 -0.04919396 -0.07336367 -0.013590525
0.04036819 0.01970853 -0.007859375 0.037204623 0.03575159 0.087212294 0.0485104 -0.016928354
0.0053437147 0.028289195 -0.08180638 -0.058078315 -0.08032879 0.0037999703 0.03279793 0.051987294
0.03526062 0.08486953 -0.005210341 -0.0155633455 -0.02151133 0.0415691 0.03339316 -0.030466007
-0.04855415 -0.01874733 -0.01856359 -0.07536723 0.00057124783 0.020888662 0.07160938 0.016888632
0.008978638 0.05120373 -0.055846017 0.038824424 0.08205663 -0.052644026 0.033636335 0.04457694
-0.032350257 0.033516638 0.03755443 0.0009405912 0.060766418 -0.058735877 -0.052471183 0.072131984
-0.04601892 0.06451912 -0.004343654 -0.03279026 -0.067724444 0.055560134 -0.03265166 0.039432444
-0.0424775 0.053792126 0.024313452 -0.036703613 -0.06463744 0.07319202 0.058986157 -0.008605891
-0.03420672 0.057089906 -0.039773684 0.021271229 -0.00627536 0.060909487 0.08749723 0.02676761
0.040491216 0.008955141 -0.023512399 -0.05290881 -0.067010716 0.067037374 0.0741789 -0.019099876
0.044332836 -0.056435663 -0.0857187 -0.04496779 0.08323025 0.04679909 0.07083181 0.054793946
0.06025585 0.08578221 0.021099502 -0.07206146 -0.08065167 0.065862656 0.015356562 0.04582888
0.07039253 -0.07545827 -0.042296216 -0.059960246 0.058198538 0.047119386 -0.074908376 0.0119286645
-0.07748529 -0.013462261 0.04181155 0.04368484 0.008455089 0.0421885 0.08013485 0.068542324
-0.06917833 0.01622937 0.06438336 0.0032391434 0.0438056 -0.085401766 0.021570904 0.012820987
0.036496315 -0.067709446 -0.023550395 0.0005843344 0.04388216 -0.07403615 0.0046493243 -0.038086463
-0.007896749 -0.024031332 -0.06387356 0.07737085 0.05598552 0.008718886 0.005409727 0.058083024
-0.06853208 0.010665418 -0.010437561 -0.063308865 0.008235073 -0.061639756 -0.015993223 0.046234872
0.03994385 -0.021091558 0.08585745 -0.0440928 0.06422657 -0.049086843 0.08571477 -0.049209774
0.036694974 0.055810794 -0.06875298 -0.032928783 0.045567445 0.036466982 0.02233981 -0.009151946
-0.03449712 -0.0027239402 0.050912265 0.023731247 -0.009666158 -0.036089998 -0.052335363 0.021455685
-0.048130363 -0.011069753 -0.08321901 0.08118085 0.061760135 0.012468871 0.02732066 0.05452938
-0.06718636 0.07676459 -0.067586824 0.024217525 0.0704421 0.043428376 0.042973462 0.044344984
0.07961436 -0.05438605 0.037341066 -0.022766706 0.05162087 0.03870135 -0.008903996 0.03917697
-0.054375082 0.044378534 0.040154334 -0.07062324 0.070805684 -0.07253686 -0.00470107 0.039129935
0.020617269 0.051573634 0.02352873 0.03696365 -0.044144303 -0.02090844 -0.06509265 -0.0739914
0.053583574 0.041510377 0.03130527 -0.0634807 0.016175402 0.062149793 0.042757936 -0.015184234
-0.058707334 -0.0063669556 0.08388419 0.037456032 -0.008359216 0.048623774 0.08566743 -0.0030946955
-0.072018035 -0.077172436 0.041356385 -0.00957315 -0.0011431805 -0.04893695 -0.071604334 -0.050024092

mlps.0.bias f4 [4]
00000000: f391 8cbd f0fb eebc 30ef 073d 5c26 b5bb
-0.06863775 -0.029172868 0.03318709 -0.0055282544

last_layer.weight f4 [4, 20]
00000000: 677a ff3e 43fd f63e c1cb 0a3f 69f8 173f
00000010: 3152 f73e 6cd4 9f3e f110 823e f797 8f3e
00000020: 9217 a23e 5bc2 a33e 4a7a 263e 9994 523e
00000030: 4937 993e 99af 973e 8143 92be fa23 8e3e
00000040: 48fb 7d3e 35b5 613e 1569 8b3e c535 9f3e
00000050: f40e c8be f433 ccbe 8039 d2be 55c7 00bf
00000060: 6631 bebe da7e d83d 7988 f43d 8545 f63d
00000070: 2f7f ad3d 18c4 893f 801b 0fbf af88 05bf
00000080: 438b d4be ae32 bbbe b9a0 7dbf 232c dfbe
00000090: 94a0 ffbe 9c11 05bf 3162 e8be 46f5 babe
000000a0: 7f08 1ebe a1fe 0bbe dfc8 29be 113d f1bd
000000b0: e823 22be a272 6cbe 6584 42be b11b 51be
000000c0: 3ce8 75be 8e37 b8bf 2005 e33e 436a bd3e
000000d0: 1899 333e ce73 f43d 12ea 5e3f c503 1abe
000000e0: 1f7b e2bd a4f5 b7bd 4aa3 11be 83aa 54be
000000f0: f777 9b3d 3a5f 433d cb4a f63d c8c1 0d3e
00000100: d994 6d3d 54d9 c33d 370e 4b3c 6dbf 353d
00000110: 9715 d63d 7df0 a6bf 68b5 2d3e d281 1d3e
00000120: 9923 f73d 6ddf e13d 7d56 b63e be02 b43e
00000130: 62c3 de3e c30d f43e d912 c13e 42b4 983e
0.49898073 0.48240098 0.54217154 0.5936342 0.48304895 0.31216753 0.2540355 0.28045627
0.31658608 0.3198422 0.16257587 0.20564498 0.29924992 0.29626158 -0.28567126 0.27761823
0.24802887 0.22041781 0.2722861 0.3109571 -0.39073908 -0.39883387 -0.41059494 -0.50304157
-0.37147063 0.1057107 0.119400926 0.120249785 0.08471524 1.0762968 -0.55901337 -0.5216169
-0.41512498 -0.36562103 -0.9907337 -0.4358836 -0.499272 -0.51979995 -0.45387414 -0.36515254
-0.15432929 -0.13671352 -0.16580532 -0.117792256 -0.1583401 -0.23090604 -0.18995817 -0.2042072
-0.24014372 -1.4391954 0.44339848 0.36995134 0.1753887 0.119361505 0.8707591 -0.150405
-0.1105864 -0.08982399 -0.14222446 -0.2076817 0.07591241 0.047698237 0.120259844 0.13843453
0.05800328 0.095629364 0.012393526 0.04437201 0.10453337 -1.3042141 0.16963732 0.15381554
0.120673366 0.11028943 0.3561286 0.35158342 0.4350844 0.4766675 0.37709692 0.29825026
