models/protgnn_bacommunity.pt (torch, 166663 bytes, 10 tensors)

prototype_vectors f4 [40, 128]
0	0xb87aa230	-5.9755694e-05
1	0xb86650c4	-5.4911492e-05
2	0xadf46ed9	-2.7788815e-11
3	0x259727bc	2.622125e-16
4	0x38c71364	9.492671e-05
5	0x2252bbe6	2.855978e-18
6	0x3e75cec4	0.24004656
7	0x3dd5b7d2	0.104354516
8	0x3d61b978	0.055108517
9	0xb2cd1fb3	-2.3879556e-08
10	0x1cfb28b8	1.6620312e-21
11	0x2128e09a	5.721787e-19
12	0x238c3506	1.5201287e-17
13	0x1f054fda	2.8229897e-20
14	0x3e83e240	0.25758553
15	0x22857380	3.6172013e-18
16	0x3daf9bcd	0.085746385
17	0x35a5ca75	1.2352381e-06
18	0x3d729f80	0.059234142
19	0x3491ede4	2.7181443e-07
20	0x3b41106b	0.0029459249
21	0x2d74b882	1.3910763e-11
22	0x9acf629e	-8.577252e-23
23	0x38855dbc	6.3593936e-05
24	0x2169a1ff	7.915787e-19
25	0x3c6ae121	0.0143359015
26	0x3c0835f3	0.008313644
27	0x3c759e2b	0.014991323
28	0x3e3596b6	0.17733273
29	0xb2f48b64	-2.8468726e-08
30	0xb86c0c15	-5.6278037e-05
31	0xb09dba97	-1.1476285e-09
32	0xa3087361	-7.397007e-18
33	0x3cfb5589	0.030680435
34	0x37e59fbf	2.7373315e-05
35	0x3de53a23	0.11192729
36	0xb86fcb2c	-5.717126e-05
37	0x229a7ef8	4.1876217e-18
38	0xb606545e	-2.0016664e-06
39	0x3e658f59	0.22417964
40	0x2baa052a	1.208066e-12
41	0xb896768c	-7.1746384e-05
42	0x37599fa8	1.2971381e-05
43	0x3da28238	0.079349935
44	0xb61fc154	-2.3805378e-06
45	0xa5cda894	-3.5676064e-16
46	0x369632a8	4.4762455e-06
47	0x22adb14c	4.7079464e-18
48	0x3dad175e	0.084517226
49	0x3dd2771a	0.10276623
50	0xb9bcb20c	-0.0003599081
51	0x3e7712fa	0.24128333
52	0xb39c94ca	-7.291381e-08
53	0xb71a11e0	-9.183277e-06
54	0x3dc3cb76	0.095602915
55	0xa856f019	-1.1931449e-14
56	0x3d0ba77f	0.034095284
57	0x3c54b835	0.0129833715
58	0x9eb57a96	-1.921482e-20
59	0x1ea4d94f	1.7454052e-20
60	0x3dac84fd	0.08423803
61	0x3d841649	0.06449563
62	0x3319955e	3.5758937e-08
63	0xb77f3aeb	-1.5212902e-05
64	0x9f1e2043	-3.3484488e-20
65	0x3d953e60	0.07287288
66	0x37388730	1.099873e-05
67	0x37ce7b9e	2.4614677e-05
68	0xb6536f1a	-3.150612e-06
69	0x372196b8	9.63144e-06
70	0xb3a97b7c	-7.8921374e-08
71	0x309ebd07	1.1549738e-09
72	0x3c85862a	0.016299326
73	0x32902aa0	1.678319e-08
74	0x3e0cd2cf	0.13752292
75	0x9cf94d01	-1.6497343e-21
76	0x3e2481f5	0.160652
77	0xb79029ee	-1.7185663e-05
78	0x3295a0d3	1.7419017e-08
79	0xadaa91b6	-1.9391471e-11
80	0x35d800ea	1.609352e-06
81	0xba68f6cd	-0.0008886874
82	0x3d63511c	0.055497274
83	0x9e1088a6	-7.651555e-21
84	0x3d23581f	0.03987896
85	0xb87eb950	-6.0730905e-05
86	0x3a304977	0.00067248143
87	0xa1600c27	-7.5910236e-19
88	0x3e61f01c	0.2206425
89	0x3d9660c4	0.07342675
90	0x3d709fea	0.058746256
91	0x3e990e6a	0.2989381
92	0xb82f3834	-4.1775595e-05
93	0x9c0aef39	-4.596956e-22
94	0xb4323402	-1.6596462e-07
95	0xb761b154	-1.34523325e-05
96	0x3dbeda68	0.093190014
97	0x1e0a18b6	7.310769e-21
98	0x3e2d2ec7	0.16912375
99	0x235f19f9	1.2094354e-17
100	0x3038c944	6.7224826e-10
101	0x3daf778e	0.08567725
102	0x3da81bd9	0.082084365
103	0x365f3efa	3.3266247e-06
104	0x3ddea271	0.10870827
105	0x2fdbbf03	3.997159e-10
106	0xa4a41fea	-7.117773e-17
107	0x3a876fea	0.0010333036
108	0xb869737a	-5.5659075e-05
109	0x3dd74092	0.10510363
110	0x1b955ca8	2.470986e-22
111	0xaa0e1f2a	-1.2622946e-13
112	0x2d03846c	7.4758914e-12
113	0x3e2724f4	0.1632269
114	0x38290b31	4.0303163e-05
115	0x1e88455a	1.4428243e-20
116	0xa0c3a2d6	-3.314204e-19
117	0x360b45e3	2.0753293e-06
118	0x2f651884	2.0836138e-10
119	0xb48fbf0b	-2.6774828e-07
120	0xb5f54e40	-1.8276696e-06
121	0x3db87c46	0.09008078
122	0xa7370204	-2.5397444e-15
123	0xb54adb0f	-7.5569636e-07
124	0x3e0ae986	0.13565645
125	0xb7aa02c0	-2.026686e-05
126	0xa1ba197e	-1.2610598e-18
127	0x3d6d669c	0.057959184
128	0xb8fcad3f	-0.00012048566
129	0x3c3d64c2	0.011559667
130	0xaa0c3462	-1.2452672e-13
131	0x28941283	1.6439329e-14
132	0xbca62783	-0.020282513
133	0x9e5962fb	-1.1508353e-20
134	0xbcd82f1f	-0.026389657
135	0xbbd2a2d6	-0.006428103
136	0xbccb2d27	-0.024801804
137	0xae17eb19	-3.4542234e-11
138	0x1fc69e80	8.411848e-20
139	0x1d938f4c	3.905874e-21
140	0xa917737d	-3.3628905e-14
141	0x1f07d6da	2.8765083e-20
142	0xbb83f598	-0.00402708
143	0x22cf0b2d	5.6119295e-18
144	0x3b65f4db	0.0035088572
145	0x34b0c7ec	3.2928017e-07
146	0xbd0fb74a	-0.035086907
147	0xb936e530	-0.00017442252
148	0x3ca674e6	0.020319413
149	0x9f5f7aff	-4.7323827e-20
150	0x9992a7a5	-1.5163757e-23
151	0x38759354	5.8549762e-05
152	0x9b8fc662	-2.3785567e-22
153	0xbbf8b1bc	-0.007589547
154	0x3d57d30c	0.052691504
155	0xbcc9ffbf	-0.024658082
156	0xbc069832	-0.008214997
157	0xb8d5f4ad	-0.00010202206
158	0x394f6491	0.00019778522
159	0x34311375	1.6491488e-07
160	0xa724f83d	-2.2894142e-15
161	0xbc7c866b	-0.015412907
162	0x3a89a8c8	0.0010502571
163	0x3af70edc	0.0018849033
164	0xbc89bd14	-0.016813792
165	0x2a390c70	1.6435616e-13
166	0xbae675ca	-0.0017582711
167	0xbbdab3be	-0.006674259
168	0xaef8f5a5	-1.13213695e-10
169	0xbb4b2d16	-0.0031002215
170	0xb48b39ff	-2.5932965e-07
171	0xbc831f21	-0.016006054
172	0xb4a1551b	-3.005051e-07
173	0x24b470b6	7.8253496e-17
174	0xb435aee4	-1.6920563e-07
175	0x20d4505f	3.5967382e-19
176	0x3b7e661b	0.0038818184
177	0x3c40889d	0.011751321
178	0xbc54d43a	-0.012990052
179	0xbd26a017	-0.040680017
180	0x3017b66e	5.519273e-10
181	0x3bc310dd	0.005952938
182	0xbd39c183	-0.045350563
183	0x32ed39a2	2.761664e-08
184	0x3cc2ea15	0.02379326
185	0xbcb785f6	-0.022402745
186	0xa7b18051	-4.926649e-15
187	0x299669ff	6.6797255e-14
188	0xbba3bf6d	-0.004997185
189	0xbc044188	-0.0080722645
190	0xb59669ed	-1.1206699e-06
191	0xbb836ff2	-0.0040111477
192	0xa03b24d5	-1.5851703e-19
193	0xbd05826b	-0.03259508
194	0xb90fa8c1	-0.00013700408
195	0xb70957d5	-8.186286e-06
196	0x38f74758	0.000117911666
197	0xbb61dc4a	-0.0034463578
198	0xb53d8c3b	-7.061205e-07
199	0xb34eb854	-4.8130758e-08
200	0xbcd16c9a	-0.02556448
201	0xb5d0321a	-1.5511789e-06
202	0xbcfa865f	-0.030581651
203	0x20975bc4	2.564112e-19
204	0xbc64be5c	-0.013961401
205	0x3b3f86a9	0.002922455
206	0xb2d1a84c	-2.4407335e-08
207	0xb16afd87	-3.4195595e-09
208	0x3a053f1e	0.00050829526
209	0x3d4087ee	0.047004633
210	0xbca5faa3	-0.020261114
211	0x9e29f807	-8.998076e-21
212	0xbb0ccceb	-0.0021484445
213	0x3b2ed506	0.0026677265
214	0x3e1fa274	0.15589315
215	0x2dbb2a00	2.127809e-11
216	0xbcf33e5f	-0.029692827
217	0x3d0c9ac6	0.03432729
218	0x3c66ced7	0.0140874
219	0xbc596d41	-0.013270677
220	0x3921cc80	0.00015430339
221	0x2b9dd6aa	1.1215102e-12
222	0x38d015cc	9.922273e-05
223	0x3e1391a5	0.14411028
224	0x3d0403b8	0.03223011
225	0x9b06dd70	-1.115577e-22
226	0xbb48e8b7	-0.0030656287
227	0x2a819600	2.3019087e-13
228	0x35c87bae	1.4937157e-06
229	0xbb7dabee	-0.0038707214
230	0x3c69ca33	0.014269399
231	0xb489f7bd	-2.5698492e-07
232	0xb9e5f1e4	-0.00043858506
233	0x33003fa7	2.9860214e-08
234	0x9e49d2d6	-1.0684451e-20
235	0x3d628fa7	0.05531278
236	0xbc0f141b	-0.008732821
237	0xbb89a13d	-0.0042001293
238	0x9a8db190	-5.86031e-23
239	0xa474ad1c	-5.3055695e-17
240	0xae389d88	-4.1976672e-11
241	0xbcfcb94c	-0.030850075
242	0x3320dd32	3.745408e-08
243	0x1eea03cc	2.4777284e-20
244	0x1c1bcf91	5.155347e-22
245	0xbb290971	-0.002579298
246	0x322325c5	9.4964365e-09
247	0x325f5515	1.2999654e-08
248	0x33c3f574	9.125043e-08
249	0x3cad6c87	0.021169914
250	0xb15289a2	-3.0637257e-09
251	0x34809fab	2.3958032e-07
252	0xbcb2434c	-0.021760605
253	0xbaacd766	-0.0013186752
254	0x27945e8a	4.118075e-15
255	0xbc70ee5b	-0.014705266

gnn_layers.0.bias f4 [128]
0	0xbe06aff3	-0.13153057
1	0x3e0faabe	0.14029977
2	0x3cd3bebd	0.025847787
3	0xbe13e440	-0.14442539
4	0xbe0908de	-0.13382289
5	0xbdc2cb64	-0.0951145
6	0xbdb66f2c	-0.08907923
7	0x3e254ff4	0.16143781
8	0xbd1f975b	-0.038962703
9	0xbde46223	-0.111515306
10	0xbda06f00	-0.078336716
11	0xbe0e3795	-0.1388839
12	0x3dcb3eb9	0.09924073
13	0xbd8d038a	-0.06885441
14	0xbd3b24ed	-0.045689512
15	0xbd2ddeda	-0.042448856
16	0xbdbc4a93	-0.091939114
17	0xba03de1e	-0.00050303515
18	0xbdb27460	-0.08713603
19	0xbdb97377	-0.09055226
20	0xbd18e2e0	-0.03732574
21	0xbd945a9c	-0.07243845
22	0xbd9166b0	-0.07099664
23	0x3cf3500a	0.029701252
24	0xbe075008	-0.13214123
25	0xbc9b9066	-0.018989753
26	0xbb80186d	-0.003909162
27	0xbdc7aff5	-0.09750358
28	0xbe52a2a0	-0.20569849
29	0xbd1548ef	-0.036446508
30	0xbe251971	-0.16122986
31	0xbe03f484	-0.12886244
32	0xbd903568	-0.070414364
33	0xbdd46475	-0.10370723
34	0xbe067d2a	-0.13133684
35	0x3d6923e2	0.056918986
36	0xbe33368b	-0.17501275
37	0xbdca8ebb	-0.09890505
38	0xbdb632e7	-0.088964276
39	0xbc1c04b0	-0.009522602
40	0xbe0ec44e	-0.13942072
41	0x3dd28247	0.10278755
42	0xbdb09771	-0.08622635
43	0xbdf03c97	-0.117303066
44	0x3bcea881	0.0063067083
45	0xba80aa27	-0.0009816334
46	0x3e24b275	0.16083701
47	0xbce73675	-0.02822421
48	0xba10be15	-0.00055214885
49	0xbe0cc9d9	-0.13748874
50	0xbdff2965	-0.12459067
51	0xbc98d74e	-0.018657353
52	0xbe3274f4	-0.17427427
53	0xbdaa42c7	-0.08313518
54	0xbdb78769	-0.08961374
55	0xbd93de8d	-0.072201826
56	0xbdae65bc	-0.08515498
57	0xbe5cdebb	-0.2156934
58	0xbe074a3a	-0.13211909
59	0xbe358b27	-0.17728864
60	0xbe3b681a	-0.1830143
61	0xbd3950ef	-0.0452432
62	0xbdc29c95	-0.09502522
63	0xbd89600f	-0.06707775
64	0xbe4d4ee5	-0.20049627
65	0xbe017e5e	-0.12645862
66	0x3dfa7321	0.1222899
67	0x3e2ad8f6	0.16684327
68	0x3c88f52a	0.016718466
69	0xbd2e100c	-0.042495772
70	0xbcb1f9e8	-0.02172561
71	0x3db7789c	0.08958551
72	0xba659f4c	-0.0008759394
73	0x3e49200f	0.19641136
74	0xbe01d7b9	-0.12679948
75	0xbdd75de1	-0.10515953
76	0xbe457d31	-0.19286038
77	0xbdfaad5f	-0.12240099
78	0xbd414e70	-0.047193944
79	0x3e56b117	0.20965992
80	0xbe2c7d3f	-0.16844653
81	0xbd8f3d49	-0.06994111
82	0xbdcf29be	-0.101153836
83	0xbe9359ac	-0.28779352
84	0x3dcbb4db	0.09946605
85	0xbd4cec78	-0.0500302
86	0x3a68f1e9	0.0008886145
87	0xbdfd0746	-0.12354903
88	0xbe266a08	-0.16251385
89	0xbced8bdd	-0.028997356
90	0xbdda9f15	-0.10674874
91	0xbd9ef543	-0.07761624
92	0xbd960802	-0.07325746
93	0xbc99c828	-0.0187722
94	0xbe1191f9	-0.1421584
95	0xbe0ac77c	-0.1355266
96	0xbd1393a6	-0.03602948
97	0xbe020afc	-0.12699503
98	0x3d974260	0.07385707
99	0xbdc83ea9	-0.097775765
100	0xbd4f9d7c	-0.0506873
101	0xbe0f2b0e	-0.13981268
102	0x3e0b609c	0.13611072
103	0xbdfad87f	-0.122483246
104	0xbe80e6a5	-0.25175968
105	0xbda758cc	-0.081712335
106	0x3d834d73	0.06411257
107	0xbe25609a	-0.16150132
108	0xbd861a90	-0.06548035
109	0xbe049039	-0.12945642
110	0xbdd1609d	-0.10223506
111	0x3d7e738b	0.06212191
112	0xbe71536c	-0.23566979
113	0xbd55be6b	-0.05218355
114	0xbdb3f1af	-0.08786332
115	0xb9206e35	-0.00015299844
116	0xbc0d78c3	-0.008634749
117	0x3ca68a33	0.02032957
118	0xbd32c79f	-0.043647405
119	0x3b6e2b21	0.0036341625
120	0xbe2d2c2d	-0.16911383
121	0xbeab5bb9	-0.33468416
122	0x3c8b9c89	0.017042415
123	0xbb191a92	-0.0023361784
124	0xbe1e3f38	-0.15453804
125	0xbda75f3e	-0.08172463
126	0xbd8a8304	-0.067632705
127	0xbe676de0	-0.22600508

gnn_layers.0.lin.weight f4 [128, 10]
0	0xbc4842ce	-0.012222959
1	0x3d5efc61	0.054439906
2	0x3d5d2bf2	0.053996988
3	0x3d30064b	0.04297475
4	0x3d93b18a	0.07211597
5	0xbcad04ac	-0.021120392
6	0x3c6543d6	0.013993224
7	0xbd8f89bd	-0.07008693
8	0xbddc97cb	-0.1077114
9	0x3e0b74f2	0.1361883
10	0xbd2a9c27	-0.041652825
11	0x3c08d3e0	0.008351296
12	0xbe034d32	-0.12822416
13	0xbe503f3d	-0.20336623
14	0x3d89b11d	0.06723235
15	0x3e2296c5	0.15877827
16	0xbce85601	-0.028361322
17	0x3d919c8e	0.071099386
18	0x3dea806e	0.11450277
19	0xbd78d93e	-0.060754053
20	0x3d3d94d3	0.046284508
21	0x3d4cf728	0.050040394
22	0x3d991e60	0.07476497
23	0x3ca5bfab	0.020232996
24	0xbbbb2aa7	-0.0057118717
25	0x3c5171cb	0.012783478
26	0x3c89e362	0.016832057
27	0xbd1a2047	-0.03762844
28	0xbc0f8d9c	-0.00876179
29	0x3d0bb131	0.03410453
30	0x3cc8f635	0.024531463
31	0x3c9c101b	0.019050648
32	0xbc9d364a	-0.019190926
33	0xbc8faf2b	-0.017539581
34	0x3c2f4942	0.010698618
35	0xbd7396d7	-0.059470024
36	0x3bec8aa9	0.007218678
37	0x3dcda353	0.10040917
38	0xbc201c17	-0.009772322
39	0x3cb9d2a3	0.022683447
40	0xbd92cffb	-0.071685754
41	0x3e537bd6	0.20652708
42	0x3e5e441b	0.21705668
43	0xbbba4f20	-0.005685702
44	0x3de49572	0.11161317
45	0xbddae6ef	-0.10688578
46	0xbd98f7bc	-0.074691266
47	0xbdb39488	-0.087685645
48	0x3cf41fee	0.029800382
49	0x3d9c5fdc	0.07635471
50	0x3d18e71a	0.03732977
51	0xbd30b86e	-0.043144636
52	0x3c3ad509	0.011403331
53	0xbe05c2dd	-0.13062616
54	0x3d1577fa	0.03649137
55	0xbd86bb2b	-0.06578668
56	0x3e253520	0.16133547
57	0xbd21ef2c	-0.039534733
58	0xbdb2c294	-0.08728519
59	0x3e700ad4	0.2344163
60	0xbdaa26be	-0.08308171
61	0x3d815a18	0.06316012
62	0xbd8aa6cf	-0.067700975
63	0xbcd5554a	-0.026041646
64	0x3d004bd7	0.031322327
65	0x3ba11a47	0.0049164626
66	0x3cb3eb4e	0.021962788
67	0xbd9a0c77	-0.07521909
68	0x3b495ba6	0.0030724793
69	0x3b063883	0.002048046
70	0x3e32bd8b	0.17455117
71	0x3d5a1ac1	0.05324817
72	0x3e10a1ac	0.14124173
73	0xbb16f659	-0.0023035018
74	0xbd73b871	-0.05950207
75	0xbd39dd14	-0.045376852
76	0x3c8df168	0.017327026
77	0x3d2128e7	0.03934565
78	0xbe049167	-0.12946092
79	0x3e037f14	0.12841445
80	0x3b6254b4	0.003453535
81	0x3c0b4633	0.0085006235
82	0xb8bb88e9	-8.942356e-05
83	0xb73f8a34	-1.1416665e-05
84	0xb80ed66d	-3.4055138e-05
85	0x37b87085	2.1986905e-05
86	0x372164aa	9.6197855e-06
87	0x376392b1	1.3564409e-05
88	0x3906698b	0.00012818554
89	0xb41e4baa	-1.4742423e-07
90	0xbe52511c	-0.20538753
91	0x3e66fa48	0.22556412
92	0xbda61690	-0.08109772
93	0x3e49c96b	0.19705741
94	0x3d528bbf	0.051402804
95	0xbc8a21fe	-0.016861912
96	0x3cdd48d0	0.027012259
97	0x3dabef6f	0.08395278
98	0xbc175034	-0.0092354305
99	0xbd2379fc	-0.039911255
100	0x3de4709d	0.11154292
101	0x3ddaf284	0.106907874
102	0x3d208af4	0.039195016
103	0x3d39a69f	0.045324918
104	0x3e06780d	0.13131733
105	0x3d04f455	0.032459576
106	0x3d3dfd18	0.046383947
107	0xbddc75d0	-0.107646585
108	0xbda31ede	-0.07964872
109	0xbd57568b	-0.05257277
110	0x3d1bff8e	0.038085513
111	0xbcfe4255	-0.031037489
112	0x3c553d2e	0.013015075
113	0xbae259ae	-0.0017269158
114	0x3b0dae42	0.0021618758
115	0xba8667db	-0.001025434
116	0xb9ba6130	-0.00035549095
117	0xbb5dee80	-0.003386408
118	0x3a827124	0.0009951931
119	0xb938217a	-0.00017560078
120	0x3da2b8de	0.07945417
121	0x3d2f0872	0.042732663
122	0x3d4beb17	0.049784746
123	0x3a5fb877	0.00085342623
124	0x3d51a6c5	0.051184434
125	0xbcc7f61d	-0.024409348
126	0x3d2c358b	0.04204325
127	0xbdf34dd7	-0.11880081
128	0x3cdd5bca	0.027021307
129	0x3aac6610	0.0013152976
130	0x3e8d459f	0.2759218
131	0xbd71f2f4	-0.05906959
132	0x3e3fb18d	0.18720074
133	0xbd5d1450	-0.05397445
134	0xbdd3550f	-0.10318958
135	0xbdb9ad68	-0.09066278
136	0xbdaed4b6	-0.08536665
137	0xbbe2e153	-0.0069238334
138	0x3da2a527	0.079416566
139	0x3cb2b6b0	0.021815628
140	0x3e48d1c1	0.19611265
141	0x3e34e5c2	0.1766577
142	0xbbcf158f	-0.0063197087
143	0x3cc9d4fe	0.024637695
144	0x3d430926	0.047616147
145	0x3d7b47aa	0.06134764
146	0x3cfe4923	0.031040734
147	0xbd79ae70	-0.060957372
148	0x3d28ef24	0.041243687
149	0x3d20e29e	0.03927862
150	0x3c62ea61	0.013849826
151	0xb9bd1ae3	-0.0003606892
152	0x38c72bb5	9.4972005e-05
153	0x38ce473c	9.836114e-05
154	0x3994da92	0.00028391607
155	0x3942cae0	0.00018576859
156	0xb801e243	-3.096672e-05
157	0x3ac5f5e0	0.0015103184
158	0x379f7da4	1.9012783e-05
159	0x34a1bcad	3.0125867e-07
160	0x3df40610	0.11915219
161	0x3e022672	0.12709978
162	0x3c2de4e6	0.010613656
163	0x3a49b18b	0.00076939975
164	0x3dabdab8	0.08391327
165	0x3d8602f0	0.06543529
166	0x3cb3caf4	0.021947362
167	0xbd7adc6c	-0.061245367
168	0x3c6ded4e	0.01452191
169	0x3d62fb03	0.055415165
170	0x38b1a74d	8.47118e-05
171	0xb78b06cc	-1.6573256e-05
172	0xa8aae0f7	-1.8971354e-14
173	0xa993a2da	-6.5563616e-14
174	0xb3481f49	-4.6594582e-08
175	0xb42d5635	-1.6143242e-07
176	0xaa126073	-1.3000867e-13
177	0xa2abf744	-4.6611446e-18
178	0x22f99ddc	6.7658725e-18
179	0xa804a4ed	-7.3632345e-15
180	0x3d9e0209	0.07715232
181	0x3d370957	0.04468664
182	0xbe14ba06	-0.14524087
183	0xbdc366cb	-0.095410906
184	0xbd8ae2cb	-0.067815386
185	0x3d015590	0.03157574
186	0xbda0918e	-0.07840262
187	0x3df47f6a	0.11938365
188	0xbd117211	-0.035509173
189	0x3ad09d46	0.0015916012
190	0x3d19d8cf	0.03756028
191	0x3d17c2c2	0.03705097
192	0x3d427f22	0.047484525
193	0xbcff9378	-0.031198248
194	0x39d286a0	0.00040154625
195	0x3cdf7420	0.027277052
196	0x3c8a5a26	0.01688869
197	0x3d0e20ff	0.034699436
198	0xbd14ba24	-0.03631033
199	0x3d1050a7	0.035233166
200	0x3ce9a9e6	0.028523397
201	0x3d951bd5	0.07280699
202	0xbb6cb3ce	-0.0036117914
203	0xbd09f741	-0.033683065
204	0x3d80e3fa	0.06293483
205	0x3c0c9206	0.008579737
206	0xbd5fbf40	-0.05462575
207	0xbbc32a77	-0.00595599
208	0xbc8d7d18	-0.017271563
209	0xbd11554a	-0.03548173
210	0x3dce93b9	0.100867696
211	0x3dda4d7d	0.10659311
212	0x3cfeaae9	0.031087356
213	0x3e9c8916	0.30573338
214	0x3d4962b3	0.049166393
215	0x3e0fd2f3	0.14045314
216	0x3e310a34	0.17289048
217	0x3cd263d6	0.025682371
218	0x3dbd0662	0.09229733
219	0xbce169c5	-0.027516255
220	0xbc7a15ea	-0.015264014
221	0x3cabbb14	0.02096323
222	0x3b795e92	0.0038050753
223	0xbc146535	-0.009057333
224	0x3b549a12	0.0032440466
225	0xbc239f71	-0.009986744
226	0xbc49ab7c	-0.0123089515
227	0xbbd1e42d	-0.0064053745
228	0x3c12cbe1	0.008959741
229	0xbc0d3db4	-0.008620668
230	0x3cdef2c1	0.027215363
231	0x3d1affb2	0.037841506
232	0x3dc406db	0.0957162
233	0x3d15bc32	0.03655643
234	0xbd9d9619	-0.076946445
235	0xbca94289	-0.02066161
236	0xbc0d86d6	-0.008638104
237	0x3d1b241d	0.037876237
238	0x3c8f2be4	0.017476983
239	0x3ca39856	0.0199701
240	0xbd2327fa	-0.039833046
241	0x3cd7b352	0.026330624
242	0xbc7649b9	-0.015032225
243	0x3c505071	0.012714491
244	0xb91bb1d7	-0.00014848202
245	0x3b5f44a2	0.0034068008
246	0xbcb0bc46	-0.02157415
247	0x3d33adc1	0.043866877
248	0x3be08565	0.0068518394
249	0xbc6251d2	-0.013813453
250	0x3a971ea7	0.0011529521
251	0x3aa242d3	0.0012379534
252	0x334d0ebc	4.7743683e-08
253	0xb484a572	-2.4707293e-07
254	0xb615d4d8	-2.2326622e-06
255	0xb7d8da76	-2.5850935e-05

gnn_layers.1.bias f4 [128]
0	0x3d40b2d3	0.04704554
1	0x3dafb8e4	0.08580187
2	0xbc13aacd	-0.00901289
3	0x3e2204af	0.15822099
4	0xbdaf8ed5	-0.08572165
5	0xbb6af3e0	-0.0035850927
6	0xbc6ab55c	-0.014325466
7	0xbc9b7278	-0.018975481
8	0xbcf9bab5	-0.030484537
9	0xbbe9de28	-0.007137079
10	0xaa27ed63	-1.491494e-13
11	0x3d946965	0.07246665
12	0x3b994131	0.004676961
13	0xbb8d08b3	-0.0043040155
14	0xb7fd9a86	-3.0231906e-05
15	0xbd7f67fa	-0.06235502
16	0xbbc24f10	-0.005929835
17	0xb032780b	-6.4926614e-10
18	0xbd667af8	-0.056269616
19	0xb3a8e379	-7.864487e-08
20	0xb9ad417e	-0.00033045927
21	0xbb422015	-0.0029621173
22	0xbc904d11	-0.017614873
23	0x3d3db454	0.046314552
24	0x3d146556	0.036229454
25	0xbd022c1e	-0.031780355
26	0xbadcd4ba	-0.0016848065
27	0xb229c792	-9.882472e-09
28	0xbe3c833d	-0.18409438
29	0xba64ba08	-0.00087252306
30	0xbbe03a7e	-0.0068429103
31	0xb783cc72	-1.571162e-05
32	0xbc1fe5b8	-0.009759359
33	0x3dc27eaa	0.094968155
34	0x3c34b7ba	0.011030132
35	0x3bff809d	0.0077973143
36	0xb0ea28cf	-1.7037339e-09
37	0xaf1bfca1	-1.418692e-10
38	0xb50d0203	-5.252952e-07
39	0xb70ab39c	-8.26726e-06
40	0xbcaec3e4	-0.021333642
41	0xbe135717	-0.14388691
42	0xbdd15c73	-0.102227114
43	0xbbe42eb8	-0.006963577
44	0xbc0bcbb3	-0.008532452
45	0xaf9dc2b8	-2.869649e-10
46	0xbde0d85a	-0.10978766
47	0xb9c17851	-0.0003690147
48	0xbda6d5c4	-0.08146241
49	0x3d616ac9	0.05503348
50	0xbd30dd7a	-0.043179967
51	0xbca4a6fd	-0.020099157
52	0xae94324b	-6.7391946e-11
53	0x3d379390	0.04481846
54	0xb1b781e5	-5.3407683e-09
55	0xb9d59c12	-0.00040742807
56	0xb71d1018	-9.361676e-06
57	0xbabc9c15	-0.0014389778
58	0xb7d3640a	-2.5199744e-05
59	0xbd4a6196	-0.04940947
60	0x3d2f97f3	0.04286952
61	0xb30f2686	-3.332982e-08
62	0xb5085227	-5.0783495e-07
63	0xb576b1d0	-9.190089e-07
64	0xba17f3ce	-0.00057965226
65	0xbd95f2fb	-0.073217355
66	0xaa80147d	-2.2751584e-13
67	0xafeeb119	-4.3417783e-10
68	0xb4fbcbd2	-4.6900692e-07
69	0xaa100573	-1.279166e-13
70	0xb90e5dc5	-0.00013577107
71	0xbacdb98b	-0.0015695555
72	0xbd578b50	-0.052623093
73	0xb015bc91	-5.4473853e-10
74	0xbdf34c34	-0.11879769
75	0xbc19dc43	-0.009390893
76	0xafe05308	-4.080436e-10
77	0x3d00ac34	0.031414226
78	0xbcbd1add	-0.023084098
79	0xbd62cdbb	-0.05537198
80	0xb22c469f	-1.0027775e-08
81	0xbdea0430	-0.1142658
82	0xbc80bf0a	-0.015716095
83	0xba25a89d	-0.0006319376
84	0x3de0c165	0.10974387
85	0xbd21e012	-0.03952033
86	0xbcc5e8bf	-0.024158834
87	0xbb1aeb0f	-0.002363864
88	0xb2c296ee	-2.2653207e-08
89	0xaadf33de	-3.9648748e-13
90	0xbcd143ea	-0.02554508
91	0xbd6fbfbf	-0.058532473
92	0xbaa37fc0	-0.0012473986
93	0xbc82aad9	-0.015950607
94	0xbda73fb9	-0.08166451
95	0xbd89919d	-0.06717227
96	0xb89355b9	-7.025473e-05
97	0x3da85fcc	0.08221397
98	0xba510992	-0.00079741434
99	0xb70c236e	-8.352899e-06
100	0xbb561e2b	-0.003267179
101	0xba31841b	-0.00067716994
102	0xb4543d65	-1.9766374e-07
103	0xbc9da979	-0.01924585
104	0x3de028ef	0.109453075
105	0xbc39f5d8	-0.011350118
106	0xbb5e1852	-0.0033889008
107	0xb7ffa240	-3.0473922e-05
108	0x3eaa8a42	0.33308607
109	0x28442fab	1.0890522e-14
110	0xbbc23ade	-0.0059274277
111	0xb9b96c43	-0.0003536661
112	0xbd3591a4	-0.044328347
113	0xbe18782f	-0.14889596
114	0xb76d917e	-1.4160176e-05
115	0xbae9ad07	-0.0017828055
116	0xbdc67329	-0.09689934
117	0xbd051408	-0.032489806
118	0x3d8a903a	0.0676579
119	0xbcd042fe	-0.02542257
120	0xbc27f65d	-0.010251609
121	0xb58b8196	-1.0394022e-06
122	0xbc913b38	-0.017728433
123	0xbd67cc5e	-0.056591384
124	0xbbd58ba6	-0.0065168915
125	0xb872360f	-5.7747642e-05
126	0xb70d76a4	-8.431878e-06
127	0xbc1e7b26	-0.009672916

gnn_layers.1.lin.weight f4 [128, 128]
0	0xbd465f5b	-0.04843078
1	0xbd109bce	-0.035304837
2	0x3d6b5a32	0.057459064
3	0xbd5df61d	-0.05418979
4	0x3c99de67	0.018782808
5	0xbcc159d9	-0.023602413
6	0xbbafb82e	-0.005362532
7	0x3db6e05c	0.08929512
8	0xab329fc3	-6.346002e-13
9	0xbd9ee156	-0.07757823
10	0xbba6edc0	-0.00509426
11	0xb9b59d9d	-0.0003464044
12	0x3e12b0e5	0.14325292
13	0xbdecd72b	-0.115644775
14	0x3d337def	0.04382127
15	0x35a9f1ad	1.2661818e-06
16	0xbd1bfea6	-0.03808465
17	0x1b096381	1.1364526e-22
18	0x3d7973a2	0.06090129
19	0xbc94c484	-0.018160112
20	0x3da78e7c	0.081814736
21	0x3d1026c5	0.035193224
22	0xba1eda08	-0.0006059711
23	0x3cc354e4	0.02384419
24	0xba59896a	-0.00082983694
25	0xa30f97b0	-7.784167e-18
26	0x2908602b	3.028148e-14
27	0x3e06340f	0.13105796
28	0xbe224201	-0.15845491
29	0xbd3087ad	-0.04309814
30	0x3b43188c	0.002976927
31	0xbd5c3466	-0.05376091
32	0xbcb0d76a	-0.021587092
33	0xbc74452c	-0.01490907
34	0xbb83f01e	-0.004026427
35	0xbda5fd44	-0.08104947
36	0x3bbcd967	0.005763221
37	0x3bc52697	0.006016563
38	0x3ac267a7	0.0014831916
39	0xb62352ce	-2.4337091e-06
40	0xbdddad2d	-0.10824046
41	0x3ca6ecf0	0.020376652
42	0xb99e7a69	-0.0003022731
43	0xbd7c27ca	-0.061561383
44	0xbc4590b5	-0.012058427
45	0x360be341	2.0844893e-06
46	0x3e194e43	0.1497126
47	0x3b66d808	0.003522398
48	0xb6fec159	-7.5922985e-06
49	0x3bc53f73	0.0060195266
50	0xbc55bd4f	-0.013045623
51	0x3ba58fe7	0.005052555
52	0xbbcb9c7d	-0.006213723
53	0xbc334042	-0.010940613
54	0xbbf01c5d	-0.0073276
55	0xbc90eb2e	-0.017690267
56	0xbd0fdb41	-0.035121206
57	0xbdc0a5db	-0.094066344
58	0xbad3232e	-0.0016108507
59	0x39b679fe	0.00034804636
60	0x3cc58595	0.024111548
61	0xbc1e96af	-0.00967948
62	0x3c1dc396	0.009629151
63	0x3cf7cdcd	0.0302495
64	0xbc971ae5	-0.018445441
65	0x3cb14af7	0.021642191
66	0x3e5d7cba	0.2162961
67	0x3e6b215c	0.22961944
68	0xbd8e2b93	-0.06941905
69	0xbd00e6fd	-0.031470288
70	0xbdd092a0	-0.101842165
71	0x3e3cfa67	0.18454896
72	0x1a40e93d	3.9893078e-23
73	0xbbe8485c	-0.007088704
74	0x3b9e62e7	0.0048335674
75	0xbc0b1f5b	-0.008491362
76	0xbd41c907	-0.047310855
77	0xbd90419c	-0.07043764
78	0x3b911bd1	0.004428365
79	0xbd4b49dc	-0.049630985
80	0xbd4befab	-0.049789112
81	0x3c385cdb	0.011252607
82	0xbca4eea8	-0.020133331
83	0xbdba5c9a	-0.090996936
84	0x3e4e61cf	0.20154499
85	0x3d3dfa6a	0.04638139
86	0xbc8d150d	-0.017221952
87	0xbd2e02a1	-0.042482976
88	0xbdb0f822	-0.086410776
89	0xac8d1151	-4.0093835e-12
90	0xbc8a2685	-0.01686407
91	0x3bf7bd87	0.007560435
92	0xbd5ee24d	-0.054415036
93	0xbd337eea	-0.043822207
94	0x3c32e204	0.010918144
95	0xbba6867d	-0.00508195
96	0x3d047626	0.032339238
97	0xbd191c0f	-0.037380274
98	0x3d2b18aa	0.04177157
99	0xbcc1b6bd	-0.023646707
100	0x3bba52a9	0.0056861234
101	0xbdbc868e	-0.09205352
102	0x3e6b93bb	0.23005573
103	0x3d7aef84	0.061263576
104	0xbda0f671	-0.07859505
105	0x3d4f2f07	0.05058196
106	0x3e0a1df8	0.13487995
107	0xbdab439a	-0.08362503
108	0xbcb813c6	-0.022470366
109	0x3da8f4f9	0.0824985
110	0xbdb8fcce	-0.09032594
111	0xbcf92f50	-0.030418068
112	0x3bf58472	0.0074925954
113	0x3a65be8d	0.0008764051
114	0xbb92eb90	-0.0044836476
115	0x25b1ae1d	3.082259e-16
116	0x2295f206	4.0642783e-18
117	0x3dfbd902	0.1229725
118	0xbddf2849	-0.10896356
119	0xbcccfa40	-0.025021672
120	0xbd51efdf	-0.05125415
121	0x3c2b2ce6	0.010447716
122	0x3dae607e	0.08514498
123	0x3c7f550c	0.015584242
124	0x3d5ccde3	0.053907286
125	0x3ca9c56b	0.020724019
126	0xbd33a312	-0.043856688
127	0xbc9e09d5	-0.019291798
128	0xbc028ee0	-0.007968634
129	0xbdb300ec	-0.0874041
130	0x3d55fe5e	0.052244537
131	0xba70456f	-0.000916562
132	0x3d4a0e5f	0.04933011
133	0xbda03ed8	-0.078244865
134	0x3c926856	0.017872017
135	0x3d8ac972	0.06776704
136	0x2b5c0142	7.8161446e-13
137	0x3db3beae	0.08776604
138	0xbc804fa1	-0.01566297
139	0x2e740ced	5.5490657e-11
140	0x3d74fb7f	0.059810158
141	0x3cf2494d	0.029575968
142	0xbc1f652e	-0.009728713
143	0xacab97a4	-4.876948e-12
144	0xbd08e832	-0.033424564
145	0x9b04f556	-1.0998056e-22
146	0x3bbbf145	0.0057355487
147	0x3ca68a43	0.0203296
148	0x3c18200b	0.009284983
149	0xbcb8dbef	-0.02256581
150	0xb9b8f2eb	-0.00035276203
151	0x3cf1e3b0	0.029527515
152	0x3b265db3	0.002538544
153	0x2e1af5f4	3.5233996e-11
154	0xb218da34	-8.897178e-09
155	0x3db58ea3	0.088650964
156	0x3bebbc8e	0.0071941083
157	0xbb78e2df	-0.0037977023
158	0xbb2dddf7	-0.0026530006
159	0x3a448b16	0.0007497532
160	0xbc91f017	-0.01781468
161	0xbaf4c96f	-0.0018675755
162	0xb93d279e	-0.00018039203
163	0x3cbc8db5	0.02301679
164	0x3cc45062	0.02396411
165	0xbb23f81e	-0.0025019716
166	0x3c7b7c3d	0.015349445
167	0xb669730d	-3.4786674e-06
168	0xba6d0e2d	-0.0009042945
169	0xbce3f1c7	-0.02782525
170	0xbb707034	-0.0036687972
171	0x3caf74a8	0.02141793
172	0xbdc1cfa7	-0.09463435
173	0xb52efa7f	-6.518457e-07
174	0x3bc4ba8c	0.0060036834
175	0x3d1d5a83	0.038416397
176	0xb7c7f491	-2.3836534e-05
177	0xbba3bdaa	-0.004996975
178	0xbdcd370a	-0.100202635
179	0xbd7aaff7	-0.06120297
180	0xb6eeaa4c	-7.112778e-06
181	0x3a828033	0.0009956419
182	0xb931bf10	-0.00016951212
183	0xbdf79d1a	-0.120905116
184	0xbd533935	-0.05156823
185	0x3d647a43	0.05578066
186	0x3d1d0506	0.03833487
187	0xbcf2c9ef	-0.029637305
188	0x3bde9209	0.006792311
189	0x3c1668b6	0.0091802385
190	0xbb9e8a35	-0.004838253
191	0xbd1ad28a	-0.037798442
192	0xbd8e586d	-0.0695046
193	0xbc4686d1	-0.012117104
194	0x3d4d95ed	0.05019181
195	0x3d32cdf7	0.043653455
196	0xbacdd6a3	-0.0015704226
197	0x3c6f52ea	0.014607171
198	0x3cab7e00	0.020934105
199	0xbc87c2e6	-0.016572427
200	0x2d16b374	8.566359e-12
201	0xbc4869ed	-0.012232286
202	0xbd2ccdb7	-0.042188372
203	0x392dc0db	0.0001657041
204	0xbc991c58	-0.018690273
205	0xbc3d9428	-0.011570968
206	0x3bd7677d	0.006573616
207	0xbbf17fd6	-0.0073699756
208	0xbd8cadca	-0.06869085
209	0x3caf64e2	0.02141041
210	0xbbaceef3	-0.0052775084
211	0xbd2661e6	-0.040620707
212	0x3d9b8969	0.07594568
213	0xbdb3abc2	-0.087729946
214	0x3c483c85	0.01222146
215	0xbce1fdb2	-0.027586792
216	0xbc088864	-0.008333299
217	0x30c82e58	1.4565087e-09
218	0xbd4c73eb	-0.049915235
219	0x3c92b0d2	0.01790658
220	0xbbc01fef	-0.005863182
221	0xbd4b243d	-0.049595106
222	0xbb6f217f	-0.003648847
223	0x3bae7b4b	0.0053247563
224	0xba980074	-0.0011596815
225	0x3d1689dc	0.036752567
226	0xbdc3408a	-0.09533794
227	0x3ce9f3d5	0.028558651
228	0x3cc864f9	0.02446221
229	0xbd2729a4	-0.040811196
230	0x3d366d88	0.04453805
231	0x3cf21f8b	0.029556056
232	0x3d1abea2	0.037779458
233	0xbd045aab	-0.03231303
234	0x3a60c162	0.0008573738
235	0xbb90b5f4	-0.0044162218
236	0xbdc06ef2	-0.09396161
237	0xbd9a0505	-0.07520489
238	0x3c8c2799	0.017108725
239	0x3cc8bc5a	0.024503876
240	0x3dd9b65f	0.10630488
241	0x3a34c038	0.0006895098
242	0x3bacdd6c	0.005275419
243	0x21fb9b42	1.7049518e-18
244	0x2e2975b2	3.8530686e-11
245	0xbd2b95a0	-0.04189074
246	0xbcb5fe56	-0.022216003
247	0x3be39d05	0.0069462084
248	0xbd5403c0	-0.05176139
249	0xbda11da0	-0.07866979
250	0x3bee4757	0.007271688
251	0xbce14468	-0.027498439
252	0x3d22b11d	0.03971969
253	0xbd0c3188	-0.034226924
254	0xbd289722	-0.041159756
255	0xbd95590a	-0.072923735

gnn_layers.2.bias f4 [128]
0	0xbb0123b9	-0.001970513
1	0x3d97cb88	0.074118674
2	0xb802474b	-3.1060812e-05
3	0xbd2d0ffe	-0.04225158
4	0x3df41298	0.11917609
5	0xbb7e06f4	-0.0038761469
6	0x3e3bb061	0.18329002
7	0x3e04d63c	0.12972349
8	0xbd6a5ce3	-0.05721749
9	0xb7c4fb41	-2.348202e-05
10	0xbc077473	-0.00826751
11	0xb61e4a05	-2.358692e-06
12	0xb97e7df0	-0.00024270243
13	0xba35b65a	-0.00069317746
14	0x3e72aac6	0.23697957
15	0xb675b6b6	-3.6614197e-06
16	0x3d98ebc7	0.07466846
17	0x393a1a91	0.00017748239
18	0x3e7eebbb	0.24894612
19	0x3b4191ee	0.0029536444
20	0x3e0f1926	0.13974437
21	0xb77c3a71	-1.5033977e-05
22	0xb58a1b46	-1.0289739e-06
23	0xbda985ad	-0.0827745
24	0xb2cbefd8	-2.3741379e-08
25	0x3e6b1b22	0.22959569
26	0xbdbae245	-0.09125189
27	0x3eb2addc	0.3489827
28	0x3e37d3f4	0.17951947
29	0xb952dd25	-0.00020109543
30	0xbd177f32	-0.036986537
31	0x3c598749	0.013276883
32	0xbbb43abf	-0.005500167
33	0xbd88177a	-0.06645103
34	0x3cdabba4	0.026700802
35	0x3df5e46f	0.12006461
36	0x3cdaa3c0	0.02668941
37	0xaee4323d	-1.0377164e-10
38	0xbd139c3c	-0.03603767
39	0x3e5bd89f	0.21469353
40	0xb66e5952	-3.5516755e-06
41	0xbc986d44	-0.01860679
42	0xbb381dbb	-0.0028093893
43	0x3e341860	0.17587423
44	0xb82cdf4b	-4.1215953e-05
45	0xbb0bfab9	-0.002135916
46	0x3b0fff21	0.0021972137
47	0xb9d0a33d	-0.00039794474
48	0x3d895ce3	0.0670717
49	0x3e40f321	0.18842746
50	0x3de075bf	0.10959958
51	0x3e16cbae	0.14726135
52	0xb93b8b9f	-0.00017885723
53	0xbd03f68d	-0.03221755
54	0xbdc29f01	-0.09502984
55	0xbcd41a81	-0.025891544
56	0xbdb84432	-0.08997382
57	0x3ea6d248	0.32582307
58	0xbdbe1cad	-0.09282813
59	0xbb11d0dd	-0.0022249736
60	0x3d922b46	0.0713716
61	0x3d7e1eb0	0.062040985
62	0xbc3d1926	-0.01154164
63	0xbcc4d609	-0.024027841
64	0xbb36556a	-0.0027821907
65	0x3c820bac	0.015874706
66	0xba940811	-0.0011293908
67	0x3bceaa60	0.0063069314
68	0xbc9ad0d7	-0.01889841
69	0xbd13c277	-0.036074128
70	0xb9b8159a	-0.0003511131
71	0xb9bb0bbd	-0.00035676165
72	0x3ebab83d	0.36468688
73	0xba1c0f28	-0.0005953186
74	0x3e056b09	0.13029112
75	0xbca6a1c4	-0.020340808
76	0x3e3dfa44	0.185525
77	0xbccf5562	-0.025309268
78	0xbdde5425	-0.10855893
79	0xbdc10b13	-0.0942594
80	0xba850d75	-0.0010151105
81	0xbe0ca980	-0.13736534
82	0xbc8821ad	-0.01661762
83	0xb7a9d6fb	-2.0246478e-05
84	0x3de68742	0.11256267
85	0x3d8f9536	0.070108816
86	0xbdc7e17a	-0.09759803
87	0xbab2f935	-0.0013654592
88	0x3e4e595c	0.20151275
89	0x3e2d09c7	0.16898261
90	0xbe2f2e93	-0.1710761
91	0x3e763b14	0.24045974
92	0xbc85498e	-0.016270425
93	0xbc2e52a0	-0.0106398165
94	0xbc5a2bf4	-0.013316143
95	0x3c628c82	0.013827445
96	0xbe73dde4	-0.23815113
97	0xbcbe1191	-0.023201736
98	0x3e2e5d5b	0.170278
99	0xb8ae9722	-8.325117e-05
100	0xb43bbd34	-1.7484564e-07
101	0x3d9cb742	0.07652141
102	0x3e34396a	0.17600027
103	0xbbd5ae2e	-0.006521008
104	0x3e0334de	0.12813136
105	0xbd662a38	-0.056192607
106	0xb6904bea	-4.300372e-06
107	0xbd961f0c	-0.073301405
108	0x3ccbc8df	0.024876056
109	0x3dc1b992	0.09459223
110	0xbc2055c1	-0.00978607
111	0xabee84d1	-1.6947781e-12
112	0xbced2b72	-0.02895138
113	0x3e29c740	0.16579914
114	0xb818d2ce	-3.643595e-05
115	0xbbbf186e	-0.0058317697
116	0xb03d65f8	-6.8902706e-10
117	0x3c0c3358	0.008557163
118	0x39388d9c	0.00017600361
119	0xbc407161	-0.011745782
120	0xb74ae698	-1.20938275e-05
121	0x3e3a4c14	0.18193084
122	0xbb8c6ec5	-0.0042856657
123	0x3a4b87c1	0.00077640644
124	0x3e1d7e80	0.15380287
125	0x3d6fc8c4	0.058541074
126	0xbe00f18c	-0.12592143
127	0x3d63b26e	0.055590086

gnn_layers.2.lin.weight f4 [128, 128]
0	0xbc4c4fc6	-0.012470191
1	0x3c6c784c	0.014432978
2	0x35c4147d	1.4609101e-06
3	0xbca9421e	-0.02066141
4	0xb96268f2	-0.00021592135
5	0x99ddabbd	-2.2920229e-23
6	0xa580f257	-2.2368676e-16
7	0xb0ce331f	-1.5003002e-09
8	0xaec86831	-9.113455e-11
9	0x3a06370c	0.0005119897
10	0x14696db4	1.1785129e-26
11	0xbbb4d63d	-0.0055187033
12	0xba67335f	-0.00088196056
13	0x9b40dc40	-1.5953034e-22
14	0x94c549f4	-1.9921086e-26
15	0xbc079289	-0.008274683
16	0xbbd38906	-0.0064555435
17	0x94af81a6	-1.7721622e-26
18	0xba79d01e	-0.0009529608
19	0xae9ddf98	-7.1792516e-11
20	0x2b7c4a1f	8.963125e-13
21	0xa073c852	-2.0649181e-19
22	0xb9b14956	-0.0003381471
23	0xbd080614	-0.03320892
24	0x3a7e6224	0.0009703955
25	0x3477ebf4	2.3089507e-07
26	0xba1e2fbe	-0.0006034336
27	0x96ddd46c	-3.5838533e-25
28	0xb21f5a64	-9.2755705e-09
29	0xb8ece4fa	-0.00011296007
30	0x23f93cb6	2.7022346e-17
31	0x12b6f6a4	1.1546616e-27
32	0x3b3e8e39	0.002907647
33	0xbcb27353	-0.021783506
34	0x39a02544	0.00030545343
35	0xbd078ffb	-0.033096295
36	0x2e0beb44	3.18139e-11
37	0xa97730b6	-5.4887267e-14
38	0x32aeaab9	2.0333902e-08
39	0x9f808f91	-5.444762e-20
40	0x3085497a	9.697907e-10
41	0x3810e525	3.4545683e-05
42	0xbb9d96e4	-0.0048092473
43	0xb990d8cb	-0.00027627344
44	0xb4ca1768	-3.7642462e-07
45	0x9b817c99	-2.142178e-22
46	0x35c27360	1.4487705e-06
47	0x26a3ebdd	1.1374328e-15
48	0x359c19f9	1.1630465e-06
49	0xbca94267	-0.020661546
50	0x25ce4aaa	3.5785898e-16
51	0x3a6c0b86	0.00090044027
52	0xa539dc7b	-1.6120894e-16
53	0xbc74b2db	-0.014935221
54	0x9f9a333a	-6.5306284e-20
55	0x2c557ab8	3.0337243e-12
56	0x2c40d591	2.7403394e-12
57	0x970aae39	-4.4810105e-25
58	0x9cd49ff1	-1.4070327e-21
59	0xbc02147b	-0.007939453
60	0x3a872e93	0.0010313563
61	0x17bd8dfc	1.2249681e-24
62	0xb31fae14	-3.7178395e-08
63	0x166b3204	1.8998931e-25
64	0x16de2171	3.588714e-25
65	0x3b6740f0	0.0035286509
66	0x9ac615d4	-8.1926146e-23
67	0x986189ba	-2.9150103e-24
68	0x1badab0c	2.8730986e-22
69	0x9ceda5b2	-1.5726176e-21
70	0x1514bb90	3.0036323e-26
71	0x18f8770f	6.4226716e-24
72	0x39089a44	0.00013027439
73	0x93343400	-2.2744832e-27
74	0xb9a682a0	-0.0003175931
75	0x1f981a6d	6.441822e-20
76	0x9c15cc9d	-4.956442e-22
77	0x3c0a3e42	0.008437695
78	0x31bbda6e	5.467249e-09
79	0x3a192414	0.0005841863
80	0xac93bc6f	-4.1989116e-12
81	0xba06ef3c	-0.0005147343
82	0x2a17dd3e	1.3488253e-13
83	0x3419569a	1.4280741e-07
84	0xbd1d6cc7	-0.038433816
85	0xbda2432e	-0.0792297
86	0x393fd1ab	0.00018293287
87	0xa59ec4f0	-2.754208e-16
88	0xb1369d3f	-2.657387e-09
89	0x94471e5e	-1.0052921e-26
90	0xb9e7e444	-0.00044229825
91	0x9dd5e7ec	-5.6620432e-21
92	0x33e018ea	1.0435345e-07
93	0xb18683fc	-3.914918e-09
94	0xbc08b104	-0.008342985
95	0x2109a253	4.663224e-19
96	0x1dee3ee2	6.3063095e-21
97	0x3c408355	0.011750062
98	0x9aaf6813	-7.2546445e-23
99	0x97785257	-8.023705e-25
100	0x1e898423	1.456009e-20
101	0x33a82276	7.829378e-08
102	0x2d801cdb	1.456473e-11
103	0x3392d968	6.838201e-08
104	0x3d422aac	0.047403976
105	0xb8adb3b2	-8.282754e-05
106	0x9986d5c8	-1.3941621e-23
107	0x97072497	-4.3667035e-25
108	0x3c01421e	0.007889299
109	0x24573652	4.6666705e-17
110	0x270ff0b6	1.9975726e-15
111	0xa69be9ac	-1.0818622e-15
112	0xb82f88cf	-4.1850664e-05
113	0xb63b68c9	-2.7926164e-06
114	0x99453dc2	-1.0197133e-23
115	0x20664da9	1.9507453e-19
116	0x35ee2cc8	1.7745415e-06
117	0xb0b36fc6	-1.3055732e-09
118	0xbc9d9ed8	-0.019240782
119	0x3a9fbe20	0.0012187399
120	0x21e5a705	1.5561853e-18
121	0x1b1150ce	1.2020228e-22
122	0xb525c353	-6.1751524e-07
123	0x3bd04281	0.006355584
124	0xa4ef471e	-1.03770205e-16
125	0x1fd8c2e3	9.180197e-20
126	0xa6a2191d	-1.1247815e-15
127	0x2171dd80	8.194713e-19
128	0xbbcde72e	-0.0062836623
129	0x3c7dfc7f	0.015502094
130	0xb5091c52	-5.107769e-07
131	0xbd1b9103	-0.03798009
132	0xbaba1db8	-0.0014199531
133	0x1914d8cf	7.695205e-24
134	0x2bcba572	1.4469938e-12
135	0x2cd3214c	6.0006774e-12
136	0x272328e1	2.2642955e-15
137	0x3c70aebe	0.014690099
138	0x959491a7	-6.000652e-26
139	0xbca6fcb0	-0.020384163
140	0xba66cfd6	-0.00088047737
141	0x99ae6df3	-1.8035586e-23
142	0x14924834	1.4770712e-26
143	0xb9c29f18	-0.00037121098
144	0xba99f119	-0.0011744826
145	0x93718879	-3.0485763e-27
146	0xb96d82cb	-0.00022650805
147	0x33326988	4.1539835e-08
148	0x18079dce	1.7528012e-24
149	0xa2b6b81f	-4.9526145e-18
150	0xbb22591b	-0.002477235
151	0xbb94c565	-0.004540133
152	0xba6de78b	-0.0009075335
153	0x2803ef96	7.323913e-15
154	0xb90165cc	-0.00012340321
155	0x985728e8	-2.7808751e-24
156	0xaf21681c	-1.4679852e-10
157	0x391dceb6	0.00015049693
158	0x1a6518f9	4.7376263e-23
159	0x93b1c668	-4.4876725e-27
160	0x3cdd530d	0.02701714
161	0xbcc313b0	-0.023813099
162	0xb9628d96	-0.00021605784
163	0xbd47419b	-0.04864655
164	0x2ee769ac	1.0523435e-10
165	0x2c1731bc	2.1485999e-12
166	0x31b3d43e	5.233715e-09
167	0x21843a74	8.96014e-19
168	0xa6a85077	-1.1679152e-15
169	0xa580e12f	-2.235705e-16
170	0x3b29fe18	0.0025938805
171	0xb7a6cd58	-1.9884363e-05
172	0xadb3a135	-2.0421534e-11
173	0x1aad294e	7.1617854e-23
174	0xb1033bfc	-1.9097106e-09
175	0xa27ab4fb	-3.3977128e-18
176	0x2fb313ae	3.2573894e-10
177	0xbb020365	-0.001983845
178	0xae4134cf	-4.3930023e-11
179	0x399a26cf	0.00029402084
180	0x228062ca	3.4799067e-18
181	0xbb9387df	-0.004502281
182	0x232cbbbc	9.363893e-18
183	0x2a66cdb7	2.0499475e-13
184	0x25d20452	3.643212e-16
185	0x97174fd3	-4.8891484e-25
186	0xa1350571	-6.1332387e-19
187	0x384ade36	4.8367503e-05
188	0xbaaa8487	-0.0013009467
189	0x180cbf44	1.819114e-24
190	0x32088c4c	7.948142e-09
191	0x970363ef	-4.2454517e-25
192	0x98e5501e	-5.927601e-24
193	0x3d482e03	0.048872005
194	0x1c8d7a34	9.362186e-22
195	0x98c6928e	-5.1329783e-24
196	0x1bb36e97	2.9684533e-22
197	0x9ba86702	-2.7859836e-22
198	0x18768551	3.1862062e-24
199	0x96a78118	-2.7061775e-25
200	0x254bc496	1.7674049e-16
201	0x981ba522	-2.0116651e-24
202	0xbb58647d	-0.003301888
203	0x9a584c07	-4.4729167e-23
204	0x1b8bfb23	2.3157914e-22
205	0x3c2f7006	0.010707861
206	0x258dd61a	2.4604682e-16
207	0xb8b722f6	-8.732632e-05
208	0xa81860ba	-8.458669e-15
209	0x3a0cace8	0.0005366341
210	0x1f524bac	4.4531824e-20
211	0xb10fed42	-2.0944104e-09
212	0xbc27c75d	-0.010240403
213	0xb8da1956	-0.00010399769
214	0xba9b8fb4	-0.0011868388
215	0xa24b62d9	-2.756396e-18
216	0xb08b8274	-1.0150658e-09
217	0x9673c9c6	-1.9693052e-25
218	0xbb5a6f61	-0.0033330547
219	0x9b2d0ad2	-1.4313721e-22
220	0xb121eaeb	-2.356212e-09
221	0x2cfaad46	7.1246646e-12
222	0x3cfed431	0.03110704
223	0xb6272304	-2.490532e-06
224	0x1de5e9c4	6.0857503e-21
225	0xbad487b4	-0.0016214759
226	0x97de83d2	-1.437969e-24
227	0x952adce0	-3.4505466e-26
228	0x1e541967	1.122844e-20
229	0xb0c219e0	-1.4122712e-09
230	0xa9764415	-5.4682025e-14
231	0x2785058a	3.692092e-15
232	0xbd7576b6	-0.059927665
233	0xb81aedd3	-3.6937952e-05
234	0x99315a84	-9.168965e-24
235	0x178860be	8.813215e-25
236	0xbdc568a7	-0.096391015
237	0xa6d91f95	-1.506596e-15
238	0x23855f52	1.4460259e-17
239	0x22513b28	2.8356099e-18
240	0x37eabeda	2.7983846e-05
241	0x352cdd63	6.4397153e-07
242	0x199619c8	1.552005e-23
243	0x20acde00	2.928484e-19
244	0x35dcb5ae	1.6444153e-06
245	0x278a7b59	3.843643e-15
246	0xbbf90dd3	-0.007600525
247	0xb8046675	-3.1566673e-05
248	0xa2d9efc9	-5.907185e-18
249	0x9bfd924d	-4.1949884e-22
250	0x31043288	1.9237252e-09
251	0xbc555133	-0.013019848
252	0x25db7ad9	3.807369e-16
253	0x1e659fe0	1.21562204e-20
254	0x9a3e2441	-3.9320365e-23
255	0xa39f6c2c	-1.7284627e-17

mlps.0.weight f4 [8, 128]
0	0xbcdc1908	-0.026867405
1	0xbcb35df7	-0.021895392
2	0x3c2a69f8	0.0104012415
3	0xbd97c030	-0.07409704
4	0x3c979c8f	0.01850727
5	0x3d655c56	0.05599626
6	0x3ca1325a	0.01967733
7	0xbd16c29b	-0.036806684
8	0xbd749582	-0.059712894
9	0x3d81852c	0.06324229
10	0x3ca88f31	0.020576091
11	0xbd6d2ba2	-0.05790294
12	0xbbe2bdc7	-0.006919596
13	0x3d81a52b	0.063303314
14	0xbd6db08f	-0.058029708
15	0xbd3eccaf	-0.04658192
16	0x3d92ac31	0.07161749
17	0x3c569f2b	0.013099472
18	0x3c700ea6	0.01465193
19	0x3d5e3f89	0.05425981
20	0x3d2907b0	0.041267097
21	0x3d65263e	0.055944674
22	0x3daee62d	0.08539996
23	0xbda42fab	-0.080169044
24	0x3d020935	0.03174706
25	0x3c0bac39	0.008524948
26	0xbdafc14c	-0.0858179
27	0x3c6f86f9	0.014619582
28	0xbd3700b5	-0.04467841
29	0xbd9e330c	-0.0772458
30	0x3db2ec92	0.087365285
31	0xbd628e74	-0.055311635
32	0x3d61410b	0.05499367
33	0xbda068d0	-0.078324914
34	0xbaebd35d	-0.0017992068
35	0x3b78275b	0.0037865255
36	0xbd0d7cb7	-0.034542765
37	0xbd082d04	-0.033246055
38	0xbd84f73e	-0.0649247
39	0x3d9a5807	0.07536321
40	0x3ca0b5a9	0.019617872
41	0x3d3ace26	0.045606755
42	0x3d4f9aeb	0.05068485
43	0xbd58075a	-0.052741386
44	0x3ca2f846	0.019893777
45	0xbd82c642	-0.06385471
46	0xbd08834b	-0.033328336
47	0xbced208b	-0.028946182
48	0x3d57860d	0.052618075
49	0xbc167c75	-0.009184946
50	0xbdb35b30	-0.08757627
51	0xbdae1c84	-0.08501533
52	0xbcb4f4e8	-0.022089437
53	0x3da75cf8	0.08172029
54	0xbd965972	-0.07341279
55	0x3d94c74c	0.07264575
56	0xbbf0d37d	-0.00734943
57	0xbd7bcd2b	-0.06147496
58	0x3d8ce6c8	0.068799555
59	0xbdae0c69	-0.08498461
60	0x3c97589d	0.018474871
61	0xbd8e63e2	-0.06952645
62	0xbd524bdf	-0.051341888
63	0xbca1f261	-0.019768896
64	0xbd6bccc7	-0.057568338
65	0x3bbb1b3c	0.0057100337
66	0x3c8ffd69	0.01757689
67	0x3c31e9f1	0.010858999
68	0xbd24b461	-0.040211085
69	0xbd9d5113	-0.07681479
70	0x3da806b4	0.082044035
71	0x3b178b6a	0.0023123869
72	0xbd716c97	-0.05894145
73	0xbd0aca01	-0.033884052
74	0x3d6f7828	0.0584642
75	0x3d7e4c67	0.06208458
76	0xbc5bb4f4	-0.013409842
77	0x3d660e32	0.05616588
78	0xbd7283c7	-0.059207704
79	0x3d35dd94	0.044400766
80	0x3dab6bb7	0.08370154
81	0x3d9717f3	0.07377615
82	0x3d951e7c	0.07281205
83	0xbd20d10f	-0.039261874
84	0xbd47bcbc	-0.048763976
85	0x3d0ad91c	0.033898458
86	0x3c11438a	0.0088662
87	0x3c79bcc0	0.015242755
88	0xbd78ac18	-0.060710996
89	0x3d86d0f1	0.06582821
90	0xbd8c393a	-0.068468526
91	0x3d8ec298	0.069707096
92	0x3d8cd5b9	0.06876702
93	0x3dafc3a0	0.085822344
94	0x3d262cc8	0.04057005
95	0x3ca4fdbe	0.020140525
96	0xbd50cdb7	-0.050977435
97	0xbca87f8c	-0.020568632
98	0xbd49353a	-0.049123026
99	0xbd12c887	-0.03583577
100	0x3c8d54ee	0.017252412
101	0x3b427232	0.0029670116
102	0x3d98e18b	0.07464894
103	0x3c8abf52	0.016936932
104	0x3b0a6c4d	0.0021121681
105	0x3d20fcef	0.039303716
106	0xbd08ba7b	-0.033380967
107	0x3d808d16	0.0627691
108	0x3d9b48fc	0.0758228
109	0xbb997b46	-0.004683885
110	0x3c3dc78a	0.011583218
111	0x3da65032	0.08120765
112	0x3d07c471	0.033146325
113	0xbd8f796a	-0.0700558
114	0x3d8a6987	0.06758409
115	0x3da166a8	0.07880908
116	0x3d9668df	0.07344221
117	0x3da62d83	0.081141494
118	0x3d9ca840	0.07649279
119	0xbda81991	-0.082080014
120	0x3c81c276	0.015839797
121	0xbd9e86ab	-0.077405296
122	0xbd65ea44	-0.056131616
123	0xbd41dceb	-0.047329824
124	0x3da594ed	0.08085046
125	0xbc90281a	-0.017597247
126	0x3b1e18d9	0.0024123697
127	0x3dac9e99	0.084286876
128	0x3d8a01e2	0.0673864
129	0xbc143c1f	-0.009047537
130	0x3d864b96	0.065573856
131	0xbd8caeff	-0.06869315
132	0x3ccdaa22	0.02510554
133	0xbd9d34d8	-0.07676095
134	0x3cc72ba8	0.02431281
135	0x3d89157a	0.066935495
136	0xbcb33f02	-0.02188063
137	0xbd8c9452	-0.06864227
138	0xbd0fa38a	-0.035068072
139	0xbca8c181	-0.020600082
140	0xbd0e8c5b	-0.034801822
141	0xbc2a440d	-0.010392201
142	0x3d9fde43	0.07806065
143	0xbd1bf994	-0.038079813
144	0xbd606e2f	-0.05479258
145	0xbb9d5e15	-0.004802475
146	0xbba8f356	-0.005155961
147	0xbcc8e813	-0.024524724
148	0x3db073fa	0.08615871
149	0xbd74b83f	-0.059746023
150	0x3c81bf26	0.015838217
151	0x3c49381c	0.012281444
152	0x3ce53de8	0.02798362
153	0xbd88909e	-0.066682085
154	0x3d20233f	0.039096113
155	0xbb3f10b2	-0.0029154238
156	0x3cad0a4b	0.021123072
157	0xbd8c40b2	-0.06848277
158	0x3d6408ae	0.05567234
159	0xbd44562a	-0.047933735
160	0xbd789843	-0.060692083
161	0xbd5c744a	-0.05382184
162	0x3d2dd506	0.042439483
163	0xbce211dc	-0.027596407
164	0xbd4f24aa	-0.050572075
165	0x3c218f13	0.009860772
166	0xbd57acaa	-0.0526549
167	0xbd890ced	-0.066919185
168	0x3d2b9dd6	0.04189857
169	0x3ce0327d	0.027367825
170	0xbd7dca49	-0.061960492
171	0xbd482d30	-0.04887122
172	0x3d17af33	0.037032317
173	0xbc845ddc	-0.016158037
174	0x3d953ba6	0.07286768
175	0x3c1fdcdd	0.009757248
176	0xbd9ade20	-0.07561898
177	0x3d562d37	0.052289214
178	0x3d9b4263	0.07581022
179	0xbdad045b	-0.08448096
180	0x3d1254ac	0.03572528
181	0x3d0bfacd	0.03417473
182	0xbc314e60	-0.010821909
183	0xbbe86851	-0.0070925136
184	0xbcb03b2e	-0.021512594
185	0x3c770fa7	0.015079415
186	0xbd02e520	-0.031956792
187	0x3da66d84	0.08126357
188	0x3cfd10b4	0.030891754
189	0xbca34575	-0.01993058
190	0xbdb01a51	-0.085987695
191	0x3da4f695	0.08054844
192	0x3da290ef	0.079378
193	0x3c8a2395	0.01686267
194	0xbd31252a	-0.043248333
195	0xbd3e320f	-0.04643446
196	0xbd09b436	-0.03361913
197	0x3cac1d15	0.021009961
198	0xbd9e22a4	-0.07721451
199	0x3d5fd2fe	0.054644577
200	0x3d0053ba	0.031329848
201	0xbae1e0b7	-0.0017233108
202	0x3cae10e5	0.02124829
203	0x3d29b4fb	0.041432362
204	0xbdb14551	-0.08655799
205	0x3a7f4f4b	0.00097392936
206	0xbc65818c	-0.014007937
207	0x3da2ecf2	0.0795535
208	0xbd2da99a	-0.042398073
209	0x3ccb29bc	0.024800174
210	0x3db2ba17	0.087269
211	0xbd9fc0ab	-0.078004204
212	0x3c2ed146	0.010670012
213	0xbc7d8697	-0.015473983
214	0xbd056ac8	-0.032572538
215	0x3c0a338f	0.008435144
216	0xbd6be063	-0.05758704
217	0xbd77b090	-0.060471117
218	0xbda4fbb8	-0.08055824
219	0xbd764352	-0.060122795
220	0x3cdb5836	0.02677546
221	0xbd9c8659	-0.07642812
222	0xbc165ef0	-0.009177908
223	0xbd91d1bc	-0.07120082
224	0xbd7f7d22	-0.062375195
225	0x3d085ae6	0.033289813
226	0xbd230719	-0.03980169
227	0x3d373e4b	0.04473714
228	0x3d470eeb	0.04859821
229	0x3d45c366	0.04828205
230	0x3db2409b	0.08703729
231	0xbd72f270	-0.059313238
232	0xbd50fdf1	-0.051023427
233	0x3d2ee50a	0.042698897
234	0xbcb914e2	-0.022592966
235	0x3dac2a46	0.084065005
236	0xbc931882	-0.017956022
237	0x3da1484f	0.0787512
238	0xbd2fc60b	-0.042913478
239	0xbca06d01	-0.019583227
240	0x3c819d73	0.015822148
241	0xbd268613	-0.040655207
242	0x3d1f387c	0.038872227
243	0xbc21274e	-0.009836031
244	0x3d8feae7	0.07027226
245	0xb9d4dde4	-0.00040601112
246	0xbc6e5fb6	-0.014549186
247	0x3d995ac1	0.07488013
248	0xbd3f439c	-0.046695337
249	0x3cdb67d5	0.02678291
250	0xbd3bb505	-0.04582693
251	0xbd943fd7	-0.07238739
252	0xbdaa3e88	-0.08312708
253	0x3cb9fd80	0.022703886
254	0xbd2179fb	-0.03942297
255	0xbdac2389	-0.08405215

mlps.0.bias f4 [8]
0	0x3d06cf0e	0.032912306
1	0x3d980e91	0.07424653
2	0x3d8227e0	0.06355262
3	0xbd8710b1	-0.065949805
4	0xbd8b3537	-0.06797259
5	0xbcd00502	-0.025393013
6	0xbd24c02b	-0.04022233
7	0xbd85961f	-0.06522774
